dense_model.pth (torch, 419330 bytes, 54 tensors)

raw_layers.0.weight f4 [64, 49]
0	0xb8b8a6d9	-8.8048815e-05
1	0xb8e2d9b5	-0.00010817071
2	0xb7e6cdc2	-2.751395e-05
3	0xb9841e83	-0.00025199735
4	0xb78d63c0	-1.685496e-05
5	0x38afed50	8.388853e-05
6	0xb7a95f01	-2.019061e-05
7	0xb7fe1d4d	-3.0292804e-05
8	0xb7a9326b	-2.0169848e-05
9	0x37dbbc7e	2.6194608e-05
10	0x3821a34e	3.853748e-05
11	0xb938e0a8	-0.00017631298
12	0x3899f02c	7.340344e-05
13	0x392572a3	0.00015778332
14	0x397eff1e	0.00024318366
15	0xb959fa0b	-0.00020787881
16	0xb807735d	-3.229395e-05
17	0x376c3b0f	1.4080447e-05
18	0x36d5a1f5	6.366749e-06
19	0xb9310189	-0.00016880607
20	0x376641f3	1.3724423e-05
21	0xb8f1c735	-0.00011528881
22	0xb8c61564	-9.44536e-05
23	0x37ac2d50	2.0525098e-05
24	0x39a8a1ca	0.00032164
25	0x378d6190	1.685394e-05
26	0x3729f34f	1.0129835e-05
27	0xb8a5381c	-7.878264e-05
28	0xb87aa20c	-5.9755563e-05
29	0xb8e9fa84	-0.00011156968
30	0x3848780c	4.779552e-05
31	0x384dc321	4.9057537e-05
32	0x38832acd	6.254539e-05
33	0xb50fb8e6	-5.3540714e-07
34	0xb8c939bf	-9.595183e-05
35	0xb7f36787	-2.9016066e-05
36	0xb92ef06f	-0.00016683502
37	0x38a196aa	7.7051416e-05
38	0xb930f371	-0.00016875357
39	0xb8f9a91a	-0.00011904743
40	0xb93924a1	-0.0001765662
41	0x38d455a0	0.00010124897
42	0xb7d067be	-2.4843841e-05
43	0x38adcb86	8.287192e-05
44	0xb86248e2	-5.3950476e-05
45	0x3938bacd	0.00017617196
46	0x39205dcc	0.00015293731
47	0xb8342b93	-4.2955926e-05
48	0xb8d921eb	-0.00010353684
49	0x38a0c7ac	7.666586e-05
50	0x392742ed	0.00015951293
51	0x38dde9ce	0.00010581651
52	0x38ddbecf	0.00010573642
53	0xb941b482	-0.00018473159
54	0xb8933af0	-7.020484e-05
55	0xb774acf3	-1.4583801e-05
56	0xbc07e1b5	-0.008293559
57	0x38f1cfa1	0.000115304494
58	0x3996684f	0.00028687945
59	0xb86a5c5a	-5.5875957e-05
60	0x38a8d3ec	8.050338e-05
61	0xb72433f0	-9.787254e-06
62	0x384afe10	4.8397167e-05
63	0xb83f5059	-4.561278e-05
64	0x3905b495	0.0001275114
65	0xb7de0250	-2.646554e-05
66	0x38dc3ef1	0.00010502141
67	0x39182e79	0.00014513162
68	0xb768b3a2	-1.3870102e-05
69	0x38d736a9	0.0001026218
70	0x3c37e611	0.011224286
71	0xb78dde87	-1.6912132e-05
72	0xb83a7feb	-4.446499e-05
73	0x390f2cde	0.00013654257
74	0x389b2c3e	7.399217e-05
75	0xb842ed40	-4.647416e-05
76	0x373e73d1	1.1351848e-05
77	0xb9487490	-0.00019116909
78	0x3801f9aa	3.0988514e-05
79	0x3905495b	0.00012711195
80	0xb90d3572	-0.00013466718
81	0xb88243b2	-6.211492e-05
82	0x388391a1	6.273692e-05
83	0x38795940	5.9449347e-05
84	0x36e756b0	6.894428e-06
85	0xb76ba92d	-1.4046481e-05
86	0xb7e91034	-2.778331e-05
87	0x39832e39	0.00025020706
88	0xb8ca02a9	-9.632606e-05
89	0x38e6d9c5	0.000110078174
90	0xb92ab07e	-0.00016278212
91	0x394c6cdb	0.00019495508
92	0xb7e25441	-2.6980533e-05
93	0x389d310d	7.49548e-05
94	0x38a4471e	7.833376e-05
95	0xb90102c4	-0.00012303429
96	0x38197ce9	3.6594374e-05
97	0x38f937eb	0.00011883661
98	0x393cfd31	0.00018023398
99	0xb987dd21	-0.0002591396
100	0xb951b3f9	-0.00019998838
101	0xb7c04209	-2.2918934e-05
102	0x37a5f212	1.9782256e-05
103	0xb88dc963	-6.760915e-05
104	0x39493cc1	0.00019191486
105	0x3bba9c53	0.005694905
106	0xb97ea691	-0.00024285378
107	0x3b06c914	0.002056663
108	0x3ae99bf3	0.0017822966
109	0x38e779f7	0.00011037656
110	0xb8b68566	-8.703284e-05
111	0x379e43e3	1.886668e-05
112	0xb5d17c59	-1.5607903e-06
113	0xb7545306	-1.2655515e-05
114	0xb8adaeb9	-8.2818275e-05
115	0xb7cecf17	-2.4653547e-05
116	0x392c1262	0.00016410046
117	0x397f217f	0.00024331173
118	0x3932e4a2	0.00017060575
119	0x39d6cc68	0.00040969555
120	0xb90afe25	-0.00013255382
121	0xb6810474	-3.845018e-06
122	0x38416358	4.6107307e-05
123	0x39352c70	0.0001727806
124	0x3826ca3b	3.9765826e-05
125	0x382d36b3	4.1297357e-05
126	0x378564bc	1.5901744e-05
127	0x38d34e17	0.000100758094
128	0xb88e0542	-6.772067e-05
129	0xb713130c	-8.7663175e-06
130	0x39029e89	0.00012456825
131	0xb8d9853a	-0.00010372182
132	0xb8fa9bc1	-0.000119499404
133	0xb87d23eb	-6.035335e-05
134	0x377b0e5c	1.4964109e-05
135	0x38f074da	0.00011465857
136	0xba1c0625	-0.00059518433
137	0xb78281b2	-1.5557602e-05
138	0x37e7d8e2	2.763834e-05
139	0x3887689e	6.456788e-05
140	0x3826f333	3.980398e-05
141	0xb9051cb5	-0.00012694563
142	0xb90e586d	-0.00013575116
143	0xb8dd6fb0	-0.000105589046
144	0xb927ed56	-0.00016014776
145	0xb8bf5521	-9.123446e-05
146	0xb89041a5	-6.878682e-05
147	0x3998e704	0.0002916382
148	0xb8c35ced	-9.315633e-05
149	0x379b6d44	1.852832e-05
150	0xb97f3803	-0.00024339561
151	0xb8eeed32	-0.000113929054
152	0x36e5f7ca	6.8535783e-06
153	0xb57fb41d	-9.5257e-07
154	0xb6592981	-3.2359678e-06
155	0x38a41261	7.823553e-05
156	0xb9929a86	-0.0002796242
157	0x38b91d0d	8.8268986e-05
158	0x383e6f5e	4.540325e-05
159	0x374bd0aa	1.2148326e-05
160	0xb722e5c8	-9.709453e-06
161	0x3687bbe1	4.0451855e-06
162	0xb857602b	-5.1349558e-05
163	0x3868f241	5.5538727e-05
164	0x386fe024	5.7190788e-05
165	0xb804dc04	-3.1676158e-05
166	0x342ac2e8	1.590339e-07
167	0xb95f4e2f	-0.00021296063
168	0xb927a6f6	-0.00015988559
169	0xb8b0dd5f	-8.4335676e-05
170	0x382c7a23	4.1121744e-05
171	0x37a8cbaf	2.0122008e-05
172	0x3902d8f5	0.00012478589
173	0xb7d709b7	-2.5634521e-05
174	0xb886313a	-6.398787e-05
175	0xb80e0c47	-3.3866872e-05
176	0x396b4ea5	0.00022440644
177	0xb6b5d3ef	-5.4188927e-06
178	0x3783081e	1.5620197e-05
179	0x3a0a98bc	0.00052870414
180	0xb86a9144	-5.5925237e-05
181	0x388cbf1d	6.711318e-05
182	0x38bee284	9.102098e-05
183	0x384a0368	4.8163725e-05
184	0xb8a0abe7	-7.661414e-05
185	0x3982dabb	0.000249585
186	0xb88b7c9c	-6.651247e-05
187	0xb7b489cb	-2.1521837e-05
188	0xb937479a	-0.00017478914
189	0x378fc730	1.7139682e-05
190	0x37874bdc	1.6128579e-05
191	0xb8f53ac7	-0.000116934585
192	0xb93aff37	-0.00017833417
193	0x3884ed6d	6.3384745e-05
194	0xb88ec880	-6.808434e-05
195	0x397e867d	0.00024273428
196	0x392c9428	0.00016458391
197	0xb95a9e28	-0.00020849018
198	0x385f64e6	5.3261312e-05
199	0xb84183b4	-4.6137444e-05
200	0x372b5be1	1.02137865e-05
201	0xb9035b8c	-0.00012527237
202	0x379153a0	1.7324288e-05
203	0xb8496d08	-4.8023678e-05
204	0x38ea6fdc	0.00011178825
205	0xb9223cca	-0.0001547217
206	0xb8e005f8	-0.00010682264
207	0xb82fb3eb	-4.1890813e-05
208	0x380c865f	3.3503744e-05
209	0xb7d5069a	-2.5394653e-05
210	0x38c5ab9f	9.425659e-05
211	0xb7d453cc	-2.531139e-05
212	0x38b57dc9	8.654182e-05
213	0x394c26b2	0.00019469371
214	0x36c00111	5.72217e-06
215	0xb8e353c6	-0.000108398075
216	0x380b2b16	3.318031e-05
217	0x3917a6bf	0.000144626
218	0x3903e099	0.00012576803
219	0x38ab864b	8.1789294e-05
220	0xb881f72d	-6.1972394e-05
221	0x37e411ed	2.7188065e-05
222	0x376a47b7	1.3964184e-05
223	0x395253c7	0.0002005837
224	0xb8b09575	-8.4201725e-05
225	0x38ba012d	8.86939e-05
226	0x39107367	0.00013775901
227	0xb81df426	-3.7659098e-05
228	0xb97fe6a6	-0.00024404618
229	0xb95917f8	-0.00020703662
230	0xb90959db	-0.00013098812
231	0xb8271693	-3.9836927e-05
232	0xb92b97a1	-0.00016364317
233	0x37009e9b	7.666323e-06
234	0x397461e9	0.00023306128
235	0xb7d026e2	-2.4813638e-05
236	0x38197bd1	3.6593356e-05
237	0xb83d9724	-4.5201872e-05
238	0xb91c4ba0	-0.00014905492
239	0xb925dd22	-0.00015818005
240	0xb638104c	-2.7427623e-06
241	0x380276ed	3.1105174e-05
242	0x389f58e4	7.598268e-05
243	0x36402579	2.8632041e-06
244	0xb6f89a76	-7.4089576e-06
245	0x390012eb	0.00012214079
246	0xb936c1dc	-0.00017429091
247	0xb8b1f87f	-8.486304e-05
248	0xb7718ef9	-1.4398008e-05
249	0xb97786cb	-0.0002360597
250	0xb74cf0ad	-1.2215384e-05
251	0x37ca760d	2.4135248e-05
252	0x38efe489	0.00011438976
253	0xb9088bb9	-0.00013022021
254	0xb7f618f6	-2.9337109e-05
255	0xb6835899	-3.9144184e-06

raw_layers.0.bias f4 [64]
0	0x38934c18	7.02368e-05
1	0x39121d70	0.00013934611
2	0x3889a84e	6.564018e-05
3	0xb888f405	-6.5304375e-05
4	0x392f1f23	0.000167009
5	0xb896acd1	-7.184747e-05
6	0x3891769c	6.9362315e-05
7	0xb981d4f1	-0.0002476345
8	0xba99cc3e	-0.0011733843
9	0xb828e2ce	-4.026555e-05
10	0x3771bdf7	1.4408949e-05
11	0x394eeb75	0.00019733405
12	0xb8cb82b6	-9.704141e-05
13	0x39686a8e	0.00022164939
14	0xbb1a4fca	-0.0023546093
15	0x3909c5dd	0.00013139048
16	0xb6c04e7d	-5.731183e-06
17	0xb7cddd52	-2.4540965e-05
18	0xb8175697	-3.608185e-05
19	0x39ab418a	0.00032664492
20	0xb8fc2268	-0.00012022705
21	0x382a845e	4.0654435e-05
22	0xb8757c7c	-5.8528487e-05
23	0xbc3aa701	-0.011392356
24	0xbc180f15	-0.00928094
25	0x38bc69da	8.984255e-05
26	0xba96df89	-0.001151071
27	0x391dd0c8	0.00015050464
28	0x382f1350	4.1741238e-05
29	0xb919b905	-0.00014660142
30	0x390bb983	0.00013325181
31	0xba9c34e2	-0.0011917616
32	0xb7ed21c2	-2.8268321e-05
33	0xba85a7bf	-0.0010197087
34	0x385753ac	5.133792e-05
35	0x3813e0b8	3.5256817e-05
36	0xb85c9162	-5.2587486e-05
37	0x37d1236f	2.4931242e-05
38	0xb8e3036e	-0.00010824842
39	0x389432b7	7.066636e-05
40	0x38d15bac	9.982972e-05
41	0xb8208feb	-3.8281007e-05
42	0x3d0a1f78	0.033721417
43	0x388f93d7	6.846309e-05
44	0xbaa52e97	-0.0012602386
45	0x3889d537	6.5723834e-05
46	0x3a291830	0.00064504426
47	0xb8075b44	-3.2271506e-05
48	0x38395d77	4.4194483e-05
49	0x3844db4c	4.6934278e-05
50	0x390ef71e	0.00013634234
51	0xb872d5f9	-5.7896574e-05
52	0x39be4415	0.0003629035
53	0x383f8838	4.5664812e-05
54	0x38222cb6	3.866545e-05
55	0x39ba5328	0.0003553864
56	0x3835cd22	4.3344808e-05
57	0x3856e730	5.1236886e-05
58	0x388ed520	6.810785e-05
59	0x36bc96fe	5.6204144e-06
60	0x37809d7e	1.5332127e-05
61	0xb5b15853	-1.3213233e-06
62	0x38c5f6c8	9.4396586e-05
63	0xb7dc2a24	-2.6245667e-05

raw_layers.1.weight f4 [64]
0	0x3f4eab99	0.8073059
1	0x3f50d41f	0.8157367
2	0x3f4a4991	0.79018503
3	0x3f52f1a2	0.8239995
4	0x3f51a3b1	0.818904
5	0x3f51c8a0	0.81946754
6	0x3f4a531f	0.7903308
7	0x3f517294	0.8181546
8	0x3f50a3bb	0.8149983
9	0x3f4d897a	0.802879
10	0x3f4a16c3	0.7894098
11	0x3f5280ef	0.8222799
12	0x3f51a400	0.8189087
13	0x3f52447c	0.8213575
14	0x3f5bb268	0.858191
15	0x3f4e852c	0.80671954
16	0x3f534923	0.8253347
17	0x3f487792	0.7830745
18	0x3f4d288b	0.8013999
19	0x3f5241ff	0.8213195
20	0x3f4d219d	0.80129415
21	0x3f562fc2	0.8366662
22	0x3f544ace	0.8292664
23	0x3f71cb93	0.94451255
24	0x3f70ff72	0.9413978
25	0x3f584292	0.8447658
26	0x3f539ff1	0.82665926
27	0x3f53aaab	0.82682294
28	0x3f446f19	0.7673202
29	0x3f552ab9	0.83268315
30	0x3f52aad7	0.8229193
31	0x3f4b90b4	0.79517674
32	0x3f48180a	0.7816168
33	0x3f4c76be	0.79868686
34	0x3f5073f3	0.81426924
35	0x3f540172	0.82814705
36	0x3f523a0c	0.8211982
37	0x3f559e31	0.83444506
38	0x3f520f28	0.82054377
39	0x3f4e851d	0.80671865
40	0x3f53c5f8	0.8272395
41	0x3f50ef92	0.81615555
42	0x3f7535d4	0.9578526
43	0x3f524721	0.82139784
44	0x3f4a45d7	0.7901282
45	0x3f516a56	0.8180288
46	0x3f4ae7cc	0.79259944
47	0x3f5212b4	0.8205979
48	0x3f54f461	0.8318539
49	0x3f539124	0.8264334
50	0x3f541183	0.8283922
51	0x3f486d08	0.7829137
52	0x3f52e577	0.82381386
53	0x3f52a64f	0.82285017
54	0x3f515205	0.81765777
55	0x3f528b3f	0.8224372
56	0x3f527c03	0.82220477
57	0x3f5431df	0.828886
58	0x3f5068a3	0.8140966
59	0x3f532efd	0.82493573
60	0x3f51ac97	0.81903976
61	0x3f50230e	0.8130349
62	0x3f4883c4	0.7832606
63	0x3f535f4b	0.8256728

raw_layers.1.bias f4 [64]
0	0x3810b596	3.450139e-05
1	0x3810da39	3.453551e-05
2	0x387b5b14	5.9927886e-05
3	0x395c75dc	0.00021024741
4	0x38895d47	6.550043e-05
5	0xb80def11	-3.3839668e-05
6	0xb70e1ccf	-8.470567e-06
7	0xb903699a	-0.00012532473
8	0xb8a6d31a	-7.9548176e-05
9	0x39359196	0.0001731574
10	0xb8883941	-6.49565e-05
11	0xb74d8448	-1.2249751e-05
12	0x3932fed1	0.0001707033
13	0x38f71f2e	0.000117836855
14	0x39aafd39	0.00032613592
15	0xb892ff8b	-7.009421e-05
16	0x38df4f3a	0.00010648226
17	0xb66c493b	-3.5209366e-06
18	0xb905ae72	-0.00012748854
19	0xb8459441	-4.7106532e-05
20	0xb925c46c	-0.00015808799
21	0xb5305b57	-6.5698026e-07
22	0x38eecced	0.00011386895
23	0x3828cf4b	4.0247378e-05
24	0x3747035e	1.1862108e-05
25	0xb7fbfe1a	-3.0039857e-05
26	0x385a1268	5.1992392e-05
27	0xb90f1e62	-0.00013648861
28	0xb8db96ed	-0.00010470846
29	0x38a0a3aa	7.659879e-05
30	0xb84caece	-4.880019e-05
31	0xb7cfeb8d	-2.478601e-05
32	0xb74b7852	-1.2127757e-05
33	0x382a076a	4.0538063e-05
34	0xb8cdc14a	-9.811165e-05
35	0xb82edddf	-4.1691466e-05
36	0xb8ce1c43	-9.8281096e-05
37	0xb7a60c7b	-1.9794554e-05
38	0xb8ead3ac	-0.000111974165
39	0x38289c17	4.019969e-05
40	0x38691154	5.5567667e-05
41	0x384365f2	4.6586567e-05
42	0x380ab451	3.3069697e-05
43	0xb8a69127	-7.9425336e-05
44	0x380dcc89	3.3807508e-05
45	0x37b3c59d	2.1430484e-05
46	0xb8c28e64	-9.277163e-05
47	0x382aebdb	4.0750816e-05
48	0x3346a04d	4.624626e-08
49	0x3827d010	4.0009676e-05
50	0x3882d859	6.239181e-05
51	0x36ffab03	7.6195006e-06
52	0x38ae1489	8.3007915e-05
53	0x378205d2	1.5499918e-05
54	0x3825b3af	3.950641e-05
55	0x3623ab10	2.4388464e-06
56	0xb8a5eef7	-7.912324e-05
57	0x37fc811b	3.010086e-05
58	0x37b5981e	2.1647716e-05
59	0x387db3b3	6.048726e-05
60	0xb86fb7ad	-5.71531e-05
61	0xb95c10fe	-0.00020987165
62	0xb81035e9	-3.4382483e-05
63	0xb80f63f4	-3.4186945e-05

raw_layers.4.weight f4 [512, 64]
0	0x37b28772	2.1282325e-05
1	0x39a0c1fb	0.00030662105
2	0x38735b46	5.802072e-05
3	0x37b4815b	2.1517908e-05
4	0xb79b1df3	-1.8491386e-05
5	0xb974850d	-0.00023319219
6	0x383d442a	4.5124594e-05
7	0x369db180	4.6996283e-06
8	0xb8590c59	-5.174833e-05
9	0x38bd07af	9.0136535e-05
10	0x38d49de8	0.0001013836
11	0x391bf5bb	0.00014873494
12	0xb8bc5fad	-8.9823596e-05
13	0xb8c1edbd	-9.247239e-05
14	0xbab85140	-0.00140623
15	0xb98ea32b	-0.0002720592
16	0x38de24c7	0.00010592635
17	0xb8e5e887	-0.000109628825
18	0xb780350d	-1.5283493e-05
19	0xb7f713a3	-2.9453839e-05
20	0x390808e9	0.0001297329
21	0x382abf02	4.070905e-05
22	0x392d9f9d	0.00016558026
23	0xbb0caca0	-0.0021465197
24	0xbae7ef2e	-0.0017695182
25	0xb7b586d3	-2.1639664e-05
26	0x393bf488	0.00017924805
27	0x38330214	4.267886e-05
28	0x384bbe81	4.8576392e-05
29	0xb8abcb16	-8.191743e-05
30	0x38514aba	4.9899078e-05
31	0x3aef574f	0.0018260273
32	0xb6943581	-4.4169724e-06
33	0x3b96f82f	0.0046072225
34	0xb8581503	-5.151798e-05
35	0x38c430c2	9.35509e-05
36	0x38e5dfb5	0.000109612396
37	0xb83d0a0f	-4.507048e-05
38	0xb85fbbe7	-5.334234e-05
39	0x3823784e	3.897427e-05
40	0xb8d3d81c	-0.000101015175
41	0x3833fb59	4.291101e-05
42	0x3bee7689	0.007277314
43	0xb88a4bc3	-6.5944645e-05
44	0x3bacb1d9	0.0052702245
45	0xb8a2aa87	-7.756525e-05
46	0xb930d4ad	-0.00016863896
47	0xb85326c7	-5.0342434e-05
48	0x3851232d	4.9862243e-05
49	0x38906e82	6.887039e-05
50	0x37b0250a	2.0998083e-05
51	0xb8ad672b	-8.2684994e-05
52	0xb856579b	-5.1103165e-05
53	0xb88f73c2	-6.840333e-05
54	0xb837b194	-4.3795982e-05
55	0x391f8bb0	0.0001521546
56	0xb8fd2436	-0.00012070725
57	0x38e4c3da	0.000109083674
58	0xb91cf005	-0.00014966734
59	0x389c9484	7.466323e-05
60	0xb8822f1e	-6.207659e-05
61	0x38cc62d7	9.7458884e-05
62	0xb96b95b7	-0.0002246712
63	0x38006a14	3.061637e-05
64	0x376efb22	1.4244377e-05
65	0x393d6f36	0.00018065874
66	0xb8b9a18c	-8.851578e-05
67	0xb91d9680	-0.00015028752
68	0xb8abbee2	-8.18947e-05
69	0xb7c79bb8	-2.379516e-05
70	0xb8bfab3d	-9.139485e-05
71	0x364c193a	3.0413053e-06
72	0x38f06fc3	0.00011464909
73	0xb90469f2	-0.00012627969
74	0x38b0855a	8.417173e-05
75	0xb9718a01	-0.00023034961
76	0xb7173e94	-9.0148715e-06
77	0xb831e17a	-4.241008e-05
78	0x385647f0	5.1088573e-05
79	0x37ec8be8	2.8198541e-05
80	0xb75d2f59	-1.31836505e-05
81	0xb79f5ef4	-1.8998493e-05
82	0x37e41760	2.7190603e-05
83	0xb839d518	-4.4305896e-05
84	0x381b1975	3.697859e-05
85	0xb916fc79	-0.00014399168
86	0x389f1caa	7.58705e-05
87	0xb8f3bfbc	-0.00011622856
88	0xb8eb5183	-0.00011220856
89	0x3947cb7f	0.00019053927
90	0xb854e4a7	-5.0757688e-05
91	0x37f4009d	2.9087352e-05
92	0x37909fa8	1.7240483e-05
93	0xb8ef6c3f	-0.000114165705
94	0x3687e933	4.0504615e-06
95	0x3880dcdb	6.144653e-05
96	0x38edd8f9	0.00011341455
97	0xb8c67531	-9.463204e-05
98	0xb83e3968	-4.5352994e-05
99	0x3725a41c	9.872976e-06
100	0x38faef0e	0.00011965456
101	0xb89a4107	-7.3554045e-05
102	0x38ad3218	8.2586135e-05
103	0xb84e7612	-4.922419e-05
104	0xb8bb1669	-8.921029e-05
105	0x38d7a68f	0.00010283023
106	0xb9093d61	-0.00013088204
107	0xb8c0c7c7	-9.192485e-05
108	0x38874118	6.449426e-05
109	0x39776210	0.00023592287
110	0x389a362b	7.353382e-05
111	0xb89eface	-7.580743e-05
112	0xb877bc3b	-5.9064692e-05
113	0xb853adde	-5.0468247e-05
114	0xb92706ed	-0.00015928941
115	0xb7fa9997	-2.9873843e-05
116	0x36564054	3.1925929e-06
117	0x3844fd0d	4.6965713e-05
118	0xb899d859	-7.3359064e-05
119	0xb88ee1b8	-6.813131e-05
120	0x38115584	3.4650337e-05
121	0xb88919ba	-6.537461e-05
122	0x365df45f	3.307381e-06
123	0x37f1a17c	2.8804636e-05
124	0xb88561d1	-6.360154e-05
125	0xb8e05f36	-0.00010698887
126	0x38998193	7.3197436e-05
127	0x38bf36c9	9.117794e-05
128	0x385c4ee8	5.2525575e-05
129	0x387ef2aa	6.0784318e-05
130	0x38e51655	0.000109237306
131	0x37aa88e7	2.032933e-05
132	0xb88fbf35	-6.8543864e-05
133	0xb849aa2a	-4.8080612e-05
134	0x37b09c33	2.105357e-05
135	0x3904722c	0.00012631033
136	0x38d7bd2a	0.000102872335
137	0x3964e54c	0.00021829194
138	0xb85e9aa4	-5.3072945e-05
139	0x34cb8635	3.7909345e-07
140	0xb91a7797	-0.00014731135
141	0xb6cd0bc8	-6.1108476e-06
142	0xb8ae2113	-8.303127e-05
143	0xb7649d65	-1.3626505e-05
144	0x3870bdcd	5.7397225e-05
145	0x3801917b	3.0891486e-05
146	0xb8b73499	-8.735917e-05
147	0x37e9c61d	2.7868018e-05
148	0xb88f1060	-6.8218214e-05
149	0x38e91c61	0.00011115592
150	0x39157c62	0.00014256084
151	0x37cca931	2.4397481e-05
152	0xb85d9421	-5.282846e-05
153	0x38ba8759	8.8943816e-05
154	0xb838edc0	-4.409044e-05
155	0xb8076dce	-3.228877e-05
156	0x38ef18b9	0.00011401013
157	0xb79c5f8d	-1.8641143e-05
158	0x3846c07e	4.738615e-05
159	0xb934962e	-0.00017222084
160	0xb94235a4	-0.00018521264
161	0x390c938f	0.0001340641
162	0xb7218d69	-9.629272e-06
163	0x3903f7e8	0.00012585486
164	0xb880385e	-6.114015e-05
165	0x370c7cef	8.373739e-06
166	0x378ed286	1.7025752e-05
167	0x3947048e	0.00018979816
168	0x390f2202	0.00013650212
169	0x387c3ca8	6.0137972e-05
170	0xb8e658b9	-0.000109837805
171	0x38f22c28	0.00011547684
172	0x38c6d6ba	9.481372e-05
173	0x38e30d21	0.00010826649
174	0xb7901580	-1.717615e-05
175	0xb8ec822a	-0.00011277602
176	0xb8215e7f	-3.8473398e-05
177	0x3891b94e	6.9486545e-05
178	0xb813705d	-3.5152178e-05
179	0xb7c77cfb	-2.3780847e-05
180	0xb8defcab	-0.00010632848
181	0xb8bf92a0	-9.134901e-05
182	0x36f179ed	7.1965537e-06
183	0x3625eb21	2.472378e-06
184	0xb8a0c4f8	-7.666083e-05
185	0x3886c240	6.4258e-05
186	0xb80a602c	-3.299133e-05
187	0x38addb85	8.2901715e-05
188	0x37d486de	2.5335172e-05
189	0xb89199c3	-6.942779e-05
190	0xb8d2b177	-0.00010046636
191	0x38d038ab	9.928768e-05
192	0x38aa6305	8.1246755e-05
193	0xb87a6f31	-5.97082e-05
194	0x36676545	3.448063e-06
195	0xb71de779	-9.411823e-06
196	0xb8f2aa58	-0.00011571188
197	0xb895a3c0	-7.1353745e-05
198	0x380ff71c	3.4323995e-05
199	0xb7e2b592	-2.702585e-05
200	0x36e0ee33	6.7034503e-06
201	0xb8c987f2	-9.609749e-05
202	0x3797120f	1.8009012e-05
203	0xb83f00a6	-4.5538553e-05
204	0xb8c41c46	-9.351275e-05
205	0x3906f2e2	0.00012869717
206	0x381ed158	3.7865102e-05
207	0x36389cf9	2.7509507e-06
208	0xb8f123a4	-0.00011498414
209	0x38830f4d	6.249417e-05
210	0x37292e97	1.00840325e-05
211	0xb815f0d5	-3.574866e-05
212	0xb7ded80f	-2.6565072e-05
213	0x3896d82b	7.192822e-05
214	0xb758289b	-1.28840575e-05
215	0x388ca750	6.7068846e-05
216	0xb881242e	-6.157938e-05
217	0xb8b52ec1	-8.639461e-05
218	0x38ab11b3	8.157212e-05
219	0xb8d68176	-0.00010228429
220	0xb8e21597	-0.00010780541
221	0x371597e7	8.91646e-06
222	0xb881fd0a	-6.1983315e-05
223	0xb6d84db0	-6.4463457e-06
224	0xb72837f6	-1.002661e-05
225	0x384c24bc	4.86716e-05
226	0xb91f2f54	-0.00015181053
227	0xb8f96a26	-0.00011893017
228	0x3865824e	5.471921e-05
229	0x39745e05	0.00023304678
230	0xb887576d	-6.453586e-05
231	0x38b24cbc	8.501994e-05
232	0xb8c1e876	-9.2462564e-05
233	0xb7af6afc	-2.0911444e-05
234	0xb8a797de	-7.991468e-05
235	0x379499e1	1.771463e-05
236	0x37c7d7f1	2.3823204e-05
237	0x38af8cdf	8.3708896e-05
238	0x3671e40e	3.6044544e-06
239	0xb7f23e4d	-2.887766e-05
240	0x38d0c578	9.954994e-05
241	0x38a7b026	7.995991e-05
242	0x394703ce	0.00018979536
243	0x36165c03	2.24053e-06
244	0x379dd657	1.8815668e-05
245	0x38f92d3e	0.00011881672
246	0x38c124a5	9.209783e-05
247	0x38081604	3.244543e-05
248	0x37ce7438	2.4611232e-05
249	0x389e0bca	7.536223e-05
250	0x385d66f9	5.2786407e-05
251	0x386b06d8	5.603474e-05
252	0xb8c050dc	-9.170335e-05
253	0x3950b561	0.00019903995
254	0x38c85d04	9.554069e-05
255	0x393693b4	0.00017411896

raw_layers.4.bias f4 [512]
0	0x3c113390	0.008862391
1	0xb8fb69ab	-0.00011988295
2	0xb7705c16	-1.4326555e-05
3	0xb8b2da03	-8.528309e-05
4	0x38a540e5	7.879901e-05
5	0x37d9c4cf	2.5960062e-05
6	0xb9056a90	-0.00012723566
7	0x3798dfe8	1.8224076e-05
8	0xb90a29b0	-0.00013176235
9	0x39735d1e	0.00023208975
10	0x391d4563	0.00014998535
11	0x38c8b4cd	9.57042e-05
12	0x390ce9ba	0.0001343851
13	0x395ed76e	0.00021251824
14	0xb7bbbe6a	-2.2380806e-05
15	0xb9a5868b	-0.00031571495
16	0xb8c42055	-9.3520306e-05
17	0xb7c5b3f7	-2.3568033e-05
18	0x3cd50d1e	0.026007231
19	0xb748f933	-1.197895e-05
20	0x3845a941	4.712609e-05
21	0xb8ab24d2	-8.160774e-05
22	0x394fceb0	0.00019818055
23	0xb8d5154f	-0.000101606005
24	0xb899916f	-7.322698e-05
25	0xb89d5121	-7.501455e-05
26	0x3817142c	3.6019992e-05
27	0x388d79a6	6.746063e-05
28	0xb86974f2	-5.5660443e-05
29	0xb9250515	-0.0001573752
30	0x381acc26	3.690659e-05
31	0x3873b1bf	5.8101254e-05
32	0xb7d78cbf	-2.5695537e-05
33	0x38fd227b	0.000120704026
34	0xb8f5334e	-0.000116920666
35	0x39315189	0.0001691041
36	0xb87bca08	-6.003122e-05
37	0xb894d601	-7.097051e-05
38	0x3ca0f11e	0.019646224
39	0xb84a70d0	-4.8265618e-05
40	0xb94a58be	-0.0001929728
41	0xb8676324	-5.5167024e-05
42	0x3963bf30	0.0002171963
43	0x3747f7a0	1.1918979e-05
44	0xb8b18bb6	-8.466041e-05
45	0xb9a49acf	-0.0003139586
46	0xb8044a62	-3.1540527e-05
47	0xb936025c	-0.00017357751
48	0xb9192fef	-0.00014609074
49	0xb8f82693	-0.000118327465
50	0xb61d9fad	-2.3487767e-06
51	0xb90db62c	-0.00013514672
52	0x378b0754	1.6573504e-05
53	0x390b87a4	0.00013306603
54	0xb93f6e4c	-0.00018256268
55	0xb692154a	-4.3536174e-06
56	0xb9019571	-0.0001235807
57	0x38665db0	5.4923526e-05
58	0x39689540	0.00022180844
59	0x39084284	0.0001299475
60	0x378c5d48	1.6732738e-05
61	0x38d9d05d	0.00010386177
62	0x35c9cff2	1.5036187e-06
63	0xb88c8871	-6.7011344e-05
64	0x3c0ce86d	0.0086003365
65	0x38bd777a	9.0344765e-05
66	0xb8e07b5e	-0.00010704131
67	0x38f827be	0.00011832964
68	0x38a7f2bd	8.008394e-05
69	0x3743ef26	1.1678587e-05
70	0xb966e185	-0.00022018522
71	0x35b2835e	1.3300266e-06
72	0x394138a3	0.00018427013
73	0x37c4ddfc	2.346839e-05
74	0x37f17961	2.878596e-05
75	0x3cb94174	0.022614218
76	0xb8b1f6af	-8.485966e-05
77	0x38348afb	4.304478e-05
78	0xb8fdfbf5	-0.00012110911
79	0x3905c14c	0.00012755877
80	0x395c07a4	0.00020983681
81	0xb8445c10	-4.681578e-05
82	0xb8d1a818	-9.9972065e-05
83	0xb7aea95b	-2.0821279e-05
84	0xb92f954c	-0.00016744918
85	0xb8dd049f	-0.00010538962
86	0x3c2cdd73	0.0105508445
87	0x37b65f7d	2.1740556e-05
88	0xb9432756	-0.00018611303
89	0x38f985e9	0.00011898188
90	0x38c7d889	9.529392e-05
91	0xb8e3c9cc	-0.00010861791
92	0x383001d6	4.196338e-05
93	0x385d70af	5.279545e-05
94	0xb8c9aaa6	-9.6162126e-05
95	0x385354e8	5.0385395e-05
96	0x38b851c2	8.789032e-05
97	0x3765114d	1.3653492e-05
98	0x36872390	4.0274535e-06
99	0xb89d9f66	-7.516034e-05
100	0xb4501d28	-1.9382117e-07
101	0xb7b347a2	-2.137182e-05
102	0xb7b1ee19	-2.1210917e-05
103	0xb9b03627	-0.00033609683
104	0xb9679f47	-0.00022089212
105	0x38aec58b	8.333762e-05
106	0x373c0a79	1.1208112e-05
107	0x38e1ba32	0.00010763518
108	0xb86445b0	-5.4424338e-05
109	0x38c5d760	9.433809e-05
110	0x36a8fb09	5.0360145e-06
111	0x392817fb	0.00016030662
112	0xb8f33222	-0.00011596481
113	0xb935acbd	-0.00017325855
114	0x38171079	3.6016547e-05
115	0x38bbffdb	8.964512e-05
116	0x3785454a	1.58871e-05
117	0xb88ef3ec	-6.816522e-05
118	0xb8078d1f	-3.2317937e-05
119	0xb79eda18	-1.8936626e-05
120	0xb89cd6fc	-7.4787036e-05
121	0x389dee49	7.5307275e-05
122	0xb815f899	-3.5755893e-05
123	0x3d1d9739	0.038474295
124	0x390e4ab3	0.00013570003
125	0xb839cd60	-4.4298708e-05
126	0xb907e3e6	-0.00012959502
127	0xb8fc3cff	-0.00012027658
128	0xb907816b	-0.00012922815
129	0x3886c7ae	6.426811e-05
130	0x38a5d3fc	7.907298e-05
131	0xb8774bd6	-5.8960017e-05
132	0x398e7918	0.00027174572
133	0x37b89739	2.2004928e-05
134	0x38b092ba	8.419664e-05
135	0x3d3a512f	0.04548758
136	0x3ced671e	0.028979834
137	0x38597568	5.1846175e-05
138	0xb8171f43	-3.603032e-05
139	0xb8cd26e3	-9.782405e-05
140	0xb8f46898	-0.00011654309
141	0xb81582bb	-3.564612e-05
142	0xb81dc81e	-3.761809e-05
143	0x39a94fbd	0.00032293602
144	0xb9464e68	-0.0001891196
145	0xb87efb29	-6.079223e-05
146	0x362f858c	2.6154767e-06
147	0x3c7a0cbf	0.015261828
148	0xb849d589	-4.8121005e-05
149	0x38b05e9c	8.409956e-05
150	0x3a9ea908	0.0012104819
151	0xb87baf6c	-6.0006438e-05
152	0x38f8020e	0.00011825944
153	0x381f23be	3.794184e-05
154	0x3cb88199	0.022522734
155	0x37816760	1.5426136e-05
156	0xb91ef893	-0.00015160655
157	0xb726db33	-9.945407e-06
158	0xb75b0a0b	-1.30557555e-05
159	0xb8d39355	-0.00010088707
160	0x38e5cf50	0.00010958186
161	0x378b1017	1.6577584e-05
162	0x3d19ad32	0.037518688
163	0x381d4387	3.7494607e-05
164	0x37b049dc	2.1015228e-05
165	0x3811ec24	3.4790617e-05
166	0x38bab3dd	8.902673e-05
167	0x3828352e	4.010385e-05
168	0x3806b9b0	3.2121025e-05
169	0xb894bd34	-7.092432e-05
170	0xb82803c8	-4.0057843e-05
171	0x38a21301	7.728302e-05
172	0x393193e3	0.00016935127
173	0x39359180	0.00017315708
174	0xb9503004	-0.00019854313
175	0xb8be8936	-9.0854635e-05
176	0x37354f33	1.0806881e-05
177	0xb6a3aca0	-4.8778747e-06
178	0xb913d991	-0.00014100062
179	0x38b6600a	8.696325e-05
180	0x397d24ad	0.00024141623
181	0x384b3073	4.8444093e-05
182	0x390b9153	0.0001331021
183	0x395879d6	0.00020644753
184	0xb76e70ee	-1.4212199e-05
185	0x37cc7a4d	2.4375646e-05
186	0xb8196030	-3.6567624e-05
187	0x3913058d	0.0001402108
188	0xb9472412	-0.00018991556
189	0xb8e3c11e	-0.000108601744
190	0xb8dce286	-0.00010532611
191	0x3869701c	5.565594e-05
192	0x378ae6d3	1.6558368e-05
193	0xb917c4d6	-0.0001447381
194	0x37e2615c	2.6986636e-05
195	0xb8cea321	-9.8532306e-05
196	0x392df195	0.00016588562
197	0xb888097a	-6.4867505e-05
198	0xb80a9098	-3.3036427e-05
199	0xb70e5d3c	-8.485567e-06
200	0xb896b91a	-7.187035e-05
201	0x385ae201	5.2185733e-05
202	0xb8604cf0	-5.3477415e-05
203	0x389878d1	7.2704286e-05
204	0x3871a7e6	5.7615245e-05
205	0xb90b7cbc	-0.0001330254
206	0xb91180a8	-0.00013876206
207	0x36e9cb21	6.9675884e-06
208	0x379af999	1.8474459e-05
209	0xb94938c9	-0.00019190008
210	0x38941cdb	7.062565e-05
211	0xb83e6b4a	-4.539945e-05
212	0x391f49ed	0.00015190961
213	0xb8f0a7d1	-0.0001147535
214	0x37fab4bc	2.9886483e-05
215	0x392058ee	0.00015291918
216	0x37fe3a21	3.0306228e-05
217	0xb8db69e6	-0.00010462459
218	0xb893eb03	-7.0532806e-05
219	0x39893d5b	0.0002617639
220	0x3855a25f	5.0934377e-05
221	0xb7b7df44	-2.1919266e-05
222	0xb69dd954	-4.704265e-06
223	0x384da18b	4.9026257e-05
224	0x372133da	9.60842e-06
225	0xb7aeb964	-2.0828746e-05
226	0x3c2569fb	0.0100960685
227	0x372f6b22	1.0455757e-05
228	0xb92b37f4	-0.00016328675
229	0xb7d045ca	-2.482803e-05
230	0x356878a6	8.66023e-07
231	0x38d04a24	9.932023e-05
232	0xb7c38ec3	-2.331229e-05
233	0xb80e1b3e	-3.388081e-05
234	0x3cdb6561	0.02678174
235	0x38dc1c58	0.00010495697
236	0x38e4acaf	0.00010904052
237	0xb934fd42	-0.00017260484
238	0xb8d2c654	-0.00010050522
239	0xb6e2be08	-6.7574474e-06
240	0xb94cd0cb	-0.00019532737
241	0xb9413d1b	-0.00018428678
242	0x3875d36b	5.860945e-05
243	0x38c80de2	9.539329e-05
244	0x3901ee42	0.00012391157
245	0xb88da673	-6.7544075e-05
246	0x387240bb	5.775758e-05
247	0x39874a2f	0.00025804478
248	0x37e81a2c	2.7668742e-05
249	0x39692d6b	0.00022237531
250	0x37ea43b7	2.7926506e-05
251	0x37969544	1.79509e-05
252	0xb8c9bed8	-9.619974e-05
253	0xb843a121	-4.6641686e-05
254	0x383f914b	4.5673263e-05
255	0x382fcecc	4.1915846e-05

raw_layers.5.weight f4 [512]
0	0x3f814f6e	1.0102365
1	0x3f4de5d2	0.804288
2	0x3f4e0c77	0.8048777
3	0x3f4e6c62	0.8063413
4	0x3f4c81f4	0.7988579
5	0x3f4de3b3	0.80425566
6	0x3f43a2cd	0.7642029
7	0x3f4c7491	0.79865366
8	0x3f4d56a9	0.8021036
9	0x3f4a88e6	0.7911514
10	0x3f4e6283	0.80619067
11	0x3f4c5665	0.7981933
12	0x3f4698ea	0.7757708
13	0x3f484055	0.7822316
14	0x3f4c18d4	0.79725385
15	0x3f475328	0.7786126
16	0x3f4c4a99	0.79801327
17	0x3f4e089b	0.8048188
18	0x3fa075e0	1.2535973
19	0x3f4c6f93	0.7985775
20	0x3f4d0401	0.80084234
21	0x3f4ce58e	0.8003777
22	0x3f49fc03	0.78900164
23	0x3f4c2c85	0.7975543
24	0x3f45b1c1	0.77224356
25	0x3f4af4ef	0.7927999
26	0x3f4b675a	0.79454577
27	0x3f4e0f98	0.80492544
28	0x3f4129db	0.7545449
29	0x3f495eee	0.78660476
30	0x3f4d7cb9	0.80268437
31	0x3f4c1267	0.7971558
32	0x3f4cdfe2	0.8002912
33	0x3f4cc2e7	0.799849
34	0x3f4c9ee2	0.79929936
35	0x3f4cabd3	0.7994968
36	0x3f4bbfd1	0.79589564
37	0x3f4ca61c	0.7994096
38	0x3f975f64	1.1825986
39	0x3f4c6f03	0.7985689
40	0x3f4df911	0.8045817
41	0x3f4d8b1b	0.80290383
42	0x3f4d828d	0.8027733
43	0x3f4d48d6	0.80189264
44	0x3f4bfcb4	0.7968247
45	0x3f4c212f	0.79738134
46	0x3f4675f3	0.77523726
47	0x3f4be7f0	0.79650784
48	0x3f456611	0.77108866
49	0x3f4cbabf	0.7997245
50	0x3f4ba15e	0.795431
51	0x3f4c2af6	0.79753053
52	0x3f48f20c	0.78494334
53	0x3f4b7600	0.7947693
54	0x3f4d049b	0.8008515
55	0x3f4c5692	0.79819596
56	0x3f4b1501	0.79328924
57	0x3f4d5fb3	0.8022415
58	0x3f4de6f0	0.8043051
59	0x3f48d095	0.7844327
60	0x3f46ae9d	0.7761019
61	0x3f3e9f76	0.7446207
62	0x3f4d7062	0.8024961
63	0x3f48d695	0.78452426
64	0x3f8e9530	1.1139278
65	0x3f4c8e03	0.7990419
66	0x3f4e0cee	0.8048848
67	0x3f4ae83d	0.7926062
68	0x3f4def9d	0.80443746
69	0x3f4dfe08	0.80465746
70	0x3f4d6a12	0.80239975
71	0x3f49a1b3	0.7876236
72	0x3f4e1e3a	0.8051487
73	0x3f4df9ee	0.8045949
74	0x3f4cb4ee	0.79963577
75	0x3f90f264	1.1323972
76	0x3f4ccd98	0.8000121
77	0x3f4c838c	0.79888225
78	0x3f49cc4b	0.7882735
79	0x3f412d13	0.754594
80	0x3f4a8394	0.7910702
81	0x3f4d4600	0.80184937
82	0x3f4ced0e	0.80049217
83	0x3f4d5554	0.80208325
84	0x3f4e382e	0.80554473
85	0x3f4b8673	0.7950203
86	0x3f8479f2	1.0349715
87	0x3f4d6f5d	0.8024805
88	0x3f4fd96c	0.81191134
89	0x3f4d0c62	0.8009702
90	0x3f4db14a	0.80348647
91	0x3f4d9bc3	0.803158
92	0x3f484768	0.7823396
93	0x3f489730	0.78355694
94	0x3f4d1f7f	0.80126184
95	0x3f4c223f	0.79739755
96	0x3f4db213	0.80349845
97	0x3f4b96f1	0.79527193
98	0x3f48aac5	0.78385574
99	0x3f580d3b	0.8439519
100	0x3f4ae116	0.79249704
101	0x3f4df6c7	0.8045468
102	0x3f4e7fdb	0.8066384
103	0x3f495e3e	0.7865943
104	0x3f4da0ce	0.80323493
105	0x3f4df930	0.80458355
106	0x3f4d680c	0.8023689
107	0x3f4cd553	0.80013007
108	0x3f4b565d	0.79428655
109	0x3f4b5c76	0.7943796
110	0x3f4c7f21	0.79881483
111	0x3f45cfaa	0.77269995
112	0x3f491d67	0.7856049
113	0x3f474e5e	0.77853954
114	0x3f4e0425	0.80475074
115	0x3f4ae49b	0.79255074
116	0x3f4dee26	0.8044151
117	0x3f4e20e0	0.80518913
118	0x3f4b8338	0.794971
119	0x3f4da287	0.8032612
120	0x3f4da3d2	0.80328095
121	0x3f470ade	0.77750957
122	0x3f46bc32	0.77630913
123	0x3f97c2f8	1.1856375
124	0x3f4dfc2e	0.8046292
125	0x3f4dd0f7	0.8039698
126	0x3f4df080	0.804451
127	0x3f4e9b0b	0.80705327
128	0x3f4c45f9	0.7979427
129	0x3f4d7c97	0.80268234
130	0x3f4bbbe3	0.7958357
131	0x3f4d33fd	0.8015745
132	0x3f4dcb73	0.80388564
133	0x3f4e0d98	0.8048949
134	0x3f471428	0.7776513
135	0x3f9d953e	1.231117
136	0x3f9af106	1.2104805
137	0x3f4d981c	0.80310225
138	0x3f4c2a8f	0.7975244
139	0x3f4cb431	0.7996245
140	0x3f4ca20c	0.79934764
141	0x3f4e2c2f	0.8053617
142	0x3f4dccd3	0.8039066
143	0x3f6f18f4	0.9339745
144	0x3f4d3dcc	0.8017242
145	0x3f4d28ee	0.8014058
146	0x3f4d8afe	0.8029021
147	0x3f93064b	1.1486295
148	0x3f4b8080	0.7949295
149	0x3f4c881e	0.798952
150	0x3f767383	0.96270007
151	0x3f49a154	0.7876179
152	0x3f4b4976	0.7940897
153	0x3f4698fd	0.7757719
154	0x3f9952b2	1.1978362
155	0x3f4d3c78	0.80170393
156	0x3f4d8e94	0.8029568
157	0x3f4aeb8f	0.79265684
158	0x3f4c2217	0.79739517
159	0x3f4ad8d5	0.7923711
160	0x3f4e12eb	0.80497617
161	0x3f4ca629	0.7994104
162	0x3f9f3194	1.2437005
163	0x3f4b44f2	0.7940208
164	0x3f4dae5c	0.80344176
165	0x3f493f3b	0.7861211
166	0x3f4e399b	0.8055665
167	0x3f4d4e1b	0.80197304
168	0x3f472ff2	0.77807534
169	0x3f4718ce	0.77772224
170	0x3f4a09c1	0.78921133
171	0x3f434dbf	0.76290506
172	0x3f49c7aa	0.7882029
173	0x3f4d4220	0.80179024
174	0x3f4a769c	0.79087234
175	0x3f4a914d	0.7912796
176	0x3f48f630	0.7850065
177	0x3f4a4f75	0.7902749
178	0x3f4b28da	0.7935921
179	0x3f4ddb4f	0.80412763
180	0x3f48505c	0.7824762
181	0x3f4ccc13	0.7999889
182	0x3f49a6a9	0.7876993
183	0x3f4d2fe0	0.80151176
184	0x3f4bacee	0.79560745
185	0x3f4a8972	0.79115975
186	0x3f4b4953	0.7940876
187	0x3f4dc0e6	0.80372465
188	0x3f4e4a91	0.8058253
189	0x3f4738e3	0.7782118
190	0x3f4d9863	0.8031065
191	0x3f4b1b11	0.79338175
192	0x3f4cc6a4	0.799906
193	0x3f4cbc62	0.7997495
194	0x3f4ecc84	0.80780816
195	0x3f4dc681	0.8038102
196	0x3f4d8c5d	0.802923
197	0x3f4e0c71	0.80487734
198	0x3f42fdd3	0.76168555
199	0x3f4d6274	0.8022835
200	0x3f4cb346	0.7996105
201	0x3f4e3ead	0.80564386
202	0x3f447abf	0.76749796
203	0x3f4e0467	0.8047547
204	0x3f495270	0.78641415
205	0x3f4cf229	0.8005701
206	0x3f4dff73	0.8046791
207	0x3f4b46a0	0.7940464
208	0x3f4dbf34	0.8036988
209	0x3f4e623d	0.8061865
210	0x3f4e12ba	0.80497324
211	0x3f49b7a9	0.7879587
212	0x3f4dc0a6	0.80372083
213	0x3f4e3072	0.8054267
214	0x3f4cf814	0.8006604
215	0x3f4a5086	0.7902912
216	0x3f4e4703	0.80577105
217	0x3f3d4663	0.73935527
218	0x3f4decdb	0.8043954
219	0x3f4993dd	0.78741246
220	0x3f4c797b	0.79872864
221	0x3f4ba26a	0.795447
222	0x3f4d5f81	0.8022385
223	0x3f4da062	0.8032285
224	0x3f4ac9df	0.7921428
225	0x3f4d279d	0.8013857
226	0x3f908c42	1.1292803
227	0x3f4bb78b	0.7957694
228	0x3f4bd974	0.7962868
229	0x3f4a815e	0.7910365
230	0x3f4d9b2f	0.80314916
231	0x3f490711	0.7852641
232	0x3f4de36d	0.8042515
233	0x3f4cf70b	0.8006446
234	0x3f9b91f9	1.2153922
235	0x3f4ca10e	0.7993325
236	0x3f478efa	0.7795254
237	0x3f4e2ae8	0.8053422
238	0x3f48c3c9	0.78423744
239	0x3f4af166	0.79274595
240	0x3f4e04a2	0.8047582
241	0x3f4d4c43	0.8019449
242	0x3f4e05f0	0.8047781
243	0x3f4ca912	0.7994548
244	0x3f41d83e	0.75720584
245	0x3f4694b2	0.7757064
246	0x3f4da1eb	0.8032519
247	0x3f46dbee	0.77679336
248	0x3f4ce0e8	0.8003068
249	0x3f4a74d6	0.7908453
250	0x3f4ef221	0.8083821
251	0x3f4dc5bd	0.8037985
252	0x3f4e2c44	0.80536294
253	0x3f4d6e48	0.802464
254	0x3f4a0e6d	0.7892826
255	0x3f4b17a5	0.79332954

raw_layers.5.bias f4 [512]
0	0x3805a8d7	3.1866915e-05
1	0xb7707876	-1.4333162e-05
2	0xb9013689	-0.00012322715
3	0xb871ed03	-5.7679612e-05
4	0xb6f683d0	-7.3467163e-06
5	0x384622b7	4.723921e-05
6	0x389062cf	6.8848596e-05
7	0x374238af	1.1576499e-05
8	0x36cdbbba	6.1313303e-06
9	0xb7319454	-1.05845575e-05
10	0x3904d575	0.0001266802
11	0xb887a1e2	-6.467455e-05
12	0xb8f647d6	-0.000117435746
13	0x37d73fdf	2.565974e-05
14	0x38ef3eac	0.000114080816
15	0xb812414b	-3.486992e-05
16	0xb84c6a45	-4.873636e-05
17	0xb828e452	-4.026696e-05
18	0x39a847b6	0.00032096886
19	0xb8d00e56	-9.920883e-05
20	0xb841cfaa	-4.6208188e-05
21	0x38e38d6d	0.00010850546
22	0xb8d5d40a	-0.00010196127
23	0x38de4ee5	0.0001060048
24	0xb822fd4b	-3.8859707e-05
25	0x385c30e8	5.2497635e-05
26	0xb955b2e5	-0.00020379906
27	0x3873faae	5.816918e-05
28	0x39360250	0.00017357734
29	0x36792eed	3.7131206e-06
30	0xb8d60867	-0.0001020588
31	0xb8d3ec5d	-0.0001010529
32	0x385ded8d	5.2911742e-05
33	0xb8ba3c5c	-8.880414e-05
34	0x383dd024	4.5254958e-05
35	0x37923eb7	1.743376e-05
36	0xb9079a25	-0.00012932027
37	0x38cd1286	9.778612e-05
38	0xb90f6dd8	-0.00013678463
39	0xb7a5a621	-1.9746893e-05
40	0xb8c2fa75	-9.297292e-05
41	0x381a8ff1	3.6850517e-05
42	0x37f348ae	2.9001701e-05
43	0xb8921275	-6.9652604e-05
44	0x381a8727	3.684233e-05
45	0x3820940e	3.828486e-05
46	0x383eaf71	4.5462923e-05
47	0xb83ff9d6	-4.5770626e-05
48	0xb86b91b9	-5.616408e-05
49	0xb7529493	-1.2551568e-05
50	0xb897c3bd	-7.2367e-05
51	0x38439ab4	4.66357e-05
52	0xb913fbc3	-0.00014112801
53	0xb926aa0d	-0.00015894343
54	0xb8084a10	-3.2493903e-05
55	0x3805bdd8	3.1886477e-05
56	0xb8c5506e	-9.408673e-05
57	0xb776d98a	-1.4713392e-05
58	0x37e8c17f	2.7746659e-05
59	0x38c6e6db	9.484376e-05
60	0xb8f0d9db	-0.000114846705
61	0x3937797b	0.00017497495
62	0xb885406a	-6.353932e-05
63	0x383ee9a1	4.5517114e-05
64	0x37faf528	2.9916482e-05
65	0xb8665f9a	-5.492531e-05
66	0xb99dd9f4	-0.0003010776
67	0x38924937	6.97546e-05
68	0xb69de3f8	-4.7055037e-06
69	0xb804ef89	-3.1694337e-05
70	0x36821480	3.8766884e-06
71	0x383ae423	4.4558325e-05
72	0x38388d58	4.4000655e-05
73	0x36cb957c	6.0672737e-06
74	0xb7c2c8fc	-2.3220193e-05
75	0xb7d3e015	-2.5257506e-05
76	0x3873823a	5.8056998e-05
77	0xb88da251	-6.753638e-05
78	0xb83538ac	-4.3206543e-05
79	0x38e8e54f	0.00011105334
80	0xb819eb82	-3.6697376e-05
81	0x38e2217e	0.00010782758
82	0xb8a06ad6	-7.649294e-05
83	0x38063d11	3.2004962e-05
84	0xb7f5160a	-2.9216539e-05
85	0x386d4ce7	5.6576824e-05
86	0x37692725	1.3896996e-05
87	0x39080ac9	0.00012973988
88	0x38646fb3	5.4463464e-05
89	0x359e34d3	1.1787291e-06
90	0x3933792c	0.0001711591
91	0xb8413aed	-4.6069665e-05
92	0x39472d82	0.00018995072
93	0xb906b47d	-0.00012846473
94	0x36b497a9	5.3820736e-06
95	0xb7af8eed	-2.092818e-05
96	0x37c28009	2.3186223e-05
97	0x38ee0f55	0.0001135158
98	0x38b8bea1	8.809311e-05
99	0x38f012fc	0.00011447628
100	0x38b496e9	8.611178e-05
101	0x38ebc87e	0.00011243018
102	0xb8521b10	-5.0093106e-05
103	0xb90e4cb1	-0.00013570745
104	0xb8f9389e	-0.00011883791
105	0xb8a8a015	-8.040682e-05
106	0xb6c47eb2	-5.8560045e-06
107	0x394df31e	0.00019640892
108	0x3865c406	5.4780416e-05
109	0x38bc9b73	8.993493e-05
110	0x38b3be55	8.570837e-05
111	0xb82da5ce	-4.1400832e-05
112	0x37796a24	1.4866269e-05
113	0xb8e24ffc	-0.00010791418
114	0x37a03c10	1.9101455e-05
115	0x38157355	3.563178e-05
116	0xb8896fa0	-6.553461e-05
117	0x37a47215	1.9603447e-05
118	0x38e5026d	0.00010920023
119	0xb90721f6	-0.00012887255
120	0xb7291c94	-1.0079839e-05
121	0xb85a47d3	-5.204214e-05
122	0x38efe60d	0.000114392584
123	0xb8ab8289	-8.1782295e-05
124	0xb98d78b0	-0.00026983535
125	0xb90fb92b	-0.00013706523
126	0x3910485a	0.00013759863
127	0x38cdab02	9.8070144e-05
128	0x38bebc23	9.094949e-05
129	0xb81f2207	-3.7940245e-05
130	0xb8f67408	-0.000117518066
131	0xb8ad9b3d	-8.278198e-05
132	0xb92fd27e	-0.00016767715
133	0x3645bece	2.946635e-06
134	0x3836d2be	4.358845e-05
135	0x3a3088e9	0.00067342684
136	0x3935e7a9	0.00017347805
137	0x3803122e	3.1249765e-05
138	0x38250055	3.9339375e-05
139	0xb8bdf5de	-9.0580186e-05
140	0xb882662b	-6.217913e-05
141	0x3924734a	0.00015683207
142	0x379e5325	1.8873785e-05
143	0x39569bf7	0.00020466732
144	0xb7f8c35d	-2.9654877e-05
145	0x37f0d8b6	2.8711143e-05
146	0x35221858	6.038513e-07
147	0xb80d5fd0	-3.3706252e-05
148	0xb96a0a94	-0.0002231992
149	0x392b13ee	0.00016315255
150	0x38b31efc	8.5411564e-05
151	0xb79e3357	-1.8858975e-05
152	0xb8882032	-6.490982e-05
153	0xb89bfd4d	-7.438157e-05
154	0xb6c21f47	-5.7852917e-06
155	0x381b605b	3.7044618e-05
156	0xb8f420b2	-0.00011640917
157	0x35976bae	1.1281716e-06
158	0x38ac8212	8.2258266e-05
159	0xb60d1b6a	-2.1026594e-06
160	0xb9182425	-0.00014509314
161	0x3875a2b8	5.8564096e-05
162	0x398ecb0c	0.00027235632
163	0x384b1598	4.8419082e-05
164	0xb899292d	-7.303278e-05
165	0xb8abce1f	-8.1923085e-05
166	0x38201e7f	3.8175374e-05
167	0xb85b8b4a	-5.2343392e-05
168	0xb8550bd3	-5.079417e-05
169	0xb7867c4f	-1.603193e-05
170	0x37a84d23	2.006308e-05
171	0xb9142c38	-0.00014130853
172	0x3782bfaa	1.5586458e-05
173	0xb80e8c38	-3.3986027e-05
174	0x38cb5cb9	9.697065e-05
175	0x38e271d1	0.0001079772
176	0x3910b5b6	0.00013800603
177	0xb86be68e	-5.6243087e-05
178	0xb6987caf	-4.544468e-06
179	0x392dff54	0.00016593683
180	0x38a08698	7.6544646e-05
181	0xb8891060	-6.535719e-05
182	0xb91a1c3b	-0.00014697101
183	0x36454c4d	2.93997e-06
184	0xb801751c	-3.0865063e-05
185	0xb8dc1e2e	-0.00010496039
186	0x37cb92f9	2.4267925e-05
187	0x38e1d6cf	0.00010768847
188	0x38fa8dd2	0.00011947345
189	0x38e6eba2	0.00011011145
190	0xb9065c0b	-0.00012813525
191	0xb9108060	-0.00013780734
192	0xb800b90b	-3.0689913e-05
193	0x392ce921	0.00016490046
194	0xb9524a0f	-0.0002005475
195	0x385e69fb	5.3027627e-05
196	0xb91dad66	-0.00015037283
197	0xb81eb1d9	-3.783577e-05
198	0x391d4e18	0.00015001779
199	0x38d636b9	0.00010214508
200	0x39751e42	0.00023376293
201	0x388c10f5	6.678879e-05
202	0x38f81af4	0.00011830582
203	0x3894b946	7.0917e-05
204	0xb7df8af1	-2.6648371e-05
205	0x38ccf09c	9.772295e-05
206	0x36a464fd	4.8993375e-06
207	0xb7a0ded5	-1.917725e-05
208	0x38837182	6.267709e-05
209	0x38d120e2	9.9720215e-05
210	0xb8f2a3ed	-0.00011569993
211	0x389a4eed	7.357993e-05
212	0xb9645537	-0.0002177552
213	0xb8c48fd9	-9.372802e-05
214	0xb8ce413a	-9.834995e-05
215	0x391d68cd	0.00015011728
216	0x38213122	3.843115e-05
217	0xb7f232c0	-2.887228e-05
218	0x39101024	0.00013738923
219	0x38aca3b3	8.2320905e-05
220	0xb8ab68cc	-8.173435e-05
221	0xb88e4ac9	-6.7850175e-05
222	0xb7d2456d	-2.506628e-05
223	0xb77b7ec8	-1.4990284e-05
224	0xb77095e1	-1.4340011e-05
225	0xb7a184b8	-1.9254498e-05
226	0x3831b8a9	4.2372067e-05
227	0xb812a118	-3.4959143e-05
228	0x390b3b47	0.00013278156
229	0x387e59af	6.0641843e-05
230	0x38c0c38a	9.1916954e-05
231	0xb7abb5ff	-2.0469537e-05
232	0xb8b51e2e	-8.636374e-05
233	0xb965dd9e	-0.000219217
234	0x38a69087	7.942417e-05
235	0x38cdb15c	9.8081975e-05
236	0x38aec853	8.33428e-05
237	0x394455a5	0.00018723922
238	0x393640fc	0.00017381081
239	0xb816936e	-3.590009e-05
240	0xb880758b	-6.12541e-05
241	0x386a43bc	5.585303e-05
242	0xb8da44e0	-0.00010407879
243	0x390cdff6	0.00013434872
244	0xb8ec367e	-0.00011263507
245	0xb91ad10f	-0.00014764465
246	0xb8b3399c	-8.546116e-05
247	0xb7faa378	-2.9878443e-05
248	0xb8e54aec	-0.00010933526
249	0x378a7c47	1.6508753e-05
250	0x38b3a5d1	8.566271e-05
251	0xb90c887f	-0.00013402289
252	0x38a6a14b	7.94554e-05
253	0xb92146bb	-0.00015380506
254	0x360ceabf	2.0998266e-06
255	0x396cd013	0.00022584228

raw_layers.8.weight f4 [37, 512]
0	0xb8b5db33	-8.6715816e-05
1	0x38e4c5f3	0.00010908758
2	0x379f42e2	1.8985422e-05
3	0xb7a89d65	-2.0100453e-05
4	0x3858dd9a	5.1704796e-05
5	0xb8154a16	-3.5593366e-05
6	0x38cef9f8	9.869406e-05
7	0x373b805f	1.1175957e-05
8	0xb957b236	-0.00020570387
9	0xb9213e68	-0.00015377405
10	0xb8849c35	-6.323346e-05
11	0x38c9d2bb	9.6236785e-05
12	0x38036cfd	3.1334337e-05
13	0xb715391e	-8.894391e-06
14	0x388263c7	6.217468e-05
15	0x368af692	4.141425e-06
16	0xb8ea8ec4	-0.00011184582
17	0xb8f5f302	-0.00011727774
18	0xbbc148c6	-0.005898568
19	0x38b4be8a	8.6185595e-05
20	0x3905532a	0.0001271485
21	0xb8a3a460	-7.803063e-05
22	0xb9219155	-0.00015408297
23	0x3962a734	0.00021615328
24	0x382319d2	3.8886275e-05
25	0x382c2a7a	4.1047555e-05
26	0x370837ae	8.119196e-06
27	0xb83a560e	-4.4426e-05
28	0x351f7cb7	5.94136e-07
29	0x38ee8c61	0.00011374872
30	0x3710dd79	8.6346345e-06
31	0x38722e46	5.774039e-05
32	0xb92d1b11	-0.00016508649
33	0x38bc9a56	8.993286e-05
34	0xb89a299c	-7.3510426e-05
35	0xb958aee2	-0.00020664514
36	0xb8bd0611	-9.013352e-05
37	0x387dc3a2	6.0502098e-05
38	0xb92f550c	-0.00016720983
39	0x39157290	0.00014252425
40	0x3903c146	0.00012565134
41	0xb831482e	-4.226731e-05
42	0x38ffff2c	0.00012206877
43	0x387d99bf	6.0463088e-05
44	0xb7c1196e	-2.3019235e-05
45	0xb83c0965	-4.4831442e-05
46	0x38194d5d	3.6550093e-05
47	0x38f0a5b7	0.000114749586
48	0x399ba153	0.000296841
49	0xb8dbbc41	-0.00010477799
50	0x393eff6f	0.00018214968
51	0xb8b595f6	-8.658685e-05
52	0xb93c92d4	-0.00017983775
53	0x37fde579	3.0266807e-05
54	0xb76d05b6	-1.41276305e-05
55	0x38f618a8	0.00011734787
56	0xb8e1bf08	-0.000107644184
57	0x37ff90be	3.046577e-05
58	0x3941aea1	0.00018470969
59	0x38644d7b	5.4431595e-05
60	0x3852063b	5.0073704e-05
61	0x379f7f8c	1.901367e-05
62	0x379fd13b	1.9051708e-05
63	0x386dafe0	5.6669e-05
64	0xb86ff5dc	-5.7211015e-05
65	0xb900167f	-0.00012215412
66	0xb8fa58f4	-0.00011937498
67	0x37ba9e26	2.2246571e-05
68	0xb7e8382e	-2.7682716e-05
69	0x38c4e2ac	9.388229e-05
70	0xb8835da9	-6.264012e-05
71	0xb93ffd2b	-0.00018309492
72	0xb891d011	-6.952894e-05
73	0x372555b1	9.854718e-06
74	0xb9625d72	-0.0002158785
75	0xb8816100	-6.169267e-05
76	0x38e58e1c	0.00010946041
77	0xb8f06caa	-0.00011464332
78	0xb8682f02	-5.535689e-05
79	0xb8afc7cb	-8.3818646e-05
80	0xb802c6e1	-3.1179636e-05
81	0xb70f95c1	-8.5583315e-06
82	0x397908cf	0.00023749772
83	0x38b993aa	8.848992e-05
84	0xb68340c3	-3.9116435e-06
85	0xb94fbb74	-0.0001981089
86	0x38fa828a	0.00011945244
87	0x37b8c17d	2.202461e-05
88	0xb8ab818a	-8.178044e-05
89	0xb908de62	-0.00013052815
90	0xb8af3f8f	-8.356489e-05
91	0x37687bb1	1.3857077e-05
92	0xb8d8be0f	-0.00010335084
93	0x39083c30	0.00012992392
94	0xb91342a5	-0.0001404384
95	0x38a2fd0b	7.771895e-05
96	0xb8c58026	-9.4175615e-05
97	0xb7369867	-1.0883529e-05
98	0xb8066a8e	-3.2047326e-05
99	0x3999b0cf	0.00029314167
100	0xb85f3c3c	-5.322344e-05
101	0xb8f1af0b	-0.0001152438
102	0xb850ae20	-4.975323e-05
103	0xb892beef	-6.997387e-05
104	0x36a539f6	4.9241307e-06
105	0x382ea655	4.163974e-05
106	0xb8e4dc01	-0.00010912866
107	0xb7baa3a1	-2.2249124e-05
108	0x37e83097	2.7679182e-05
109	0x36f11737	7.1850623e-06
110	0xb926599e	-0.00015864379
111	0xb8e0e090	-0.000107229804
112	0x3871ea4a	5.7677076e-05
113	0x3723578a	9.735939e-06
114	0x38cc4251	9.7398304e-05
115	0xb89ac3bc	-7.3797506e-05
116	0x37aa29b6	2.0285002e-05
117	0x38e4fd0a	0.000109190194
118	0xb8eb036c	-0.000112063106
119	0xb8cc8b4c	-9.753424e-05
120	0x373bef60	1.1201802e-05
121	0xb716459b	-8.956903e-06
122	0xb91b535f	-0.0001481301
123	0xbd2d6917	-0.04233655
124	0x358637e0	1.000004e-06
125	0x38eca8bd	0.00011284787
126	0x38e6122e	0.00010970641
127	0xb98baa2b	-0.0002663893
128	0xb8884807	-6.4984015e-05
129	0xb96dc6f1	-0.00022676193
130	0x36ffed3d	7.6272104e-06
131	0x381d0a5d	3.744137e-05
132	0x38a618d5	7.920122e-05
133	0x37b38f7b	2.1405276e-05
134	0x3699a45e	4.57889e-06
135	0xbd98600c	-0.074401945
136	0xbc0bd3f8	-0.008534424
137	0xb90867f5	-0.00013008698
138	0xb807334e	-3.223429e-05
139	0xb81528f6	-3.5562516e-05
140	0xb8bd9454	-9.0398506e-05
141	0xb8d8f0f6	-0.00010344565
142	0x388fd557	6.858509e-05
143	0x39201fdc	0.00015270658
144	0xb8c28272	-9.274938e-05
145	0xb9240a16	-0.00015644016
146	0xb8dcae8f	-0.000105229316
147	0xb9e9c453	-0.00044587496
148	0x394c50f1	0.00019485109
149	0x37a2f52b	1.942607e-05
150	0xb8a8358c	-8.020838e-05
151	0x39003620	0.00012227194
152	0x3943e38d	0.00018681418
153	0x394a5348	0.00019295246
154	0xba895c8f	-0.0010479855
155	0x38fc46c9	0.00012029481
156	0x3941ffb8	0.00018501177
157	0x39387c60	0.0001759394
158	0x388494ad	6.3219435e-05
159	0x3991bb5d	0.00027796152
160	0xb8351ad3	-4.3178745e-05
161	0xb8d353dd	-0.00010076885
162	0xbd75a025	-0.05996718
163	0x3816366d	3.5813475e-05
164	0xb88b84d9	-6.652781e-05
165	0xb9921ffe	-0.00027871126
166	0xb8d509e9	-0.000101584774
167	0x383e0f7d	4.5313955e-05
168	0x37db0973	2.6111235e-05
169	0x389f3db7	7.593206e-05
170	0x388d3d3b	6.734809e-05
171	0x389bff4b	7.438528e-05
172	0x391b3429	0.00014801383
173	0xb840f7cd	-4.600715e-05
174	0xb8eeed4b	-0.000113929236
175	0xb886e28f	-6.431818e-05
176	0xb8a4da7d	-7.860826e-05
177	0xb8b836b8	-8.783996e-05
178	0x38d5ea53	0.00010200278
179	0x399c592b	0.00029821074
180	0xb875b112	-5.857746e-05
181	0xb7bf2ded	-2.279036e-05
182	0x388f6689	6.83787e-05
183	0xb7a70768	-1.99114e-05
184	0xb7365803	-1.0868537e-05
185	0xb750c55b	-1.24437165e-05
186	0xb95a3f12	-0.00020813596
187	0xb87c065a	-6.0087397e-05
188	0xb8305622	-4.2041887e-05
189	0xb8e19ebc	-0.00010758403
190	0x37fa5373	2.9841181e-05
191	0x39875a4e	0.0002581649
192	0xb899f880	-7.341895e-05
193	0xb82f6dfc	-4.1825682e-05
194	0xb8858575	-6.3667925e-05
195	0x38994d64	7.310024e-05
196	0x381ad360	3.691332e-05
197	0xb88909d7	-6.534502e-05
198	0xb8fedcef	-0.00012152816
199	0x3918891e	0.0001454693
200	0xb7ed800e	-2.8312232e-05
201	0xb80be42b	-3.335268e-05
202	0x3915773b	0.00014254164
203	0xb72bb544	-1.0234598e-05
204	0x398cd8f4	0.00026864524
205	0xb8b3a3dc	-8.565906e-05
206	0x3921dcbc	0.00015436386
207	0x389a7f4f	7.367005e-05
208	0x370c9016	8.378198e-06
209	0xb8f534ab	-0.000116923205
210	0xb8daa7dd	-0.00010426317
211	0xb9086ddf	-0.00013010901
212	0xb87bf1d3	-6.006828e-05
213	0x39173c2f	0.00014422902
214	0xb8ebb320	-0.00011239038
215	0x3889726f	6.553984e-05
216	0xb59de251	-1.1763278e-06
217	0x371ede85	9.469343e-06
218	0xb8c105b5	-9.20402e-05
219	0x37a1ca5b	1.9286925e-05
220	0xb8ea6eea	-0.00011178649
221	0x37f0b958	2.8696537e-05
222	0x390e09ed	0.00013545873
223	0x38c1b1b0	9.236054e-05
224	0x371de8ed	9.4121615e-06
225	0xb7ee2fca	-2.8394064e-05
226	0xb952e4e7	-0.00020112433
227	0xb91d288b	-0.0001498779
228	0xb8938ac1	-7.035351e-05
229	0xb7db3942	-2.6133497e-05
230	0xb8f670f6	-0.00011751235
231	0x384a26a3	4.8196536e-05
232	0x38ae9480	8.324627e-05
233	0xb881be23	-6.186615e-05
234	0xbba889e2	-0.00514339
235	0x38a8ca7c	8.04858e-05
236	0xb689126a	-4.085062e-06
237	0x38a313a6	7.7761055e-05
238	0xb8feec13	-0.00012155636
239	0x387ca7c9	6.0237744e-05
240	0x3804d493	3.1669228e-05
241	0xb9367b1a	-0.00017402731
242	0x386cca21	5.6455032e-05
243	0x37e0588b	2.6744112e-05
244	0x36b15c1d	5.2857345e-06
245	0xb8aaeb17	-8.1500206e-05
246	0x36bbfaf4	5.602249e-06
247	0x39ae4783	0.00033241147
248	0xb80834c6	-3.2474076e-05
249	0x38003bdd	3.057333e-05
250	0xb85b8bcf	-5.2343876e-05
251	0x38a7011e	7.9633886e-05
252	0xb908681e	-0.00013008757
253	0xb8c06095	-9.173263e-05
254	0x3729e772	1.01270725e-05
255	0x37b4b68c	2.1542677e-05

raw_layers.8.bias f4 [37]
0	0x390ce0bf	0.00013435165
1	0xb8af9bc1	-8.373662e-05
2	0xb926eebc	-0.00015919929
3	0xb92dd286	-0.00016576992
4	0x3745d577	1.1791816e-05
5	0xb8885939	-6.5016044e-05
6	0x38d9d715	0.000103874285
7	0xb87e387f	-6.0610935e-05
8	0x38a1da62	7.717755e-05
9	0x39042cc8	0.00012605183
10	0x373afcec	1.1145352e-05
11	0xb842cbd3	-4.644303e-05
12	0x36eee82c	7.119981e-06
13	0x3995ae95	0.00028549568
14	0xb8c1f49c	-9.248519e-05
15	0xb8bd6e36	-9.032751e-05
16	0xb702ab36	-7.788467e-06
17	0xb8aa193f	-8.110934e-05
18	0xb75e5dba	-1.3254054e-05
19	0xb781d405	-1.5476728e-05
20	0xb91c9c33	-0.00014935508
21	0xb80d93e0	-3.375474e-05
22	0xb7c105ba	-2.301006e-05
23	0x38977f65	7.22397e-05
24	0x38cfd982	9.911043e-05
25	0x38387753	4.3980148e-05
26	0xb8e949ae	-0.0001112403
27	0x39103410	0.00013752305
28	0x38477183	4.7551013e-05
29	0x37eb043d	2.8016157e-05
30	0x37db040b	2.6108717e-05
31	0xb80333f2	-3.128121e-05
32	0xbb6b7688	-0.0035928804
33	0xb82decdd	-4.146701e-05
34	0x37fed4ed	3.037831e-05
35	0xb983f233	-0.0002516672
36	0xb93a6846	-0.00017777187
