dense_model.pth (torch, 40882 bytes, 22 tensors)

raw_layers.0.weight f4 [32, 49]
0	0xbaa47082	-0.0012545737
1	0xbaa690b4	-0.001270792
2	0xbaf6fa72	-0.0018842949
3	0xbad98b5b	-0.0016597317
4	0xb728634a	-1.0036698e-05
5	0x378b6e39	1.6621418e-05
6	0xb934ff87	-0.00017261329
7	0xb952433e	-0.0002005221
8	0xbada4105	-0.0016651457
9	0xb9f024b8	-0.00045803725
10	0xb700c9af	-7.676353e-06
11	0xbb03fbbe	-0.0020139064
12	0x3a96a6f0	0.0011493843
13	0xbad6c2e8	-0.0016384991
14	0xbb253d29	-0.0025213456
15	0xbb23a72b	-0.0024971466
16	0xbb23dca2	-0.0025003334
17	0xba43bf8e	-0.00074672035
18	0xb92a22e9	-0.00016225468
19	0x394bf379	0.00019450289
20	0x3836b89b	4.356411e-05
21	0xb8038891	-3.136002e-05
22	0xbadc6cc6	-0.0016817085
23	0xb8aa0669	-8.107426e-05
24	0x397aa788	0.00023904268
25	0xbafc3de2	-0.0019244517
26	0x3ac6dba3	0.0015171658
27	0xbb12377b	-0.00223109
28	0xba9d34ca	-0.0011993882
29	0xba9c6314	-0.0011931383
30	0xbaa397cf	-0.0012481156
31	0xbd9e195e	-0.07719682
32	0xb907c1f2	-0.00012946854
33	0x39ccfc7f	0.00039098036
34	0x3a5ab6ba	0.00083432684
35	0x3a2ca653	0.00065860635
36	0xbac21710	-0.0014807899
37	0xb982986a	-0.0002490909
38	0x3b37ef67	0.002806628
39	0xb9c065f9	-0.0003669707
40	0x3b52f8e7	0.0032191814
41	0xba6f5f16	-0.00091312954
42	0x389aedc2	7.387578e-05
43	0xb992be79	-0.00027989203
44	0xb855de6e	-5.099031e-05
45	0x39f0d304	0.00045933586
46	0xb83ba9c5	-4.4742384e-05
47	0x3ab33090	0.0013671089
48	0x3eb19b17	0.34688637
49	0xb85a641d	-5.2068488e-05
50	0xb7736675	-1.4507784e-05
51	0xb8843bd3	-6.3053936e-05
52	0x37b5df6a	2.1680917e-05
53	0xb80aad8a	-3.3063385e-05
54	0xb72c7763	-1.0279796e-05
55	0xb6cbd152	-6.0742395e-06
56	0xb7b677b6	-2.1751835e-05
57	0x3696fd26	4.4998187e-06
58	0x37127bf2	8.731136e-06
59	0xb68abb49	-4.1345234e-06
60	0x36b838e6	5.490251e-06
61	0x37806fb3	1.5310803e-05
62	0x37d5c924	2.5485242e-05
63	0x36dfd08c	6.670196e-06
64	0x37160382	8.941513e-06
65	0x389e7b66	7.557012e-05
66	0x37c0adc9	2.2969109e-05
67	0x388023f8	6.110215e-05
68	0xb8148ece	-3.5418947e-05
69	0x385809d7	5.1507577e-05
70	0x3744abac	1.1722481e-05
71	0x3827504f	3.9890696e-05
72	0xb7ab54b9	-2.042424e-05
73	0xb81f9c42	-3.805408e-05
74	0xb7bffe63	-2.2887432e-05
75	0xb771528b	-1.4383938e-05
76	0x3892bd7c	6.997117e-05
77	0x37e01cab	2.671623e-05
78	0x38129c7e	3.4954857e-05
79	0x37dadd37	2.6090636e-05
80	0xb7560d18	-1.2758443e-05
81	0xb7d6b4b6	-2.5594938e-05
82	0xb795b2c9	-1.7845437e-05
83	0x36a8d9de	5.0321532e-06
84	0x37a46608	1.9597835e-05
85	0xb747ef6f	-1.1917072e-05
86	0x36f82841	7.395662e-06
87	0x38ace5f4	8.244431e-05
88	0x37a2147e	1.9321447e-05
89	0xb77b5d73	-1.4982524e-05
90	0xb87504b7	-5.8416943e-05
91	0xb575a5f6	-9.151112e-07
92	0x37f8b92c	2.9650131e-05
93	0x36cc1995	6.082652e-06
94	0xb84fe4dd	-4.956579e-05
95	0xb7fc603b	-3.0085552e-05
96	0x386cc645	5.6451438e-05
97	0xb81a66cc	-3.68122e-05
98	0xb9eb8c44	-0.000449272
99	0xba05d568	-0.00051053474
100	0xba1158a6	-0.00055445207
101	0x37c97bcf	2.401872e-05
102	0xb8931502	-7.013419e-05
103	0x3776e146	1.4715193e-05
104	0x38c16b32	9.222924e-05
105	0x385d7b14	5.280513e-05
106	0xbaca5b3d	-0.0015438568
107	0x38fe91bc	0.00012138809
108	0x396c5f58	0.00022542232
109	0xb92ec30f	-0.00016666598
110	0x39db036b	0.00041773482
111	0x37884497	1.6244403e-05
112	0xbb23a36c	-0.0024969233
113	0xbb1e4aa2	-0.0024153371
114	0xbb2875f2	-0.0025705067
115	0x36b5b655	5.4154466e-06
116	0x390c5522	0.00013383155
117	0xb9920857	-0.00027853504
118	0x39b81fa6	0.00035118795
119	0x39b449e1	0.0003438732
120	0xbb07630b	-0.00206584
121	0x392af58e	0.0001630394
122	0x39db9676	0.00041883037
123	0x39ef0ac9	0.00045593668
124	0x3a47e282	0.0007625
125	0xbaf0fee1	-0.0018386507
126	0xb8fd3077	-0.000120730074
127	0xb88ea8f5	-6.802558e-05
128	0xb858da74	-5.1701863e-05
129	0xbae7325a	-0.0017638907
130	0xba4b09c6	-0.0007745292
131	0x39d62161	0.0004084213
132	0x3ab78002	0.0013999941
133	0x3a97e1fc	0.0011587734
134	0xba916752	-0.0011093414
135	0x39a97a58	0.00032325345
136	0x3afa85d7	0.0019113374
137	0xbb09e768	-0.002104247
138	0x3a8ca5f0	0.0010730606
139	0xb916dd25	-0.00014387498
140	0xbac3d88d	-0.0014941856
141	0xb83ed424	-4.54971e-05
142	0x38c04e8d	9.169905e-05
143	0xb72063d8	-9.55999e-06
144	0xb8c38b1e	-9.324237e-05
145	0x39f46760	0.00046616327
146	0x3e8a1ed4	0.26976645
147	0xb74f1801	-1.234375e-05
148	0x37c8344e	2.3866214e-05
149	0x37d67ad0	2.5567977e-05
150	0x370583a4	7.958068e-06
151	0xb876761f	-5.876098e-05
152	0xb82d7ed3	-4.136453e-05
153	0x375fb3ec	1.3333727e-05
154	0x381f4fdd	3.7982933e-05
155	0xb693b7b1	-4.402326e-06
156	0xb7407689	-1.147169e-05
157	0xb71dc2c8	-9.40328e-06
158	0x358be688	1.04234e-06
159	0x37c93dbd	2.3989816e-05
160	0x36990775	4.5606234e-06
161	0x37f63b79	2.935318e-05
162	0xb74da569	-1.2257465e-05
163	0xb81d95b3	-3.7571135e-05
164	0x3806b6ee	3.2118456e-05
165	0x3615c26d	2.23159e-06
166	0xb79be0a1	-1.858204e-05
167	0xb74f1913	-1.23439995e-05
168	0xb803c2f8	-3.1414413e-05
169	0xb540f779	-7.1885694e-07
170	0xb7eba501	-2.8091019e-05
171	0x37a171e5	1.9245732e-05
172	0xb70d0fe5	-8.407956e-06
173	0xb7a31f53	-1.94457e-05
174	0x37c485f1	2.3427392e-05
175	0xb686a757	-4.012992e-06
176	0x3822d65a	3.882344e-05
177	0x345e8dd4	2.0726958e-07
178	0x378c02d4	1.6690617e-05
179	0x36d1d119	6.2530275e-06
180	0xb7e2d650	-2.7041096e-05
181	0x367e875c	3.792774e-06
182	0xb7fa37fd	-2.9828394e-05
183	0xb7ad2c89	-2.0643945e-05
184	0xb7898129	-1.6391818e-05
185	0x380835d2	3.247505e-05
186	0xb83a2118	-4.4376677e-05
187	0xb7f73913	-2.9471272e-05
188	0xb7a599ae	-1.9741095e-05
189	0x37487a61	1.19494225e-05
190	0x37b24d2b	2.1255188e-05
191	0x36a134b8	4.804311e-06
192	0x380477ef	3.158295e-05
193	0x369c25df	4.653571e-06
194	0x36ed3c2a	7.0701544e-06
195	0xb7c51a39	-2.3496441e-05
196	0x39d84503	0.00041250148
197	0x39e4f731	0.0004367172
198	0x3a0cdf0f	0.00053738145
199	0x394079d4	0.00018355931
200	0xb8035e31	-3.1320556e-05
201	0x38987973	7.2705465e-05
202	0xb9784706	-0.00023677581
203	0xb9644dcb	-0.00021772755
204	0x39d941d5	0.00041438514
205	0xb9671f08	-0.00022041437
206	0xb942a004	-0.00018560892
207	0x399621a0	0.00028635282
208	0x3a4a5198	0.0007717847
209	0x38be784d	9.082314e-05
210	0x384e11f9	4.9130966e-05
211	0x389fb106	7.614684e-05
212	0xb601fa27	-1.9368106e-06
213	0xba4ad92d	-0.000773805
214	0x39ae3fda	0.0003323544
215	0xb9ce733b	-0.00039377235
216	0x38d1073a	9.967243e-05
217	0x38efcc5d	0.00011434474
218	0x39d32244	0.00040270586
219	0x3903921e	0.00012547566
220	0xb7f75096	-2.948222e-05
221	0x38f871ce	0.00011846759
222	0x3a98eab4	0.0011666627
223	0x38e9a0cb	0.00011140256
224	0xb9880654	-0.00025944656
225	0xb9cd2c50	-0.00039133662
226	0xb9b62b79	-0.00034746135
227	0xbac770d1	-0.0015216117
228	0xbad91fcb	-0.0016565261
229	0x38b5ef0a	8.675277e-05
230	0x39f49dfd	0.00046657017
231	0x39d42397	0.00040462308
232	0xb9438549	-0.00018646302
233	0xb998b915	-0.00029129596
234	0x3a9c6ecb	0.0011934874
235	0x3923db4a	0.00015626583
236	0x3ab61f38	0.0013894802
237	0xb9cfc3a9	-0.00039627895
238	0xb9f20748	-0.00046163262
239	0x38e8ca62	0.00011100319
240	0xb7d37e78	-2.5212052e-05
241	0xb9abf98d	-0.0003280159
242	0xb8a4af94	-7.8528334e-05
243	0x391f9e59	0.00015222411
244	0x3d1f4ef0	0.03889364
245	0x386199c9	5.3787404e-05
246	0xb820784a	-3.8259e-05
247	0x3816aa38	3.5921315e-05
248	0xb82fddf7	-4.1929972e-05
249	0x38874827	6.450741e-05
250	0x389308dc	7.0111564e-05
251	0xb8a5b57f	-7.9016194e-05
252	0x3c74948e	0.014927996
253	0x385fe41d	5.337979e-05
254	0x3a0881bb	0.00052073196
255	0x38c69001	9.4681986e-05

raw_layers.0.bias f4 [32]
0	0x3f32fd05	0.6991733
1	0x36f1407f	7.189868e-06
2	0x3f13aab5	0.57682353
3	0x34608ff4	2.0913996e-07
4	0x3f2b7547	0.66975826
5	0x3e8c6c5b	0.2742642
6	0x3f374be3	0.7160017
7	0x3f2b0a3e	0.66812503
8	0x3f3b161c	0.7308061
9	0x3f3034e1	0.68830687
10	0xb895a304	-7.135238e-05
11	0x3f303b9e	0.6884097
12	0x3f40ab24	0.7526114
13	0x3ee89f7d	0.4543418
14	0x3f2b0676	0.66806734
15	0x3f33165d	0.69956
16	0x381fe367	3.812034e-05
17	0x3f3026c0	0.6880913
18	0x3f2ea6c7	0.6822323
19	0x3eb6f15c	0.35731018
20	0x3f02a704	0.51036096
21	0x381537f9	3.5576497e-05
22	0x383e1928	4.532296e-05
23	0x3f3783eb	0.71685666
24	0x3ee2d9f5	0.44306913
25	0x3f1f3a0e	0.6219796
26	0x3f232619	0.6373001
27	0xb5aea339	-1.3011514e-06
28	0x37cf6952	2.4725367e-05
29	0x3f304a9a	0.6886383
30	0x3f20d008	0.6281743
31	0xb8024f76	-3.106842e-05

raw_layers.3.weight f4 [32, 32]
0	0x38960f46	7.155402e-05
1	0xb6729ee9	-3.6153308e-06
2	0x3894076b	7.058572e-05
3	0xb85467b7	-5.064133e-05
4	0xb7823157	-1.5520183e-05
5	0xb70bf74c	-8.342624e-06
6	0x3824bc7d	3.927619e-05
7	0xb6c935ef	-5.9965455e-06
8	0xb836c90c	-4.357942e-05
9	0xb7409d85	-1.1480767e-05
10	0x38183af1	3.6294517e-05
11	0x38115da0	3.465789e-05
12	0x36853ebf	3.9710135e-06
13	0x36960bab	4.4717067e-06
14	0x37bf505d	2.2806396e-05
15	0x37fe1ba5	3.0292033e-05
16	0x373cba9f	1.1249124e-05
17	0xb78e76c2	-1.698302e-05
18	0xb797413f	-1.8030985e-05
19	0x380c3ae7	3.3433458e-05
20	0x37bbf655	2.2406844e-05
21	0x3795622f	1.7807904e-05
22	0x36d97a7b	6.4813626e-06
23	0xb6ce8a24	-6.15536e-06
24	0x35870f0e	1.0062665e-06
25	0xb7d4cc54	-2.5367517e-05
26	0xb848837a	-4.7806163e-05
27	0xb70ffad2	-8.581863e-06
28	0x376fd87e	1.4295916e-05
29	0x38438d66	4.662331e-05
30	0xb7cf9c1e	-2.474902e-05
31	0xb8188741	-3.636559e-05
32	0x3df3064e	0.11866437
33	0xb7e9e062	-2.788025e-05
34	0x3ddd18bd	0.10795734
35	0xb8714934	-5.7527053e-05
36	0x3d1d4a59	0.03840098
37	0x3dadbe19	0.08483524
38	0x3e3872d0	0.18012547
39	0x3d426f48	0.047469407
40	0x3e7524aa	0.23939767
41	0x3e1fdd55	0.15611775
42	0xb78254cb	-1.5536692e-05
43	0x3e00a0fb	0.12561409
44	0x3e847cbe	0.2587642
45	0x3cb26dd8	0.021780893
46	0x3e17b905	0.14816673
47	0x3da9ba80	0.08287525
48	0x371bc516	9.284608e-06
49	0x3dc411fe	0.09573744
50	0x3e3f8130	0.18701625
51	0x3c2af85d	0.010435191
52	0x3d199818	0.037498564
53	0xb7627fbb	-1.3500389e-05
54	0xb80c1ed5	-3.3407316e-05
55	0x3da2edcd	0.07955513
56	0x3dcd3986	0.10020737
57	0x3d1e2675	0.038610894
58	0x3d6bcd8a	0.057569064
59	0x3673e6de	3.6344204e-06
60	0xb82633d9	-3.962577e-05
61	0x3de1d173	0.110262774
62	0x3e0ab865	0.13546903
63	0xb82580dd	-3.945908e-05
64	0x38201657	3.816778e-05
65	0xb7ffa458	-3.0474897e-05
66	0xb7b2a404	-2.129563e-05
67	0xb70dd914	-8.454797e-06
68	0xb72f4087	-1.0445837e-05
69	0x378ff76e	1.7162147e-05
70	0xb8325eeb	-4.2526906e-05
71	0xb88d3e59	-6.735017e-05
72	0xb8424aed	-4.6322984e-05
73	0x3774dc88	1.459488e-05
74	0xb6be5bad	-5.6731137e-06
75	0x37f5a187	2.9281493e-05
76	0x38fd7651	0.00012086018
77	0xb713e4c2	-8.815145e-06
78	0xb760102f	-1.33552085e-05
79	0x3787da5a	1.6194932e-05
80	0x38445487	4.6808764e-05
81	0x35029fab	4.866112e-07
82	0x389ce63d	7.481545e-05
83	0x37b2af22	2.1300806e-05
84	0xb81b3cef	-3.701163e-05
85	0x380c2eeb	3.3422297e-05
86	0xb81bb66d	-3.7124777e-05
87	0xb880c1c9	-6.139611e-05
88	0xb79a1a6c	-1.8370534e-05
89	0x37cc39fe	2.43457e-05
90	0xb7c039ff	-2.291519e-05
91	0x378578bc	1.5911057e-05
92	0x36e87220	6.9274247e-06
93	0x3889ed37	6.576854e-05
94	0x38ae32d4	8.306434e-05
95	0xb7d467cd	-2.5320705e-05
96	0x388931f5	6.541974e-05
97	0x375fe616	1.3345407e-05
98	0xb88237a1	-6.209245e-05
99	0xb5b27ec4	-1.3298927e-06
100	0x3797c9df	1.8094606e-05
101	0x380f1902	3.4117147e-05
102	0x37d795e6	2.56998e-05
103	0x3810abf6	3.4492426e-05
104	0x3837d5f6	4.3829867e-05
105	0x37a03a58	1.9100655e-05
106	0xb6f76898	-7.37335e-06
107	0xb8048096	-3.1591007e-05
108	0xb7f55b75	-2.9248864e-05
109	0xb67be9d9	-3.7538032e-06
110	0x38930b5e	7.0116235e-05
111	0xb736dd8c	-1.0899628e-05
112	0xb7c270cb	-2.3179125e-05
113	0x37c2e750	2.3234315e-05
114	0x3812b27d	3.4975343e-05
115	0xb77fffd0	-1.5258745e-05
116	0xb87b968b	-5.9983267e-05
117	0xb7388bd4	-1.0999811e-05
118	0x3859b337	5.190374e-05
119	0x387c12f0	6.009912e-05
120	0x37334b02	1.06866955e-05
121	0x37daae92	2.6068916e-05
122	0x3701e3c9	7.7420345e-06
123	0xb71a090d	-9.181223e-06
124	0x3790114b	1.717419e-05
125	0xb893a744	-7.040662e-05
126	0x3876d937	5.8853268e-05
127	0x3681abe8	3.864512e-06
128	0x3e086abf	0.1332197
129	0x38750917	5.8421017e-05
130	0x3d11fd22	0.035641797
131	0x35b70845	1.3636969e-06
132	0x3e1d652e	0.15370628
133	0x3db5abaf	0.08870637
134	0x3e48f4d2	0.19624642
135	0x3e03a346	0.12855253
136	0x3e01de74	0.12682515
137	0x3dc869d3	0.09785809
138	0x37d0b8e9	2.4881638e-05
139	0x3ddc9fd5	0.10772673
140	0x3e290666	0.16506347
141	0x3d6153df	0.055011626
142	0x3e135266	0.14386901
143	0x3d39824d	0.04529028
144	0x36fed32a	7.5943726e-06
145	0x3db85f0b	0.09002503
146	0x3e7be209	0.24597944
147	0x396ae83a	0.0002240249
148	0x3d8f376b	0.06992992
149	0x36852d7b	3.9690035e-06
150	0x3777b83b	1.4765242e-05
151	0x3d74ed54	0.059796646
152	0x3e044692	0.12917545
153	0x3d9e2aea	0.07723029
154	0x3e81829f	0.25294968
155	0xb79e9e52	-1.8908791e-05
156	0x37d618d9	2.5522359e-05
157	0x3dba1388	0.090857565
158	0x3e58017f	0.2109432
159	0xb7b05966	-2.1022464e-05
160	0x3e101e79	0.14074124
161	0x38855253	6.357268e-05
162	0x3dc5f97b	0.09666725
163	0xb840d2f9	-4.597285e-05
164	0x3dad13e2	0.08451058
165	0x391f6549	0.00015201153
166	0x3e1bd351	0.1521733
167	0x3d88e4b8	0.0668425
168	0x3e36ca46	0.17850599
169	0x3e143689	0.14473929
170	0xb8cc956a	-9.7553086e-05
171	0x3e4a028f	0.19727539
172	0x3e82dab1	0.25557473
173	0x3d5e4548	0.05426529
174	0x3d5e8db7	0.05433437
175	0x3dde1f10	0.108457685
176	0xb77e1b69	-1.5145962e-05
177	0x3e2bcd5b	0.16777556
178	0x3e58b4b2	0.2116268
179	0x3d0e1ce4	0.03469552
180	0x3cedfd56	0.029051464
181	0xb720f997	-9.594855e-06
182	0x37320ee7	1.06130965e-05
183	0x3e0eff29	0.13964523
184	0x3d972103	0.07379343
185	0x3e4b8060	0.1987319
186	0x3e7bb35d	0.2458014
187	0xb712a351	-8.740303e-06
188	0x382f0e40	4.1736523e-05
189	0x3dd1743f	0.1022725
190	0x3e5f8334	0.21827394
191	0xb834c739	-4.3100885e-05
192	0x3e4e11ca	0.20123973
193	0x386a64ef	5.588395e-05
194	0x3e027aee	0.12742206
195	0xb800f07c	-3.0741547e-05
196	0x3df758e9	0.12077505
197	0x3abece14	0.0014557266
198	0x3e525914	0.20541793
199	0x3e338603	0.1753159
200	0x3e3edace	0.18638155
201	0x3d3580d6	0.04431232
202	0xb75aab8d	-1.3033755e-05
203	0x3e3d401d	0.18481489
204	0x3df3a266	0.118962094
205	0x3dd2b672	0.10288705
206	0x3e8015ce	0.25016636
207	0x3cda8736	0.026675802
208	0x37f3a0cf	2.904274e-05
209	0x3da80e7b	0.08205887
210	0x3d85a5a2	0.065257326
211	0x3a884dac	0.0010399125
212	0x3e0d50bf	0.13800333
213	0x3897e72c	7.2433e-05
214	0x363b6b4f	2.7927633e-06
215	0x3e1a3499	0.15059127
216	0x3aa8acef	0.0012868921
217	0x3e4d363b	0.20040219
218	0x3e65d804	0.22445685
219	0x35248dff	6.130139e-07
220	0x367dc931	3.7817047e-06
221	0x3e4e3998	0.20139158
222	0x3d7b36a8	0.06133142
223	0x37f38345	2.9028984e-05
224	0xb84300cb	-4.649236e-05
225	0x37f39668	2.9037896e-05
226	0xb87acff1	-5.9798305e-05
227	0x388184ed	6.175959e-05
228	0xb78ddccf	-1.6911332e-05
229	0x378fecf2	1.7157265e-05
230	0xb804a9d7	-3.1629428e-05
231	0xb6f0e893	-7.1796326e-06
232	0x368bba63	4.164221e-06
233	0xb8117a1f	-3.4684428e-05
234	0xb572ae6e	-9.0405854e-07
235	0xb7e91282	-2.7784383e-05
236	0x375f5527	1.3311662e-05
237	0xb787ace5	-1.6173764e-05
238	0x3815f951	3.5756562e-05
239	0xb6cb7f06	-6.064659e-06
240	0xb8589f74	-5.1646915e-05
241	0x376956d6	1.39081e-05
242	0x37bffe26	2.2887321e-05
243	0x372db80c	1.0354455e-05
244	0xb88335f4	-6.256616e-05
245	0xb7e1628d	-2.6867981e-05
246	0xb780be0e	-1.534729e-05
247	0x380093c4	3.0655196e-05
248	0xb681f441	-3.8729345e-06
249	0x374c882b	1.2191052e-05
250	0x381e34a2	3.7719154e-05
251	0xb7e8f132	-2.776887e-05
252	0x37b0c198	2.1070984e-05
253	0x36bcc50b	5.6257754e-06
254	0x37163b4d	8.954504e-06
255	0x372f583a	1.0451355e-05

raw_layers.3.bias f4 [32]
0	0x3815a4ea	3.5677956e-05
1	0x3f041d94	0.5160763
2	0xb8746c9a	-5.8275276e-05
3	0xb778c0ea	-1.4826868e-05
4	0x3f343a62	0.70401585
5	0x3f1e6d09	0.61885124
6	0x3f2755d5	0.65365344
7	0x36661537	3.428502e-06
8	0x3f1540fc	0.58302283
9	0xb722cca3	-9.703598e-06
10	0xb7b8a7dc	-2.2012675e-05
11	0x3f1e8f69	0.61937577
12	0xb8660696	-5.4842407e-05
13	0x3818951f	3.6378504e-05
14	0x37a1c33d	1.928361e-05
15	0x3eee2d37	0.4651887
16	0x3f37248a	0.7154013
17	0x3f1e8d1a	0.61934054
18	0x3f221191	0.63308054
19	0x3f31e95b	0.694967
20	0x3f30d04a	0.69067824
21	0x3898502d	7.262859e-05
22	0x3f0e8612	0.55673325
23	0x3f35ad58	0.70967627
24	0x380a4df5	3.2974367e-05
25	0x37c7c965	2.381643e-05
26	0x3f11acac	0.569041
27	0x3e78822c	0.24268407
28	0xb8836ba8	-6.266619e-05
29	0xb8845d52	-6.311633e-05
30	0x3639f75b	2.7711128e-06
31	0x3f2bdf2b	0.671374

raw_layers.6.weight f4 [64, 32]
0	0xb7f7557b	-2.94845e-05
1	0x37644d9d	1.360793e-05
2	0xb8506371	-4.9683676e-05
3	0x372ad57e	1.0182497e-05
4	0x36ba1e73	5.5467767e-06
5	0x3820a9e1	3.8305185e-05
6	0x388389a7	6.2722065e-05
7	0x36ef7242	7.1360564e-06
8	0xb84b1535	-4.8418722e-05
9	0x387b0613	5.984872e-05
10	0xb7ce6148	-2.4602414e-05
11	0xb84533b1	-4.70166e-05
12	0x3710e498	8.6362925e-06
13	0xb7b16dc6	-2.1151161e-05
14	0x38a031c5	7.638665e-05
15	0xb73392f8	-1.070345e-05
16	0xb7a1defd	-1.9296533e-05
17	0xb776e8f9	-1.4716986e-05
18	0x37f1529a	2.8767903e-05
19	0x37379c2f	1.0944014e-05
20	0xb7fb7ea8	-2.998051e-05
21	0x377aedcb	1.4956527e-05
22	0x3663540f	3.3874564e-06
23	0x3868ddc4	5.5519646e-05
24	0x37da0d0f	2.5993706e-05
25	0xb7c78c31	-2.378793e-05
26	0x380a0127	3.2902837e-05
27	0x388a61db	6.59858e-05
28	0x33ae2fbb	8.1111885e-08
29	0x34319768	1.6539491e-07
30	0xb70c2463	-8.353122e-06
31	0x37705e71	1.4327104e-05
32	0x36862b04	3.998519e-06
33	0x362cf71d	2.5773836e-06
34	0x36e97f37	6.958751e-06
35	0xb725147c	-9.839536e-06
36	0xb8018fdd	-3.088998e-05
37	0xb812b438	-3.4976954e-05
38	0xb83f0ffc	-4.5552835e-05
39	0xb89b99c4	-7.419617e-05
40	0x38e811c3	0.000110659304
41	0xb7e41080	-2.7187401e-05
42	0x37946260	1.7688784e-05
43	0xb7ab6ccc	-2.0435451e-05
44	0x383ec632	4.5484114e-05
45	0x36a002f7	4.7687167e-06
46	0xb70f6531	-8.547025e-06
47	0x37ba8d7d	2.2238813e-05
48	0x37d741f7	2.5660715e-05
49	0xb88e9dcc	-6.8004796e-05
50	0x3844893b	4.6857847e-05
51	0x3891a995	6.945726e-05
52	0xb801e414	-3.096841e-05
53	0x38330cea	4.2688953e-05
54	0x381d4d7b	3.7503876e-05
55	0x361ad0b3	2.3069267e-06
56	0x3867f091	5.5298737e-05
57	0xb7e99a28	-2.7847549e-05
58	0x370bd784	8.335224e-06
59	0x37f23db2	2.8877377e-05
60	0xb74ee91c	-1.2332832e-05
61	0xb6bd4e3a	-5.6417457e-06
62	0x36a30f77	4.859579e-06
63	0xb6f1a362	-7.20138e-06
64	0xb7aaabc4	-2.0345564e-05
65	0x384c3ce9	4.8694117e-05
66	0xb894c533	-7.093921e-05
67	0x36963e29	4.4775848e-06
68	0x3889d0a4	6.5715314e-05
69	0x378bf1d3	1.66827e-05
70	0x37b89b6c	2.2006883e-05
71	0xb5c878ca	-1.4936315e-06
72	0xb851ec17	-5.004936e-05
73	0xb597031c	-1.1251282e-06
74	0xb712b441	-8.744247e-06
75	0xb6591077	-3.2345104e-06
76	0xb8252e9a	-3.9382467e-05
77	0x3794d998	1.77443e-05
78	0xb68188fc	-3.8604467e-06
79	0x370582b4	7.957849e-06
80	0xb65fad5d	-3.33305e-06
81	0xb60afe55	-2.0711643e-06
82	0xb7c8e7fa	-2.394988e-05
83	0x351b54c9	5.786538e-07
84	0x3811fc74	3.480581e-05
85	0x3806d367	3.2144973e-05
86	0x382900e6	4.0293577e-05
87	0x381a07c3	3.672369e-05
88	0xb876deca	-5.885846e-05
89	0x3811f336	3.47972e-05
90	0xb80cc7bb	-3.3564615e-05
91	0xb6fc6989	-7.522471e-06
92	0xb783ba28	-1.5703103e-05
93	0x38db282c	0.00010450216
94	0xb7074fd3	-8.065213e-06
95	0x380db4ef	3.3785527e-05
96	0x37577ec6	1.2844515e-05
97	0xb893cd9e	-7.0478054e-05
98	0x381af817	3.6947513e-05
99	0x38479319	4.7582293e-05
100	0xb7009505	-7.664091e-06
101	0x3818150c	3.6259225e-05
102	0x37b32522	2.1355754e-05
103	0xb58b7a48	-1.0391896e-06
104	0x36bd2ff1	5.63822e-06
105	0xb8394cf4	-4.4179105e-05
106	0xb815f82c	-3.5755496e-05
107	0xb85c3d62	-5.2509255e-05
108	0xb74d80b7	-1.2248921e-05
109	0xb69d3bd1	-4.685928e-06
110	0x36fbdc53	7.506032e-06
111	0xb772a476	-1.4462616e-05
112	0x3592b940	1.0931763e-06
113	0xb81275b7	-3.4918743e-05
114	0xb8417ea6	-4.6132736e-05
115	0x36cbb223	6.0706093e-06
116	0x376b4981	1.40242055e-05
117	0x37a2bc50	1.9399595e-05
118	0xb68a9fd7	-4.1313283e-06
119	0xb82c41e6	-4.106937e-05
120	0x382596a2	3.9479353e-05
121	0x38044437	3.1534782e-05
122	0x3705c27f	7.972702e-06
123	0x36a02887	4.7730896e-06
124	0xb6da35b5	-6.5031586e-06
125	0xb7e7f139	-2.7649674e-05
126	0x384a9c27	4.830598e-05
127	0xb74f1c94	-1.2344815e-05
128	0xb7abf143	-2.0497135e-05
129	0xb56b3f32	-8.7636283e-07
130	0x370445a3	7.884027e-06
131	0xb7a746f0	-1.9940984e-05
132	0xb88145a0	-6.164168e-05
133	0xb81cbd67	-3.7369693e-05
134	0x378b5600	1.6610138e-05
135	0xb72558ac	-9.855412e-06
136	0x37f32b09	2.8987897e-05
137	0xb72edcac	-1.0422587e-05
138	0x3764aedc	1.3630572e-05
139	0x384f4618	4.9417926e-05
140	0xb7b19907	-2.1171303e-05
141	0x37db77f9	2.6162701e-05
142	0xb7b4249d	-2.1474722e-05
143	0xb6b8a3f0	-5.502712e-06
144	0x381a9211	3.6852496e-05
145	0x36d1dc09	6.254301e-06
146	0xb80d199e	-3.3640878e-05
147	0x386897ca	5.5454475e-05
148	0x3826fb2d	3.981141e-05
149	0x36b3b0b7	5.355188e-06
150	0xb73b148b	-1.1150852e-05
151	0x38815926	6.1678045e-05
152	0x378c997d	1.6760774e-05
153	0xb7f06224	-2.865593e-05
154	0xb81c099d	-3.720225e-05
155	0x364d4b83	3.0591334e-06
156	0x372386e1	9.746961e-06
157	0xb80358ff	-3.1315718e-05
158	0x3798cfee	1.8216637e-05
159	0xb7e140ea	-2.6852318e-05
160	0x379e8e36	1.890129e-05
161	0xb8135e62	-3.5135432e-05
162	0x37a18700	1.925556e-05
163	0x3809512b	3.273894e-05
164	0x37d4198b	2.5284264e-05
165	0xb6ba3beb	-5.5502073e-06
166	0x3829b615	4.0462317e-05
167	0xb89f484a	-7.595176e-05
168	0x37fbc39b	3.0012618e-05
169	0x385c1fd9	5.2481748e-05
170	0xb7e19b52	-2.6894417e-05
171	0x3819d8d1	3.667997e-05
172	0xb7615a7f	-1.3432115e-05
173	0x37bb4684	2.2324974e-05
174	0x3847f4b7	4.7673206e-05
175	0xb5d0bba4	-1.5551818e-06
176	0x37f663b5	2.9371915e-05
177	0xb7e2180d	-2.6952499e-05
178	0xb8635092	-5.4196054e-05
179	0x37d9c7da	2.5961479e-05
180	0x37cf4d7d	2.4712406e-05
181	0xb81809df	-3.6248817e-05
182	0xb83fc7eb	-4.5724137e-05
183	0x3724347c	9.787382e-06
184	0xb6f66ef5	-7.3442884e-06
185	0x37ceb416	2.4640973e-05
186	0x3832f20a	4.2663924e-05
187	0xb7ebf981	-2.8130367e-05
188	0xb70cdea4	-8.396488e-06
189	0x3809b35d	3.283039e-05
190	0x37573e1a	1.2829458e-05
191	0xb708df6c	-8.158251e-06
192	0xb86e91ba	-5.687934e-05
193	0xb76bd063	-1.405561e-05
194	0x376b9e3e	1.4043935e-05
195	0xb8393379	-4.4155375e-05
196	0xb7e72776	-2.7555721e-05
197	0x386fd76f	5.718268e-05
198	0xb6896522	-4.0946916e-06
199	0xb854b533	-5.0713494e-05
200	0xb81d0e22	-3.744488e-05
201	0x37d3d36a	2.5251607e-05
202	0xb8061534	-3.1967837e-05
203	0x37bf493e	2.280308e-05
204	0xb8000b33	-3.052801e-05
205	0x34673f75	2.1536637e-07
206	0xb7f8cf45	-2.9660421e-05
207	0x37f2e8a8	2.8956987e-05
208	0x3844399c	4.6783694e-05
209	0xb72ad0f2	-1.01814385e-05
210	0x381692db	3.5899557e-05
211	0x3781be92	1.546674e-05
212	0xb7f1080f	-2.8733191e-05
213	0xb830d9bd	-4.2164454e-05
214	0x375454f4	1.2655964e-05
215	0x37b95bf1	2.2096532e-05
216	0x38a34246	7.78479e-05
217	0xb7828567	-1.5559328e-05
218	0x382877dd	4.0165953e-05
219	0xb88be6c3	-6.671019e-05
220	0x38461da3	4.723448e-05
221	0x383840a7	4.392923e-05
222	0xb77cd6f5	-1.5070419e-05
223	0xb88fca96	-6.856506e-05
224	0x37a65bf1	1.9831556e-05
225	0x3dc6b7b4	0.09703007
226	0x36d5cf77	6.3720468e-06
227	0x379ab361	1.844176e-05
228	0x3e929efb	0.28636917
229	0x3e40a5c5	0.18813236
230	0x3d87c26b	0.06628879
231	0x36cd0aaa	6.1107175e-06
232	0x3e7ffe9c	0.2499947
233	0x35a2ab76	1.2119842e-06
234	0xb78e4539	-1.6959953e-05
235	0x3e881769	0.2658036
236	0xb8cc9361	-9.7549295e-05
237	0xb82e6af7	-4.158445e-05
238	0xb746d0ea	-1.1850361e-05
239	0x3dab3b3e	0.08360909
240	0x3e35c237	0.17749868
241	0x3dbbb966	0.09166221
242	0x3e492af2	0.19645289
243	0x3db1e67b	0.08686539
244	0x3e186276	0.1488131
245	0xb836ee8a	-4.361434e-05
246	0x3e8ad64d	0.27116624
247	0x3dde0f92	0.108428136
248	0x3844a714	4.6885645e-05
249	0x380c3708	3.3429853e-05
250	0x3e303478	0.17207515
251	0x381127f9	3.460792e-05
252	0xb7b813d6	-2.1943746e-05
253	0xb632afca	-2.662639e-06
254	0xb71eeccb	-9.4726665e-06
255	0x3e846058	0.25854754

raw_layers.6.bias f4 [64]
0	0xb8287a08	-4.016797e-05
1	0xb67ad869	-3.737887e-06
2	0x379f471c	1.898739e-05
3	0x3806ab4b	3.210762e-05
4	0xb6c04156	-5.729652e-06
5	0x37a669cf	1.9838013e-05
6	0xb841e520	-4.6228175e-05
7	0x3e7d9a52	0.247659
8	0xb5e6c538	-1.7193734e-06
9	0x3e412c89	0.18864645
10	0xb8193dc5	-3.653557e-05
11	0xb7ad140b	-2.063254e-05
12	0x3e93d5d4	0.28874075
13	0xb7ec0b0c	-2.8138536e-05
14	0xb90ab099	-0.00013226493
15	0x3dfc0c45	0.12307028
16	0xb725f153	-9.890954e-06
17	0x3e863ca5	0.26218143
18	0xb725e8f4	-9.889005e-06
19	0xb82b527c	-4.0846397e-05
20	0x3813ec6b	3.5267713e-05
21	0x3eb2b7a4	0.34905732
22	0x3da02147	0.07818847
23	0x38f4a05e	0.000116646974
24	0xb7cd23a7	-2.4454506e-05
25	0x37d67e14	2.5569498e-05
26	0x37701c8c	1.4311761e-05
27	0x384c7f48	4.875593e-05
28	0x37f5d2e8	2.9304487e-05
29	0x3899b0c6	7.328535e-05
30	0x383a24f9	4.438029e-05
31	0x3d9aa67a	0.07551284
32	0xb7d2bafc	-2.5121022e-05
33	0x384a55b4	4.824037e-05
34	0x37f2d940	2.8949813e-05
35	0xb7ac029a	-2.050521e-05
36	0xb8c118dc	-9.2075876e-05
37	0xb74314b5	-1.1627727e-05
38	0xb805b410	-3.1877367e-05
39	0x38219cf9	3.8531583e-05
40	0x3e0df3f0	0.13862586
41	0x379e44f1	1.8867171e-05
42	0xb85e6c64	-5.302987e-05
43	0x3e6ae122	0.22937444
44	0x380ccf7e	3.3571843e-05
45	0x37b1674a	2.1148142e-05
46	0xb7e08d86	-2.6768783e-05
47	0x3e1d7cdc	0.15379661
48	0xb83d9ac1	-4.5205237e-05
49	0x3791340a	1.730958e-05
50	0x3e5a48bf	0.21316813
51	0x370f5f00	8.545583e-06
52	0x37c99ba2	2.403354e-05
53	0x3e9b3e46	0.30320948
54	0xb886e38a	-6.4320004e-05
55	0x3e83ef3e	0.25768465
56	0xb7acf402	-2.0617623e-05
57	0xb88f7bd4	-6.841836e-05
58	0x37512df5	1.2468071e-05
59	0xb5be1b71	-1.416409e-06
60	0x37d7ecff	2.5740357e-05
61	0x3dee6b12	0.11641516
62	0xb6e98379	-6.9592465e-06
63	0x37c2ea04	2.3235574e-05

raw_layers.9.weight f4 [37, 64]
0	0xb6de427d	-6.623856e-06
1	0x385c70e3	5.255722e-05
2	0x379bba26	1.8564122e-05
3	0xb79843c6	-1.8151371e-05
4	0x37f3c5f9	2.9060046e-05
5	0x381b9fad	3.710359e-05
6	0x36facd00	7.4744457e-06
7	0x3ea21bb8	0.31661773
8	0x37926afb	1.7454373e-05
9	0x3ea0b523	0.31388196
10	0x3856c19b	5.1201885e-05
11	0xb8235694	-3.894286e-05
12	0x3ed130be	0.408575
13	0x37fab5bf	2.9886955e-05
14	0x38579a89	5.1403917e-05
15	0x3ec8aea5	0.39195743
16	0x38218541	3.8509494e-05
17	0x3e8ec1ae	0.2788214
18	0xb7bff478	-2.2882814e-05
19	0xb85b6055	-5.2303385e-05
20	0x388f934a	6.846206e-05
21	0x3edfab11	0.436852
22	0x3ee70cb2	0.45126873
23	0xb904fd05	-0.00012682758
24	0xb87d5208	-6.0396298e-05
25	0x388b82c5	6.652394e-05
26	0x3874831a	5.829623e-05
27	0x36d70832	6.4084534e-06
28	0x387b3968	5.9896527e-05
29	0xb84ff97e	-4.9585004e-05
30	0xb8446c62	-4.683098e-05
31	0x3e6341ca	0.22193065
32	0x37bcf279	2.2524257e-05
33	0x37c38c22	2.3311066e-05
34	0xb857cad0	-5.144888e-05
35	0x37a30de4	1.9437583e-05
36	0x38857d01	6.365218e-05
37	0x37d544ae	2.542356e-05
38	0x38813775	6.161529e-05
39	0x37fc2a06	3.006031e-05
40	0x3eb3fca8	0.351537
41	0x37d31883	2.5164574e-05
42	0x384d673b	4.897195e-05
43	0x3ed094e8	0.40738606
44	0xb61c3819	-2.3278465e-06
45	0x37dd607b	2.639018e-05
46	0x372c62a9	1.027497e-05
47	0x3eb3bb57	0.35103866
48	0x38617575	5.375357e-05
49	0x36bd4dca	5.6416948e-06
50	0x3e8a74fe	0.27042383
51	0x3e076197	0.13220821
52	0xb73c2ded	-1.1216366e-05
53	0x3e68aa09	0.22721113
54	0xb826dd61	-3.978366e-05
55	0x3e2dcdbe	0.16973016
56	0xb71a9b37	-9.215254e-06
57	0x388e556a	6.786997e-05
58	0xb7f1a9a0	-2.8808427e-05
59	0x35294dcd	6.307062e-07
60	0x37adf952	2.0739306e-05
61	0x3ed4ae71	0.41539338
62	0x3837c058	4.3809734e-05
63	0xb785e651	-1.5962085e-05
64	0xb7cb10e5	-2.4207353e-05
65	0x37180e0b	9.063176e-06
66	0x37a96368	2.019266e-05
67	0xb88afeda	-6.6278226e-05
68	0xb8596a52	-5.183585e-05
69	0xb71b490c	-9.2557275e-06
70	0x38932780	7.016864e-05
71	0xbdd1760c	-0.10227594
72	0x37c551c9	2.3522314e-05
73	0xbd9c59a3	-0.07634284
74	0x36801252	3.81683e-06
75	0x380cf1ba	3.3603726e-05
76	0xbda50c29	-0.0805896
77	0xb89e5433	-7.5497104e-05
78	0x3823186a	3.8884966e-05
79	0xbd9c0a7b	-0.076191865
80	0xb7bcc2ed	-2.2502116e-05
81	0xbd9b2888	-0.0757609
82	0xb797314b	-1.8023557e-05
83	0x3809c9f7	3.285144e-05
84	0xbd22a54c	-0.03970842
85	0xbdd93fa0	-0.10607839
86	0xbd86897e	-0.06569193
87	0xbd18cca5	-0.03730454
88	0xb78dfff3	-1.6927695e-05
89	0xb79d5260	-1.8754217e-05
90	0x38096427	3.275662e-05
91	0xb7b98821	-2.2117109e-05
92	0x38005f64	3.0606418e-05
93	0xb7e3bb3f	-2.7147702e-05
94	0xb6a224d7	-4.832265e-06
95	0xbdbc0447	-0.09180503
96	0xb8038e4a	-3.136535e-05
97	0x37a59420	1.9738509e-05
98	0x381e927b	3.7806556e-05
99	0xb7be982c	-2.2720626e-05
100	0xb66edda7	-3.5593782e-06
101	0xb7b1bdb6	-2.1188385e-05
102	0xb7959feb	-1.7836652e-05
103	0xb002f400	-4.764047e-10
104	0xbddc9eb1	-0.107724555
105	0x37373fa9	1.0922472e-05
106	0xb79d189d	-1.872732e-05
107	0xbda09f0e	-0.07842837
108	0x389e8533	7.5588374e-05
109	0xb743b404	-1.1664819e-05
110	0xb80ebda3	-3.403205e-05
111	0xbdc14dfd	-0.09438703
112	0x38825ba3	6.215952e-05
113	0x37bfedc2	2.2879689e-05
114	0xbddceec3	-0.10787728
115	0xbd984c46	-0.07436423
116	0x37f86fb2	2.9615916e-05
117	0xbdd87f2b	-0.1057113
118	0x37df70b0	2.6636146e-05
119	0xbda22df8	-0.07918924
120	0xb7864c43	-1.6009557e-05
121	0x37823d3e	1.5525726e-05
122	0x37bf4d27	2.2804901e-05
123	0xb7012451	-7.697455e-06
124	0xb735daba	-1.0839367e-05
125	0xbdb23121	-0.08700777
126	0xb729ee2e	-1.01286405e-05
127	0xb7648bf7	-1.3622447e-05
128	0xb81b3b9d	-3.70104e-05
129	0x36e8a089	6.9328275e-06
130	0xb5e45218	-1.7011216e-06
131	0x38822fef	6.2078114e-05
132	0x368d90fe	4.2190068e-06
133	0x3835c0d9	4.3333366e-05
134	0xb71e916f	-9.451395e-06
135	0xbe338192	-0.17529896
136	0xb834eaf5	-4.3134165e-05
137	0xbe229e9b	-0.15880816
138	0xb7233d65	-9.729852e-06
139	0x359efdec	1.1845818e-06
140	0xbea2a675	-0.31767622
141	0x381c84cc	3.7316975e-05
142	0x3723d3a3	9.764833e-06
143	0xbe905e92	-0.2819715
144	0xb7843aa9	-1.5762942e-05
145	0xbe30faae	-0.17283127
146	0x37e73658	2.7562652e-05
147	0xb83bb4ef	-4.4752782e-05
148	0x37c50143	2.3484818e-05
149	0xbea7b899	-0.32758024
150	0xbea6520c	-0.32484472
151	0xb8224833	-3.869105e-05
152	0x378c9072	1.6756563e-05
153	0x36f98dcb	7.437285e-06
154	0x36b093db	5.2624214e-06
155	0xb8552110	-5.081395e-05
156	0xb7e1632a	-2.6868267e-05
157	0x36eed43f	7.1176614e-06
158	0x3813a1c2	3.519818e-05
159	0xbe5387fc	-0.20657343
160	0x37c12d79	2.3028568e-05
161	0xb834bd97	-4.3091914e-05
162	0x382eb31d	4.1651645e-05
163	0x36eb92ca	7.0206343e-06
164	0x386cb5a7	5.643596e-05
165	0xb72cc12a	-1.0296973e-05
166	0x374dbec4	1.2263368e-05
167	0x385ad265	5.2171195e-05
168	0xbe74890d	-0.23880406
169	0xb7aa5606	-2.0305637e-05
170	0xb8061e9d	-3.19766e-05
171	0xbe9a7717	-0.30168983
172	0x384dc479	4.9058788e-05
173	0xb7be714b	-2.2702521e-05
174	0xb76a0725	-1.394915e-05
175	0xbe82ddf0	-0.2555995
176	0xb83db914	-4.523348e-05
177	0x370d9e26	8.441077e-06
178	0xbe746448	-0.2386638
179	0xbe0f48e1	-0.13992645
180	0xb804ed8d	-3.169249e-05
181	0xbe2812c0	-0.16413403
182	0xb865dcae	-5.480338e-05
183	0xbe9d6f3f	-0.30748937
184	0xb804507e	-3.1546217e-05
185	0xb649efbd	-3.009088e-06
186	0x38112f00	3.4614466e-05
187	0xb6059feb	-1.991163e-06
188	0xb7f4268d	-2.9105018e-05
189	0xbeb5f59b	-0.35538945
190	0x37174a25	9.0175645e-06
191	0xb73230e4	-1.062101e-05
192	0xb892bd95	-6.997135e-05
193	0xb7f02829	-2.862893e-05
194	0x370e5c5c	8.485364e-06
195	0x386c62ef	5.6358924e-05
196	0x368a47ba	4.1210706e-06
197	0x3706cc71	8.034623e-06
198	0xb6af6e62	-5.2282567e-06
199	0xbe045f24	-0.12926918
200	0xb80c489e	-3.344623e-05
201	0xbe6bd2e0	-0.23029661
202	0x38283fed	4.0113857e-05
203	0xb808be25	-3.2602013e-05
204	0xbe528c44	-0.2056132
205	0xb78856a0	-1.6252801e-05
206	0xb5cbaf7f	-1.5175755e-06
207	0xbe4ed26b	-0.20197456
208	0x381418e0	3.5309116e-05
209	0xbe0ea454	-0.13929874
210	0x3803abc3	3.13928e-05
211	0xb854cc7e	-5.0735187e-05
212	0xb7fa6d7b	-2.9853303e-05
213	0xbe3fe730	-0.18740535
214	0xbe7182a5	-0.23584993
215	0x3831bac0	4.2374013e-05
216	0xb60b80ac	-2.078751e-06
217	0xb8167839	-3.5874753e-05
218	0x380626e8	3.1984324e-05
219	0x3743063a	1.16243555e-05
220	0x36b63d12	5.431132e-06
221	0x383ab4e7	4.4514334e-05
222	0xb80949bd	-3.273202e-05
223	0xbe3a0963	-0.18167643
224	0x35c753fc	1.4851098e-06
225	0xb8144ef3	-3.5359477e-05
226	0x383553bb	4.3231743e-05
227	0xb75ee815	-1.3286267e-05
228	0xb81de55c	-3.7645324e-05
229	0xb7625c11	-1.3492086e-05
230	0xb82f76fd	-4.1834068e-05
231	0xb73a2760	-1.1095632e-05
232	0xbe6bac1f	-0.23014878
233	0x38028960	3.1122356e-05
234	0xb8d0e8dc	-9.961586e-05
235	0xbe87606f	-0.2644076
236	0x38131d9f	3.5075118e-05
237	0x3785e2fe	1.5960537e-05
238	0x374a284c	1.2049521e-05
239	0xbe63d0d2	-0.22247627
240	0xb7ac3078	-2.0526568e-05
241	0xb629f04a	-2.532283e-06
242	0xbe693b08	-0.22776425
243	0xbe13eb2b	-0.14445178
244	0x379662bf	1.7927376e-05
245	0xbe11dc0c	-0.14244097
246	0x3423a96e	1.5242196e-07
247	0xbe5356f4	-0.20638639
248	0xb774487c	-1.456041e-05
249	0xb88d3dc4	-6.734909e-05
250	0x36459586	2.9442322e-06
251	0xb7f60c67	-2.933126e-05
252	0xb77d5597	-1.5099903e-05
253	0xbe898c77	-0.2686498
254	0x360e83c1	2.123634e-06
255	0x37d9c1cd	2.5958661e-05

raw_layers.9.bias f4 [37]
0	0x381f1a6d	3.7933165e-05
1	0xb88f382d	-6.829235e-05
2	0x37adcad2	2.0717653e-05
3	0x36fded10	7.5675853e-06
4	0x3ace5fa8	0.001574506
5	0x3896408f	7.164582e-05
6	0xb866e8e7	-5.505318e-05
7	0x39282a6f	0.00016037536
8	0xb85ed989	-5.313152e-05
9	0x3e62461f	0.22097062
10	0x3e94202a	0.2893079
11	0x38b55d28	8.648104e-05
12	0x360fce73	2.142883e-06
13	0xba4ff8a7	-0.00079334754
14	0xbd6c0474	-0.057621434
15	0x3d115468	0.035480887
16	0xb8b1fc29	-8.486986e-05
17	0x3a544e6c	0.0008098844
18	0x3e1be601	0.15224458
19	0xb6da5981	-6.507326e-06
20	0xbe1d8114	-0.1538127
21	0x3811e931	3.478787e-05
22	0x3a9add7c	0.0011815275
23	0x386ec8c0	5.6930585e-05
24	0xbe874fb5	-0.26428
25	0x3abb71c9	0.0014300878
26	0x392649dc	0.00015858508
27	0x3a930896	0.0011217769
28	0xbd2cb284	-0.042162433
29	0x3e1bf086	0.15228471
30	0xbdd8e1f7	-0.105899744
31	0xb9168c3a	-0.00014357353
32	0x39179685	0.00014456555
33	0x3ac89bbf	0.0015305205
34	0x3ac4af8c	0.001500593
35	0xb7b077e7	-2.1036669e-05
36	0xb8f720fc	-0.000117840216

raw_model.0.weight f4 [32, 49]
0	0xbaa47082	-0.0012545737
1	0xbaa690b4	-0.001270792
2	0xbaf6fa72	-0.0018842949
3	0xbad98b5b	-0.0016597317
4	0xb728634a	-1.0036698e-05
5	0x378b6e39	1.6621418e-05
6	0xb934ff87	-0.00017261329
7	0xb952433e	-0.0002005221
8	0xbada4105	-0.0016651457
9	0xb9f024b8	-0.00045803725
10	0xb700c9af	-7.676353e-06
11	0xbb03fbbe	-0.0020139064
12	0x3a96a6f0	0.0011493843
13	0xbad6c2e8	-0.0016384991
14	0xbb253d29	-0.0025213456
15	0xbb23a72b	-0.0024971466
16	0xbb23dca2	-0.0025003334
17	0xba43bf8e	-0.00074672035
18	0xb92a22e9	-0.00016225468
19	0x394bf379	0.00019450289
20	0x3836b89b	4.356411e-05
21	0xb8038891	-3.136002e-05
22	0xbadc6cc6	-0.0016817085
23	0xb8aa0669	-8.107426e-05
24	0x397aa788	0.00023904268
25	0xbafc3de2	-0.0019244517
26	0x3ac6dba3	0.0015171658
27	0xbb12377b	-0.00223109
28	0xba9d34ca	-0.0011993882
29	0xba9c6314	-0.0011931383
30	0xbaa397cf	-0.0012481156
31	0xbd9e195e	-0.07719682
32	0xb907c1f2	-0.00012946854
33	0x39ccfc7f	0.00039098036
34	0x3a5ab6ba	0.00083432684
35	0x3a2ca653	0.00065860635
36	0xbac21710	-0.0014807899
37	0xb982986a	-0.0002490909
38	0x3b37ef67	0.002806628
39	0xb9c065f9	-0.0003669707
40	0x3b52f8e7	0.0032191814
41	0xba6f5f16	-0.00091312954
42	0x389aedc2	7.387578e-05
43	0xb992be79	-0.00027989203
44	0xb855de6e	-5.099031e-05
45	0x39f0d304	0.00045933586
46	0xb83ba9c5	-4.4742384e-05
47	0x3ab33090	0.0013671089
48	0x3eb19b17	0.34688637
49	0xb85a641d	-5.2068488e-05
50	0xb7736675	-1.4507784e-05
51	0xb8843bd3	-6.3053936e-05
52	0x37b5df6a	2.1680917e-05
53	0xb80aad8a	-3.3063385e-05
54	0xb72c7763	-1.0279796e-05
55	0xb6cbd152	-6.0742395e-06
56	0xb7b677b6	-2.1751835e-05
57	0x3696fd26	4.4998187e-06
58	0x37127bf2	8.731136e-06
59	0xb68abb49	-4.1345234e-06
60	0x36b838e6	5.490251e-06
61	0x37806fb3	1.5310803e-05
62	0x37d5c924	2.5485242e-05
63	0x36dfd08c	6.670196e-06
64	0x37160382	8.941513e-06
65	0x389e7b66	7.557012e-05
66	0x37c0adc9	2.2969109e-05
67	0x388023f8	6.110215e-05
68	0xb8148ece	-3.5418947e-05
69	0x385809d7	5.1507577e-05
70	0x3744abac	1.1722481e-05
71	0x3827504f	3.9890696e-05
72	0xb7ab54b9	-2.042424e-05
73	0xb81f9c42	-3.805408e-05
74	0xb7bffe63	-2.2887432e-05
75	0xb771528b	-1.4383938e-05
76	0x3892bd7c	6.997117e-05
77	0x37e01cab	2.671623e-05
78	0x38129c7e	3.4954857e-05
79	0x37dadd37	2.6090636e-05
80	0xb7560d18	-1.2758443e-05
81	0xb7d6b4b6	-2.5594938e-05
82	0xb795b2c9	-1.7845437e-05
83	0x36a8d9de	5.0321532e-06
84	0x37a46608	1.9597835e-05
85	0xb747ef6f	-1.1917072e-05
86	0x36f82841	7.395662e-06
87	0x38ace5f4	8.244431e-05
88	0x37a2147e	1.9321447e-05
89	0xb77b5d73	-1.4982524e-05
90	0xb87504b7	-5.8416943e-05
91	0xb575a5f6	-9.151112e-07
92	0x37f8b92c	2.9650131e-05
93	0x36cc1995	6.082652e-06
94	0xb84fe4dd	-4.956579e-05
95	0xb7fc603b	-3.0085552e-05
96	0x386cc645	5.6451438e-05
97	0xb81a66cc	-3.68122e-05
98	0xb9eb8c44	-0.000449272
99	0xba05d568	-0.00051053474
100	0xba1158a6	-0.00055445207
101	0x37c97bcf	2.401872e-05
102	0xb8931502	-7.013419e-05
103	0x3776e146	1.4715193e-05
104	0x38c16b32	9.222924e-05
105	0x385d7b14	5.280513e-05
106	0xbaca5b3d	-0.0015438568
107	0x38fe91bc	0.00012138809
108	0x396c5f58	0.00022542232
109	0xb92ec30f	-0.00016666598
110	0x39db036b	0.00041773482
111	0x37884497	1.6244403e-05
112	0xbb23a36c	-0.0024969233
113	0xbb1e4aa2	-0.0024153371
114	0xbb2875f2	-0.0025705067
115	0x36b5b655	5.4154466e-06
116	0x390c5522	0.00013383155
117	0xb9920857	-0.00027853504
118	0x39b81fa6	0.00035118795
119	0x39b449e1	0.0003438732
120	0xbb07630b	-0.00206584
121	0x392af58e	0.0001630394
122	0x39db9676	0.00041883037
123	0x39ef0ac9	0.00045593668
124	0x3a47e282	0.0007625
125	0xbaf0fee1	-0.0018386507
126	0xb8fd3077	-0.000120730074
127	0xb88ea8f5	-6.802558e-05
128	0xb858da74	-5.1701863e-05
129	0xbae7325a	-0.0017638907
130	0xba4b09c6	-0.0007745292
131	0x39d62161	0.0004084213
132	0x3ab78002	0.0013999941
133	0x3a97e1fc	0.0011587734
134	0xba916752	-0.0011093414
135	0x39a97a58	0.00032325345
136	0x3afa85d7	0.0019113374
137	0xbb09e768	-0.002104247
138	0x3a8ca5f0	0.0010730606
139	0xb916dd25	-0.00014387498
140	0xbac3d88d	-0.0014941856
141	0xb83ed424	-4.54971e-05
142	0x38c04e8d	9.169905e-05
143	0xb72063d8	-9.55999e-06
144	0xb8c38b1e	-9.324237e-05
145	0x39f46760	0.00046616327
146	0x3e8a1ed4	0.26976645
147	0xb74f1801	-1.234375e-05
148	0x37c8344e	2.3866214e-05
149	0x37d67ad0	2.5567977e-05
150	0x370583a4	7.958068e-06
151	0xb876761f	-5.876098e-05
152	0xb82d7ed3	-4.136453e-05
153	0x375fb3ec	1.3333727e-05
154	0x381f4fdd	3.7982933e-05
155	0xb693b7b1	-4.402326e-06
156	0xb7407689	-1.147169e-05
157	0xb71dc2c8	-9.40328e-06
158	0x358be688	1.04234e-06
159	0x37c93dbd	2.3989816e-05
160	0x36990775	4.5606234e-06
161	0x37f63b79	2.935318e-05
162	0xb74da569	-1.2257465e-05
163	0xb81d95b3	-3.7571135e-05
164	0x3806b6ee	3.2118456e-05
165	0x3615c26d	2.23159e-06
166	0xb79be0a1	-1.858204e-05
167	0xb74f1913	-1.23439995e-05
168	0xb803c2f8	-3.1414413e-05
169	0xb540f779	-7.1885694e-07
170	0xb7eba501	-2.8091019e-05
171	0x37a171e5	1.9245732e-05
172	0xb70d0fe5	-8.407956e-06
173	0xb7a31f53	-1.94457e-05
174	0x37c485f1	2.3427392e-05
175	0xb686a757	-4.012992e-06
176	0x3822d65a	3.882344e-05
177	0x345e8dd4	2.0726958e-07
178	0x378c02d4	1.6690617e-05
179	0x36d1d119	6.2530275e-06
180	0xb7e2d650	-2.7041096e-05
181	0x367e875c	3.792774e-06
182	0xb7fa37fd	-2.9828394e-05
183	0xb7ad2c89	-2.0643945e-05
184	0xb7898129	-1.6391818e-05
185	0x380835d2	3.247505e-05
186	0xb83a2118	-4.4376677e-05
187	0xb7f73913	-2.9471272e-05
188	0xb7a599ae	-1.9741095e-05
189	0x37487a61	1.19494225e-05
190	0x37b24d2b	2.1255188e-05
191	0x36a134b8	4.804311e-06
192	0x380477ef	3.158295e-05
193	0x369c25df	4.653571e-06
194	0x36ed3c2a	7.0701544e-06
195	0xb7c51a39	-2.3496441e-05
196	0x39d84503	0.00041250148
197	0x39e4f731	0.0004367172
198	0x3a0cdf0f	0.00053738145
199	0x394079d4	0.00018355931
200	0xb8035e31	-3.1320556e-05
201	0x38987973	7.2705465e-05
202	0xb9784706	-0.00023677581
203	0xb9644dcb	-0.00021772755
204	0x39d941d5	0.00041438514
205	0xb9671f08	-0.00022041437
206	0xb942a004	-0.00018560892
207	0x399621a0	0.00028635282
208	0x3a4a5198	0.0007717847
209	0x38be784d	9.082314e-05
210	0x384e11f9	4.9130966e-05
211	0x389fb106	7.614684e-05
212	0xb601fa27	-1.9368106e-06
213	0xba4ad92d	-0.000773805
214	0x39ae3fda	0.0003323544
215	0xb9ce733b	-0.00039377235
216	0x38d1073a	9.967243e-05
217	0x38efcc5d	0.00011434474
218	0x39d32244	0.00040270586
219	0x3903921e	0.00012547566
220	0xb7f75096	-2.948222e-05
221	0x38f871ce	0.00011846759
222	0x3a98eab4	0.0011666627
223	0x38e9a0cb	0.00011140256
224	0xb9880654	-0.00025944656
225	0xb9cd2c50	-0.00039133662
226	0xb9b62b79	-0.00034746135
227	0xbac770d1	-0.0015216117
228	0xbad91fcb	-0.0016565261
229	0x38b5ef0a	8.675277e-05
230	0x39f49dfd	0.00046657017
231	0x39d42397	0.00040462308
232	0xb9438549	-0.00018646302
233	0xb998b915	-0.00029129596
234	0x3a9c6ecb	0.0011934874
235	0x3923db4a	0.00015626583
236	0x3ab61f38	0.0013894802
237	0xb9cfc3a9	-0.00039627895
238	0xb9f20748	-0.00046163262
239	0x38e8ca62	0.00011100319
240	0xb7d37e78	-2.5212052e-05
241	0xb9abf98d	-0.0003280159
242	0xb8a4af94	-7.8528334e-05
243	0x391f9e59	0.00015222411
244	0x3d1f4ef0	0.03889364
245	0x386199c9	5.3787404e-05
246	0xb820784a	-3.8259e-05
247	0x3816aa38	3.5921315e-05
248	0xb82fddf7	-4.1929972e-05
249	0x38874827	6.450741e-05
250	0x389308dc	7.0111564e-05
251	0xb8a5b57f	-7.9016194e-05
252	0x3c74948e	0.014927996
253	0x385fe41d	5.337979e-05
254	0x3a0881bb	0.00052073196
255	0x38c69001	9.4681986e-05

raw_model.0.bias f4 [32]
0	0x3f32fd05	0.6991733
1	0x36f1407f	7.189868e-06
2	0x3f13aab5	0.57682353
3	0x34608ff4	2.0913996e-07
4	0x3f2b7547	0.66975826
5	0x3e8c6c5b	0.2742642
6	0x3f374be3	0.7160017
7	0x3f2b0a3e	0.66812503
8	0x3f3b161c	0.7308061
9	0x3f3034e1	0.68830687
10	0xb895a304	-7.135238e-05
11	0x3f303b9e	0.6884097
12	0x3f40ab24	0.7526114
13	0x3ee89f7d	0.4543418
14	0x3f2b0676	0.66806734
15	0x3f33165d	0.69956
16	0x381fe367	3.812034e-05
17	0x3f3026c0	0.6880913
18	0x3f2ea6c7	0.6822323
19	0x3eb6f15c	0.35731018
20	0x3f02a704	0.51036096
21	0x381537f9	3.5576497e-05
22	0x383e1928	4.532296e-05
23	0x3f3783eb	0.71685666
24	0x3ee2d9f5	0.44306913
25	0x3f1f3a0e	0.6219796
26	0x3f232619	0.6373001
27	0xb5aea339	-1.3011514e-06
28	0x37cf6952	2.4725367e-05
29	0x3f304a9a	0.6886383
30	0x3f20d008	0.6281743
31	0xb8024f76	-3.106842e-05

raw_model.3.weight f4 [32, 32]
0	0x38960f46	7.155402e-05
1	0xb6729ee9	-3.6153308e-06
2	0x3894076b	7.058572e-05
3	0xb85467b7	-5.064133e-05
4	0xb7823157	-1.5520183e-05
5	0xb70bf74c	-8.342624e-06
6	0x3824bc7d	3.927619e-05
7	0xb6c935ef	-5.9965455e-06
8	0xb836c90c	-4.357942e-05
9	0xb7409d85	-1.1480767e-05
10	0x38183af1	3.6294517e-05
11	0x38115da0	3.465789e-05
12	0x36853ebf	3.9710135e-06
13	0x36960bab	4.4717067e-06
14	0x37bf505d	2.2806396e-05
15	0x37fe1ba5	3.0292033e-05
16	0x373cba9f	1.1249124e-05
17	0xb78e76c2	-1.698302e-05
18	0xb797413f	-1.8030985e-05
19	0x380c3ae7	3.3433458e-05
20	0x37bbf655	2.2406844e-05
21	0x3795622f	1.7807904e-05
22	0x36d97a7b	6.4813626e-06
23	0xb6ce8a24	-6.15536e-06
24	0x35870f0e	1.0062665e-06
25	0xb7d4cc54	-2.5367517e-05
26	0xb848837a	-4.7806163e-05
27	0xb70ffad2	-8.581863e-06
28	0x376fd87e	1.4295916e-05
29	0x38438d66	4.662331e-05
30	0xb7cf9c1e	-2.474902e-05
31	0xb8188741	-3.636559e-05
32	0x3df3064e	0.11866437
33	0xb7e9e062	-2.788025e-05
34	0x3ddd18bd	0.10795734
35	0xb8714934	-5.7527053e-05
36	0x3d1d4a59	0.03840098
37	0x3dadbe19	0.08483524
38	0x3e3872d0	0.18012547
39	0x3d426f48	0.047469407
40	0x3e7524aa	0.23939767
41	0x3e1fdd55	0.15611775
42	0xb78254cb	-1.5536692e-05
43	0x3e00a0fb	0.12561409
44	0x3e847cbe	0.2587642
45	0x3cb26dd8	0.021780893
46	0x3e17b905	0.14816673
47	0x3da9ba80	0.08287525
48	0x371bc516	9.284608e-06
49	0x3dc411fe	0.09573744
50	0x3e3f8130	0.18701625
51	0x3c2af85d	0.010435191
52	0x3d199818	0.037498564
53	0xb7627fbb	-1.3500389e-05
54	0xb80c1ed5	-3.3407316e-05
55	0x3da2edcd	0.07955513
56	0x3dcd3986	0.10020737
57	0x3d1e2675	0.038610894
58	0x3d6bcd8a	0.057569064
59	0x3673e6de	3.6344204e-06
60	0xb82633d9	-3.962577e-05
61	0x3de1d173	0.110262774
62	0x3e0ab865	0.13546903
63	0xb82580dd	-3.945908e-05
64	0x38201657	3.816778e-05
65	0xb7ffa458	-3.0474897e-05
66	0xb7b2a404	-2.129563e-05
67	0xb70dd914	-8.454797e-06
68	0xb72f4087	-1.0445837e-05
69	0x378ff76e	1.7162147e-05
70	0xb8325eeb	-4.2526906e-05
71	0xb88d3e59	-6.735017e-05
72	0xb8424aed	-4.6322984e-05
73	0x3774dc88	1.459488e-05
74	0xb6be5bad	-5.6731137e-06
75	0x37f5a187	2.9281493e-05
76	0x38fd7651	0.00012086018
77	0xb713e4c2	-8.815145e-06
78	0xb760102f	-1.33552085e-05
79	0x3787da5a	1.6194932e-05
80	0x38445487	4.6808764e-05
81	0x35029fab	4.866112e-07
82	0x389ce63d	7.481545e-05
83	0x37b2af22	2.1300806e-05
84	0xb81b3cef	-3.701163e-05
85	0x380c2eeb	3.3422297e-05
86	0xb81bb66d	-3.7124777e-05
87	0xb880c1c9	-6.139611e-05
88	0xb79a1a6c	-1.8370534e-05
89	0x37cc39fe	2.43457e-05
90	0xb7c039ff	-2.291519e-05
91	0x378578bc	1.5911057e-05
92	0x36e87220	6.9274247e-06
93	0x3889ed37	6.576854e-05
94	0x38ae32d4	8.306434e-05
95	0xb7d467cd	-2.5320705e-05
96	0x388931f5	6.541974e-05
97	0x375fe616	1.3345407e-05
98	0xb88237a1	-6.209245e-05
99	0xb5b27ec4	-1.3298927e-06
100	0x3797c9df	1.8094606e-05
101	0x380f1902	3.4117147e-05
102	0x37d795e6	2.56998e-05
103	0x3810abf6	3.4492426e-05
104	0x3837d5f6	4.3829867e-05
105	0x37a03a58	1.9100655e-05
106	0xb6f76898	-7.37335e-06
107	0xb8048096	-3.1591007e-05
108	0xb7f55b75	-2.9248864e-05
109	0xb67be9d9	-3.7538032e-06
110	0x38930b5e	7.0116235e-05
111	0xb736dd8c	-1.0899628e-05
112	0xb7c270cb	-2.3179125e-05
113	0x37c2e750	2.3234315e-05
114	0x3812b27d	3.4975343e-05
115	0xb77fffd0	-1.5258745e-05
116	0xb87b968b	-5.9983267e-05
117	0xb7388bd4	-1.0999811e-05
118	0x3859b337	5.190374e-05
119	0x387c12f0	6.009912e-05
120	0x37334b02	1.06866955e-05
121	0x37daae92	2.6068916e-05
122	0x3701e3c9	7.7420345e-06
123	0xb71a090d	-9.181223e-06
124	0x3790114b	1.717419e-05
125	0xb893a744	-7.040662e-05
126	0x3876d937	5.8853268e-05
127	0x3681abe8	3.864512e-06
128	0x3e086abf	0.1332197
129	0x38750917	5.8421017e-05
130	0x3d11fd22	0.035641797
131	0x35b70845	1.3636969e-06
132	0x3e1d652e	0.15370628
133	0x3db5abaf	0.08870637
134	0x3e48f4d2	0.19624642
135	0x3e03a346	0.12855253
136	0x3e01de74	0.12682515
137	0x3dc869d3	0.09785809
138	0x37d0b8e9	2.4881638e-05
139	0x3ddc9fd5	0.10772673
140	0x3e290666	0.16506347
141	0x3d6153df	0.055011626
142	0x3e135266	0.14386901
143	0x3d39824d	0.04529028
144	0x36fed32a	7.5943726e-06
145	0x3db85f0b	0.09002503
146	0x3e7be209	0.24597944
147	0x396ae83a	0.0002240249
148	0x3d8f376b	0.06992992
149	0x36852d7b	3.9690035e-06
150	0x3777b83b	1.4765242e-05
151	0x3d74ed54	0.059796646
152	0x3e044692	0.12917545
153	0x3d9e2aea	0.07723029
154	0x3e81829f	0.25294968
155	0xb79e9e52	-1.8908791e-05
156	0x37d618d9	2.5522359e-05
157	0x3dba1388	0.090857565
158	0x3e58017f	0.2109432
159	0xb7b05966	-2.1022464e-05
160	0x3e101e79	0.14074124
161	0x38855253	6.357268e-05
162	0x3dc5f97b	0.09666725
163	0xb840d2f9	-4.597285e-05
164	0x3dad13e2	0.08451058
165	0x391f6549	0.00015201153
166	0x3e1bd351	0.1521733
167	0x3d88e4b8	0.0668425
168	0x3e36ca46	0.17850599
169	0x3e143689	0.14473929
170	0xb8cc956a	-9.7553086e-05
171	0x3e4a028f	0.19727539
172	0x3e82dab1	0.25557473
173	0x3d5e4548	0.05426529
174	0x3d5e8db7	0.05433437
175	0x3dde1f10	0.108457685
176	0xb77e1b69	-1.5145962e-05
177	0x3e2bcd5b	0.16777556
178	0x3e58b4b2	0.2116268
179	0x3d0e1ce4	0.03469552
180	0x3cedfd56	0.029051464
181	0xb720f997	-9.594855e-06
182	0x37320ee7	1.06130965e-05
183	0x3e0eff29	0.13964523
184	0x3d972103	0.07379343
185	0x3e4b8060	0.1987319
186	0x3e7bb35d	0.2458014
187	0xb712a351	-8.740303e-06
188	0x382f0e40	4.1736523e-05
189	0x3dd1743f	0.1022725
190	0x3e5f8334	0.21827394
191	0xb834c739	-4.3100885e-05
192	0x3e4e11ca	0.20123973
193	0x386a64ef	5.588395e-05
194	0x3e027aee	0.12742206
195	0xb800f07c	-3.0741547e-05
196	0x3df758e9	0.12077505
197	0x3abece14	0.0014557266
198	0x3e525914	0.20541793
199	0x3e338603	0.1753159
200	0x3e3edace	0.18638155
201	0x3d3580d6	0.04431232
202	0xb75aab8d	-1.3033755e-05
203	0x3e3d401d	0.18481489
204	0x3df3a266	0.118962094
205	0x3dd2b672	0.10288705
206	0x3e8015ce	0.25016636
207	0x3cda8736	0.026675802
208	0x37f3a0cf	2.904274e-05
209	0x3da80e7b	0.08205887
210	0x3d85a5a2	0.065257326
211	0x3a884dac	0.0010399125
212	0x3e0d50bf	0.13800333
213	0x3897e72c	7.2433e-05
214	0x363b6b4f	2.7927633e-06
215	0x3e1a3499	0.15059127
216	0x3aa8acef	0.0012868921
217	0x3e4d363b	0.20040219
218	0x3e65d804	0.22445685
219	0x35248dff	6.130139e-07
220	0x367dc931	3.7817047e-06
221	0x3e4e3998	0.20139158
222	0x3d7b36a8	0.06133142
223	0x37f38345	2.9028984e-05
224	0xb84300cb	-4.649236e-05
225	0x37f39668	2.9037896e-05
226	0xb87acff1	-5.9798305e-05
227	0x388184ed	6.175959e-05
228	0xb78ddccf	-1.6911332e-05
229	0x378fecf2	1.7157265e-05
230	0xb804a9d7	-3.1629428e-05
231	0xb6f0e893	-7.1796326e-06
232	0x368bba63	4.164221e-06
233	0xb8117a1f	-3.4684428e-05
234	0xb572ae6e	-9.0405854e-07
235	0xb7e91282	-2.7784383e-05
236	0x375f5527	1.3311662e-05
237	0xb787ace5	-1.6173764e-05
238	0x3815f951	3.5756562e-05
239	0xb6cb7f06	-6.064659e-06
240	0xb8589f74	-5.1646915e-05
241	0x376956d6	1.39081e-05
242	0x37bffe26	2.2887321e-05
243	0x372db80c	1.0354455e-05
244	0xb88335f4	-6.256616e-05
245	0xb7e1628d	-2.6867981e-05
246	0xb780be0e	-1.534729e-05
247	0x380093c4	3.0655196e-05
248	0xb681f441	-3.8729345e-06
249	0x374c882b	1.2191052e-05
250	0x381e34a2	3.7719154e-05
251	0xb7e8f132	-2.776887e-05
252	0x37b0c198	2.1070984e-05
253	0x36bcc50b	5.6257754e-06
254	0x37163b4d	8.954504e-06
255	0x372f583a	1.0451355e-05

raw_model.3.bias f4 [32]
0	0x3815a4ea	3.5677956e-05
1	0x3f041d94	0.5160763
2	0xb8746c9a	-5.8275276e-05
3	0xb778c0ea	-1.4826868e-05
4	0x3f343a62	0.70401585
5	0x3f1e6d09	0.61885124
6	0x3f2755d5	0.65365344
7	0x36661537	3.428502e-06
8	0x3f1540fc	0.58302283
9	0xb722cca3	-9.703598e-06
10	0xb7b8a7dc	-2.2012675e-05
11	0x3f1e8f69	0.61937577
12	0xb8660696	-5.4842407e-05
13	0x3818951f	3.6378504e-05
14	0x37a1c33d	1.928361e-05
15	0x3eee2d37	0.4651887
16	0x3f37248a	0.7154013
17	0x3f1e8d1a	0.61934054
18	0x3f221191	0.63308054
19	0x3f31e95b	0.694967
20	0x3f30d04a	0.69067824
21	0x3898502d	7.262859e-05
22	0x3f0e8612	0.55673325
23	0x3f35ad58	0.70967627
24	0x380a4df5	3.2974367e-05
25	0x37c7c965	2.381643e-05
26	0x3f11acac	0.569041
27	0x3e78822c	0.24268407
28	0xb8836ba8	-6.266619e-05
29	0xb8845d52	-6.311633e-05
30	0x3639f75b	2.7711128e-06
31	0x3f2bdf2b	0.671374
