lstm_model.pth (torch, 116450 bytes, 27 tensors)

normalize_lstm.weight_ih_l0 f4 [64, 49]
000000 22 2a 04 37 5b c6 f1 38 7c 6b 92 38 8b 78 4d b8
       7.877623e-06 0.00011528722 6.981843e-05 -4.8988073e-05
000010 d6 a9 45 38 c9 21 95 b7 cf d4 49 38 5b ac b3 38
       4.7126632e-05 -1.7777917e-05 4.8120328e-05 8.567489e-05
000020 ce 53 92 b8 23 ca 31 38 e1 49 8f 38 2c e8 2a 39
       -6.977432e-05 4.2388343e-05 6.8325324e-05 0.00016298954
000030 6c 4f 26 b8 e5 3e f4 37 5c 8c 05 38 2d fc 85 b7
       -3.965145e-05 2.9116354e-05 3.184039e-05 -1.5972264e-05
000040 69 f8 29 38 55 3b 91 38 cb 01 21 38 17 92 2a 37
       4.052409e-05 6.92519e-05 3.838706e-05 1.0166804e-05
000050 07 0f 04 38 62 c6 20 38 fc 90 03 b8 0d 22 c7 37
       3.1485248e-05 3.833173e-05 -3.136786e-05 2.3738505e-05
000060 fc 27 aa b8 1e 12 4b b8 16 61 3d 38 c7 ff 4b b8
       -8.113679e-05 -4.8415845e-05 4.515153e-05 -4.8637183e-05
000070 43 4a fc 38 fd 92 4f 39 45 e3 49 38 77 f1 db 38
       0.00012030129 0.00019795816 4.8133796e-05 0.0001048771
000080 c5 56 8a b8 08 86 78 36 60 f2 98 b8 18 d6 82 b8
       -6.596515e-05 3.7032896e-06 -7.293071e-05 -6.238761e-05
000090 d1 43 03 b8 f2 d7 11 b8 9e 96 8e 38 44 00 02 b9
       -3.1295993e-05 -3.477181e-05 6.799142e-05 -0.00012397865
0000a0 a5 a8 22 39 bf e0 71 38 46 56 4b 38 c2 36 56 37
       0.00015512349 5.766819e-05 4.847932e-05 1.2768143e-05
0000b0 da 00 2d 38 3c a0 a1 37 4a 7c 10 b8 ac c7 02 b7
       4.1247207e-05 1.926731e-05 -3.444803e-05 -7.795094e-06
0000c0 a2 81 2d b8 9d 40 fa b6 26 68 12 b8 4d a9 42 b8
       -4.1367144e-05 -7.4581026e-06 -3.490611e-05 -4.6410878e-05
0000d0 48 40 74 b8 eb 91 ac b8 ce a2 8e 38 ad 8f f1 38
       -5.8234e-05 -8.2287785e-05 6.8014124e-05 0.00011518537
0000e0 52 e8 01 38 68 9f 8e b8 c2 58 c1 38 53 1f 6b 38
       3.0972362e-05 -6.8007794e-05 9.2194896e-05 5.605754e-05
0000f0 e4 69 12 b8 aa 1e 27 38 fa 02 4b 38 df 2a bf b8
       -3.490773e-05 3.984446e-05 4.8401744e-05 -9.115575e-05
000100 be 54 ad 38 91 99 5c 38 86 89 9f b8 e5 a4 0b 39
       8.265067e-05 5.2595107e-05 -7.6073266e-05 0.00013317501
000110 8e 67 c5 b7 62 af 05 b9 34 36 a9 b8 79 0c 4b 38
       -2.3532451e-05 -0.00012749204 -8.068644e-05 4.8410588e-05
000120 21 0c ad b8 cd 7d 32 b8 c2 fa bd 38 83 f7 05 b8
       -8.251542e-05 -4.255567e-05 9.0589296e-05 -3.1940184e-05
000130 f3 49 05 b8 3d 52 8b 39 69 c1 0a 37 a1 dc fe b7
       -3.177854e-05 0.00026573418 8.270473e-06 -3.0381898e-05
000140 eb 95 ea b8 0b 62 ee b8 0e f6 20 39 ec eb 4f b9
       -0.00011185914 -0.00011366986 0.00015350452 -0.00019828946
000150 bb ec 68 38 45 2d ad 38 db 36 a6 38 f1 b2 ac b8
       5.5533583e-05 8.257715e-05 7.9257145e-05 -8.2349296e-05
000160 7f 6d f9 37 f3 25 03 38 f5 3c b1 38 14 cc ad b8
       2.9734101e-05 3.1268177e-05 8.451372e-05 -8.287295e-05
000170 c2 d7 ad 38 2e 40 31 b8 d0 0b 20 39 09 4a 26 39
       8.289471e-05 -4.225986e-05 0.0001526319 0.00015858574
000180 c8 52 ad b8 fc 44 02 39 44 74 c1 36 cb 67 01 39
       -8.264702e-05 0.00012423465 5.7653833e-06 0.00012341065
000190 c2 82 a1 b8 5f d0 e0 b8 bf 08 74 b7 a6 71 ac b8
       -7.701434e-05 -0.000107199645 -1.454557e-05 -8.222768e-05
0001a0 82 aa 9d b8 7d 6b fd 36 9a 28 ab 37 04 de 9d 38
       -7.518103e-05 7.552501e-06 2.0403695e-05 7.527697e-05
0001b0 39 6a 6d b7 9e e1 a3 38 49 ad 96 38 28 c3 f2 37
       -1.4151033e-05 7.81447e-05 7.184834e-05 2.8939525e-05
0001c0 a2 eb 2f b8 4d 8d ab 38 0c cf 38 b8 59 77 bb b8
       -4.19427e-05 8.180235e-05 -4.4061846e-05 -8.939085e-05
0001d0 c2 fc 12 38 20 fe 04 38 23 4e 6f 37 4f ee 5c 38
       3.504451e-05 3.1707925e-05 1.4263703e-05 5.267403e-05
0001e0 88 d3 6d b8 88 b8 34 38 8f 96 ab b8 26 c7 a3 b8
       -5.6702207e-05 4.3087202e-05 -8.181959e-05 -7.80954e-05
0001f0 0c 78 56 b8 24 af aa b8 21 d1 0d 37 d1 66 3f b8
       -5.113338e-05 -8.138854e-05 8.4529465e-06 -4.5633704e-05
000200 49 50 ae b8 51 b6 e4 38 16 6a ab 38 ea c8 7a b7
       -8.311921e-05 0.00010905846 8.1736755e-05 -1.494794e-05
000210 78 a3 00 b7 fd bf 32 39 ee 4c 94 b8 b6 45 e4 38
       -7.667455e-06 0.00017046924 -7.071519e-05 0.00010884872
000220 cd 86 bb 38 74 12 ad b8 dc cb 3c b9 d3 53 23 b8
       8.9419635e-05 -8.25272e-05 -0.0001800502 -3.8940296e-05
000230 00 af ab 38 da 31 0d b8 a3 e1 13 b8 c3 b3 ac 38
       8.186512e-05 -3.3663448e-05 -3.525767e-05 8.235082e-05
000240 bc be a7 37 09 9c 10 39 58 d3 a3 38 05 cb 01 b9
       1.9996769e-05 0.00013791038 7.8118115e-05 -0.0001237803
000250 6a 9d 20 b8 18 68 be b8 40 ce 6c b8 d2 c1 22 39
       -3.8293576e-05 -9.079295e-05 -5.645887e-05 0.00015521728
000260 de 8a f1 b8 fa f6 22 b8 b1 f7 ab 38 61 d5 ee 37
       -0.000115176415 -3.8853825e-05 8.2000515e-05 2.8471173e-05
000270 d3 52 10 39 31 c3 ae 38 16 99 ad b8 c6 ae c0 b8
       0.00013763765 8.333324e-05 -8.277797e-05 -9.1878275e-05
000280 40 96 6c b8 75 b6 ac b8 37 bc 32 38 a1 7b e1 b8
       -5.6406716e-05 -8.2355844e-05 4.2613796e-05 -0.00010751864
000290 64 f0 05 b9 c9 9a 98 38 fb f7 85 37 c2 7c dd b8
       -0.00012773421 7.276756e-05 1.597031e-05 -0.00010561339
0002a0 d8 f8 0f 39 b0 b5 34 b8 c4 e4 b8 38 86 f8 6c 37
       0.00013730244 -4.3084554e-05 8.8164146e-05 1.412456e-05
0002b0 fd a4 49 38 71 c4 8a b7 84 93 17 b8 d2 4f 47 38
       4.807579e-05 -1.6542357e-05 -3.613859e-05 4.7519636e-05
0002c0 02 1f 0d b9 1a b5 9b 38 cf 9b 99 38 c8 5f d5 b8
       -0.00013458359 7.424709e-05 7.32463e-05 -0.00010174472
0002d0 12 11 82 37 a6 8d 35 38 ae ac 6b 38 8f be 8e 38
       1.5505157e-05 4.3285683e-05 5.6189187e-05 6.806582e-05
0002e0 7b 17 32 38 5f 9b 01 39 f2 66 32 b8 df 3b 3e b8
       4.2460375e-05 0.00012360279 -4.2534382e-05 -4.535529e-05
0002f0 04 27 3f 38 2e 02 92 b7 60 1a 06 b8 06 f5 d8 37
       4.5574285e-05 -1.7405571e-05 -3.1972653e-05 2.5863304e-05
000300 33 3c 02 38 8b e9 ab 38 0e dc ac 38 4b 22 ad 38
       3.105048e-05 8.197416e-05 8.2425875e-05 8.2556704e-05
000310 3d 63 71 37 3b 83 f6 b7 7c 5e 34 38 32 b3 31 b8
       1.4387825e-05 -2.9386594e-05 4.300334e-05 -4.2366977e-05
000320 44 38 69 b8 db b2 4f b9 4e d9 0e b8 71 f3 06 38
       -5.560393e-05 -0.00019807687 -3.405782e-05 3.2174812e-05
000330 b5 b5 fc b5 a2 69 83 36 8d 1a 01 b9 30 e7 01 b9
       -1.8828347e-06 3.9164015e-06 -0.0001231229 -0.00012388523
000340 a4 83 2c b8 dd 48 ab b8 9c 21 0f b9 68 47 47 38
       -4.1130595e-05 -8.167487e-05 -0.00013650063 4.75118e-05
000350 bb 70 a6 38 9a 39 47 38 e6 4c a2 37 35 c2 69 38
       7.9364945e-05 4.7498943e-05 1.9347714e-05 5.57324e-05
000360 e6 e9 9c 38 3f f5 b0 38 7b 45 24 b8 0d 91 ab b8
       7.482227e-05 8.4380146e-05 -3.9165356e-05 -8.180933e-05
000370 87 18 a2 b8 e9 ff 69 b8 1a 69 d2 b7 a6 3b a1 37
       -7.7293305e-05 -5.5789864e-05 -2.5082893e-05 1.9220472e-05
000380 2b ca 70 38 70 6f 33 38 6a c8 dd 38 06 57 ba 38
       5.7408743e-05 4.278071e-05 0.00010575431 8.8853805e-05
000390 d1 f1 b0 b8 a5 21 d7 38 09 12 ab b8 48 91 06 39
       -8.437376e-05 0.00010258266 -8.157275e-05 0.00012833357
0003a0 b8 0f 9f 37 42 bf 9d 38 fd 70 6d 38 46 81 06 39
       1.8961597e-05 7.521968e-05 5.661043e-05 0.00012827394
0003b0 d1 ac 12 b8 f9 60 a1 37 1f 50 42 38 c7 5e d9 b8
       -3.497006e-05 1.9237852e-05 4.6327823e-05 -0.0001036502
0003c0 7c 94 45 b8 a4 6f 13 b8 6a 17 2c b7 53 d3 a2 b8
       -4.7106747e-05 -3.5151505e-05 -1.025745e-05 -7.764124e-05
0003d0 6c 68 6b 38 8d e8 24 b9 67 df 02 b8 a4 13 6c b8
       5.6125617e-05 -0.0001572689 -3.1202475e-05 -5.6285076e-05
0003e0 b0 ec ab 38 be aa 8e 39 eb d6 4f b9 c2 da 6c 38
       8.198002e-05 0.00027211563 -0.00019821122 5.647052e-05
0003f0 8f e5 dd b6 93 4a d0 38 ba 8f b6 38 2f 0e c4 b8
       -6.6130374e-06 9.9321034e-05 8.7052074e-05 -9.34865e-05

normalize_lstm.weight_hh_l0 f4 [64, 16]
000000 cb 10 be b6 7e 04 7a 38 d4 d0 8f b8 c8 d3 20 b9
       -5.664396e-06 5.960883e-05 -6.8576686e-05 -0.00015337684
000010 d2 e0 87 b8 52 b5 20 b9 c5 c6 24 39 d7 33 a6 b8
       -6.479178e-05 -0.00015326336 0.00015714306 -7.925153e-05
000020 9e 4a 04 38 2a 0f 2c b9 54 66 d0 b8 f2 00 70 37
       3.1540745e-05 -0.00016408847 -9.937273e-05 1.4305335e-05
000030 f8 12 03 38 2e 38 6b b8 2d 04 c8 36 88 19 05 b8
       3.12505e-05 -5.6080688e-05 5.9609506e-06 -3.173345e-05
000040 af 19 81 b7 81 c9 d9 38 3a 45 fc 36 c9 fe 9a b8
       -1.5389958e-05 0.00010384899 7.5182443e-06 -7.39075e-05
000050 57 dc 22 b9 68 df 03 b8 e2 57 31 38 50 06 21 39
       -0.00015531607 -3.1440897e-05 4.2281936e-05 0.00015356508
000060 d1 b4 6f 37 ce c7 2a b8 1b a0 98 36 75 6b d8 b8
       1.428761e-05 -4.071724e-05 4.5485917e-06 -0.00010319698
000070 bc dc 5b 39 9e 09 fa b6 10 fb 4b b8 f0 50 de 38
       0.00020967697 -7.4517e-06 -4.863279e-05 0.00010600861
000080 e4 e6 20 b8 95 22 ac 38 88 26 2c b8 0c cb 32 b8
       -3.8362006e-05 8.2080405e-05 -4.104388e-05 -4.262761e-05
000090 e0 bb 96 38 5a db 5b 39 a6 e0 b0 38 23 a1 48 38
       7.187552e-05 0.00020967182 8.434178e-05 4.7833786e-05
0000a0 29 4f 1c 39 74 17 59 37 9e 17 f8 36 27 ea 20 b8
       0.00014906809 1.29396685e-05 7.3937254e-06 -3.8365044e-05
0000b0 4f b7 aa 38 9b 72 1e b9 9b 7e 0e b9 43 83 d8 b8
       8.1403756e-05 -0.00015110748 -0.0001358934 -0.00010324132
0000c0 3b 90 8a 37 f4 6a ac 38 99 26 33 38 21 7e 4a b8
       1.6518045e-05 8.221521e-05 4.2712873e-05 -4.827802e-05
0000d0 98 46 16 39 8f ae 91 b7 5f 20 10 b9 c7 d2 86 b8
       0.00014331413 -1.7366632e-05 -0.0001374497 -6.428878e-05
0000e0 1e 99 12 b8 98 20 10 b9 0b 04 5e 38 69 e9 ac 38
       -3.4951714e-05 -0.00013745052 5.293269e-05 8.245075e-05
0000f0 2b 57 f0 b7 94 ca 01 39 a3 26 7c 38 a9 66 ad 38
       -2.865082e-05 0.00012377865 6.0117465e-05 8.268405e-05
000100 10 f3 24 b9 54 90 74 38 78 ae ba b8 37 06 96 38
       -0.00015730807 5.830855e-05 -8.9016685e-05 7.153715e-05
000110 3a 00 6e b8 8b 96 02 39 a6 79 01 38 4d 54 b1 38
       -5.6743833e-05 0.00012453848 3.086929e-05 8.45572e-05
000120 09 60 0f 38 00 32 01 39 70 e7 2d 39 58 22 06 b9
       3.4183297e-05 0.00012321025 0.00016584783 -0.0001279203
000130 65 49 2d b7 b1 d7 ee 37 7c f4 05 39 43 1d ad b8
       -1.0328692e-05 2.847225e-05 0.00012774946 -8.254733e-05
000140 c2 03 06 39 85 66 97 b8 6f 75 32 38 56 f9 92 b8
       0.00012780636 -7.219337e-05 4.2547876e-05 -7.008265e-05
000150 c8 49 b1 38 05 78 2f 38 4c 47 2b b8 c1 74 2d b8
       8.4537605e-05 4.183503e-05 -4.0835977e-05 -4.135515e-05
000160 a3 ab 8e 39 bb ca 1c 38 e2 a3 30 b8 94 b1 49 38
       0.0002721223 3.7382106e-05 -4.2114298e-05 4.8087517e-05
000170 c3 dc 91 b8 bc 99 0e b9 c0 8e 1d b9 0e 5d 60 b7
       -6.955259e-05 -0.00013599446 -0.00015025865 -1.3373106e-05
000180 5a 1e 11 b8 57 94 72 b8 7a 8d 6c 38 31 a1 9b 38
       -3.459896e-05 -5.783545e-05 5.6398545e-05 7.421e-05
000190 b1 fc 11 38 ae 81 21 b8 ef d9 e4 b8 58 03 10 b9
       3.480603e-05 -3.8506165e-05 -0.000109124805 -0.00013734156
0001a0 61 e8 33 38 04 e1 49 38 18 7d 66 b7 4f 0b e9 b8
       4.2893345e-05 4.8131697e-05 -1.3738194e-05 -0.00011112412
0001b0 35 4a 11 38 0f 43 91 36 1e 61 01 b9 a1 53 6c b8
       3.4639805e-05 4.3291434e-06 -0.00012338578 -5.634467e-05
0001c0 5b 22 01 b9 b8 33 8b b7 13 1a 49 38 48 02 72 38
       -0.00012315197 -1.6594175e-05 4.7946418e-05 5.769942e-05
0001d0 ea 6a b6 36 79 29 d2 38 40 85 45 38 d8 d1 20 b9
       5.436469e-06 0.00010021305 4.709256e-05 -0.00015336962
0001e0 24 f0 8a 37 6c 88 96 b8 1f 06 32 38 27 c1 32 b8
       1.6562706e-05 -7.177968e-05 4.2444208e-05 -4.2618394e-05
0001f0 21 eb dc 38 6b da 11 b8 e2 d6 a4 b8 68 26 f4 37
       0.00010534214 -3.477411e-05 -7.8601544e-05 2.9104951e-05
000200 91 7c d8 38 ed 91 aa 38 75 ce 33 37 58 d8 2d 36
       0.00010322885 8.1334125e-05 1.0717301e-05 2.5904938e-06
000210 13 61 29 b8 0a b8 dc b8 73 e0 bc 38 ef 59 11 38
       -4.0383147e-05 -0.000105246974 9.0063455e-05 3.465445e-05
000220 fe 53 10 b8 e6 e0 03 b8 cd 4a 49 b8 0a d0 05 39
       -3.44105e-05 -3.1442287e-05 -4.7991798e-05 0.00012761369
000230 dc 12 31 38 49 f9 0a 39 76 5a 0f b8 5f e4 1a b8
       4.2217653e-05 0.00013253572 -3.4178105e-05 -3.692915e-05
000240 0b f3 11 38 07 62 b4 b8 e8 52 6c 38 c6 44 33 36
       3.4797045e-05 -8.601328e-05 5.6343997e-05 2.671311e-06
000250 43 92 20 39 40 b2 03 b8 63 ab 0a 38 2d 7d d8 b8
       0.00015313276 -3.1398842e-05 3.306138e-05 -0.000103229984
000260 9c 8a 88 b8 c6 44 1f 39 6c ac ad 38 3d 7c 32 38
       -6.510803e-05 0.00015189042 8.281399e-05 4.2554213e-05
000270 fe 01 43 38 d0 db 10 39 c0 99 e4 34 b0 58 c9 b7
       4.649348e-05 0.00013814797 4.2580177e-07 -2.4002366e-05
000280 34 50 b1 b8 ab 41 71 b6 b8 61 15 b9 7c e3 2a b9
       -8.454957e-05 -3.5950022e-06 -0.0001424615 -0.00016297208
000290 91 45 33 b8 17 5e 11 39 4d ab 4b 38 ff e4 a0 38
       -4.2741714e-05 0.00013863329 4.8558508e-05 7.6720484e-05
0002a0 f4 f6 12 38 73 a6 c9 38 c5 98 0a b5 e9 01 ad 38
       3.5039106e-05 9.6154305e-05 -5.1631315e-07 8.2496386e-05
0002b0 35 43 ad b8 fe ae 30 b8 36 d1 03 b8 c0 c3 ad b8
       -8.261801e-05 -4.2124644e-05 -3.1427677e-05 -8.285744e-05
0002c0 99 b4 4f b8 cb 2f d3 b7 97 f3 89 37 da 86 b2 b8
       -4.952084e-05 -2.5175415e-05 1.6445103e-05 -8.5128195e-05
0002d0 6a 9d f7 b6 73 1c 35 38 08 3a b3 b8 df 2b ac 37
       -7.379499e-06 4.318026e-05 -8.546194e-05 2.0524427e-05
0002e0 0d bb 92 b8 f8 99 ad 38 fe 05 c6 38 53 e8 63 ba
       -6.9966634e-05 8.277962e-05 9.442492e-05 -0.0008693982
0002f0 66 7a 9c b7 27 1c e2 38 69 c8 f2 37 fb dc a6 37
       -1.8653645e-05 0.000107817636 2.8941971e-05 1.9891644e-05
000300 c9 a6 22 39 ac f0 31 b8 64 02 20 39 89 a3 11 38
       0.00015511656 -4.242423e-05 0.0001525968 3.4722998e-05
000310 03 0b 13 39 58 4e fc b6 84 18 04 b8 b2 c9 1a b8
       0.00014023115 -7.5193057e-06 -3.1494084e-05 -3.6904305e-05
000320 1d 30 0f 39 88 f0 20 b9 f2 80 00 39 3a 9a 3e b8
       0.00013655466 -0.00015348394 0.00012255067 -4.5443165e-05
000330 24 77 30 b8 dc 91 d8 b8 18 3b d0 38 1d 20 15 b8
       -4.207263e-05 -0.00010326851 9.92922e-05 -3.5554276e-05
000340 64 04 8f b8 b8 24 d5 38 9e f6 bc 37 b7 90 12 b8
       -6.819589e-05 0.00010163471 2.2526187e-05 -3.494389e-05
000350 29 70 1f 38 77 79 80 36 3e 44 3f 38 b8 aa 85 b6
       3.801301e-05 3.8288376e-06 4.5601504e-05 -3.983583e-06
000360 9e 70 31 b8 c2 49 a8 b8 59 61 90 38 6a fa 68 38
       -4.230497e-05 -8.024603e-05 6.8845875e-05 5.5546327e-05
000370 68 7d 4f 38 18 64 26 b8 ac 32 2e b8 01 09 2c 39
       4.946944e-05 -3.9670704e-05 -4.1532025e-05 0.00016406552
000380 9c e0 90 37 a6 17 2d b8 fe 1a 13 b8 0e 1b 10 39
       1.727073e-05 -4.126844e-05 -3.507267e-05 0.00013742989
000390 91 fc 2a 39 65 26 a2 37 05 05 ae b8 8f a9 11 38
       0.00016306552 1.9329784e-05 -8.2979015e-05 3.4728608e-05
0003a0 99 38 6b 38 e3 c9 33 b8 e5 15 e9 b8 bf 83 7a 38
       5.6081077e-05 -4.2864947e-05 -0.00011114384 5.9727343e-05
0003b0 92 bc 02 38 34 0d 71 36 54 0c 0f b8 ca f1 a1 37
       3.1170035e-05 3.5919484e-06 -3.410534e-05 1.9305287e-05
0003c0 a7 b3 a6 38 5a 92 6b b8 a2 70 16 b8 6f 09 ac 38
       7.94896e-05 -5.6164667e-05 -3.5867684e-05 8.203356e-05
0003d0 da 8f c7 b8 94 6c 3e b9 93 7b a3 38 36 04 00 37
       -9.515854e-05 -0.0001816026 7.795463e-05 7.630375e-06
0003e0 21 3c af 36 cf 03 3b b8 80 da 24 39 6b e4 24 39
       5.2224063e-06 -4.458782e-05 0.00015721656 0.00015725351
0003f0 e0 bf 12 38 d7 49 90 b7 cb 28 f9 38 bd 5c a6 38
       3.498781e-05 -1.7200522e-05 0.000118808435 7.932771e-05

normalize_lstm.bias_ih_l0 f4 [64]
000000 36 21 fb b6 14 db d8 38 f0 60 96 b8 b0 48 02 38
       -7.484249e-06 0.00010340489 -7.1706134e-05 3.106211e-05
000010 44 77 14 38 0c 9b 11 b9 37 d8 06 b8 2b 6f 6d 38
       3.5397024e-05 -0.00013886037 -3.2149455e-05 5.6608736e-05
000020 03 3a 19 b9 c8 60 7d 38 de b2 b9 37 5e 61 cc 3d
       -0.00014612828 6.0410035e-05 2.213701e-05 0.09979509
000030 98 a1 d8 38 91 74 26 b8 36 28 02 39 b3 bd 01 39
       0.00010329782 -3.9686045e-05 0.00012412746 0.00012373067
000040 34 d6 96 b8 27 5e a6 38 e1 2c 3e 38 ee b2 f5 37
       -7.192456e-05 7.933034e-05 4.5341327e-05 2.9289597e-05
000050 bc 9e d0 38 9e f6 f4 b7 f1 80 a2 38 d4 f1 00 38
       9.9477795e-05 -2.9201907e-05 7.748779e-05 3.0742798e-05
000060 3d d1 28 b9 4a d5 0b 38 96 c4 6b 38 bb 9c f3 3e
       -0.00016099676 3.3338823e-05 5.621145e-05 0.47580513
000070 22 99 0b b8 66 c9 15 38 29 e3 ac 38 c2 d8 13 38
       -3.32828e-05 3.5711935e-05 8.243911e-05 3.5249403e-05
000080 07 60 62 b5 f1 99 ad b8 db 34 e4 38 3f f3 3d b8
       -8.43313e-07 -8.277957e-05 0.00010881732 -4.5287652e-05
000090 cc 38 a8 38 80 86 ee b8 ac 57 8c 38 06 54 d0 b6
       8.0214435e-05 -0.00011373777 6.6920504e-05 -6.2086647e-06
0000a0 35 24 e7 37 69 7a fe 36 f6 cb b5 b8 57 97 dd 3d
       2.7554206e-05 7.5840403e-06 -8.668743e-05 0.108198814
0000b0 5c e1 36 38 44 c8 8f b8 c4 b6 14 38 ea f2 14 b6
       4.3602064e-05 -6.856074e-05 3.5456163e-05 -2.2195113e-06
0000c0 7d 3a 46 37 3e 8d 36 b8 c1 cc 68 b7 1f 9a b3 b8
       1.18153375e-05 -4.3523723e-05 -1.3875951e-05 -8.5640924e-05
0000d0 61 6a 2f 38 0d 19 ef b7 6d f8 01 38 9d c1 2a 39
       4.1822324e-05 -2.8502685e-05 3.098736e-05 0.0001628459
0000e0 f0 e7 0f b9 e2 a8 b3 b8 8d f3 31 b8 d1 87 1f 3f
       -0.00013723946 -8.566842e-05 -4.2426913e-05 0.62316614
0000f0 81 72 c0 b8 04 79 52 37 3c 19 dc 38 56 a2 7b 38
       -9.1766015e-05 1.2545152e-05 0.00010495118 5.999425e-05

normalize_lstm.bias_hh_l0 f4 [64]
000000 68 b9 96 38 9f 63 9e 39 7a 15 b1 38 ea 32 fd b7
       7.187092e-05 0.00030210332 8.444018e-05 -3.0183659e-05
000010 71 dc e6 38 30 89 32 38 09 02 16 b9 db 1d 9b 38
       0.00011008315 4.2566273e-05 -0.00014305873 7.396537e-05
000020 5c d8 01 b9 af d3 5b b8 b2 e1 34 b8 da 37 c9 3d
       -0.00012382999 -5.2410815e-05 -4.312554e-05 0.09825106
000030 30 41 76 38 1e 71 a8 38 e7 49 ad b8 59 5f 6c 38
       5.871168e-05 8.031934e-05 -8.263048e-05 5.6355584e-05
000040 bf 48 35 b8 de ee 94 b8 7b b6 0e 39 77 c3 0f 39
       -4.3221513e-05 -7.1016824e-05 0.00013610155 0.00013710359
000050 16 9d 6a 38 24 29 a2 37 21 99 77 b8 3b 6c 1e 38
       5.5936245e-05 1.9331063e-05 -5.9032e-05 3.7770933e-05
000060 f6 44 13 b8 e7 86 e4 38 af 7f 05 b9 17 6c 06 3f
       -3.5111756e-05 0.00010897015 -0.00012731434 0.5250868
000070 27 65 8f b8 a2 cd 9a 37 2e aa b6 38 65 af 40 b8
       -6.8376125e-05 1.8453986e-05 8.710135e-05 -4.5939716e-05
000080 e1 47 82 b7 d0 c0 74 b8 8a ff 95 38 c2 e0 3e b8
       -1.5530679e-05 -5.8353704e-05 7.1524715e-05 -4.5508852e-05
000090 79 f6 51 b8 c9 22 a7 37 9a 1a 7a b8 6a 64 9b b8
       -5.005903e-05 1.992415e-05 -5.962942e-05 -7.4096795e-05
0000a0 cf c2 d6 b7 90 a1 98 b8 eb 18 f6 36 9d db 7a 3d
       -2.5601503e-05 -7.278018e-05 7.334272e-06 0.061244596
0000b0 d6 c7 93 37 40 7d 91 b8 85 d7 a1 38 80 25 86 38
       1.7616821e-05 -6.9374684e-05 7.717222e-05 6.396603e-05
0000c0 f8 b2 6c b8 eb dc 6b 38 94 53 01 39 9f cd f2 b8
       -5.6433462e-05 5.6234112e-05 0.00012333534 -0.00011577759
0000d0 33 6d ff b6 42 ba c5 37 9d b5 4d 38 84 6b 02 b8
       -7.6123047e-06 2.3570963e-05 4.904495e-05 -3.1094547e-05
0000e0 40 0c 97 38 a3 fe 34 38 08 49 eb b8 a4 d0 12 3f
       7.202523e-05 4.3152493e-05 -0.00011219276 0.5734961
0000f0 62 b1 ac 38 3e 0b 3c b8 10 e7 0d b9 45 5d ae b8
       8.234639e-05 -4.4833163e-05 -0.00013532885 -8.314339e-05

normalize_module.0.weight f4 [128, 16]
000000 05 37 b0 b8 d3 b6 a1 38 71 f8 4b b8 7f 8c a1 37
       -8.402582e-05 7.711132e-05 -4.863035e-05 1.925812e-05
000010 90 e1 6b b8 5c e1 8a b7 19 1f 6e 38 75 b6 68 b8
       -5.6238438e-05 -1.6555823e-05 5.6772584e-05 -5.5483037e-05
000020 11 ad 0f b9 d8 14 ae b8 b0 17 10 39 4a 3d e1 38
       -0.00013702015 -8.300849e-05 0.00013741734 0.00010740252
000030 92 a2 f7 b8 74 05 be b8 dc 6d 1f 39 45 4c 8b b9
       -0.00011808159 -9.060922e-05 0.00015204347 -0.0002656897
000040 f8 a7 a5 b8 91 77 04 39 05 8e ab b8 75 04 af b8
       -7.8991e-05 0.00012633043 -8.1803686e-05 -8.3454805e-05
000050 a7 29 10 b8 cb 74 01 39 48 f3 aa 38 d0 d3 01 b9
       -3.4371067e-05 0.00012345907 8.151546e-05 -0.00012381305
000060 eb 8d ab 38 ea f9 72 b7 1a 35 7b 38 22 46 69 b8
       8.18035e-05 -1.4482512e-05 5.9892518e-05 -5.5616845e-05
000070 da 83 00 39 7e 34 1c b8 73 db 02 b9 74 98 26 39
       0.0001225615 -3.7242185e-05 -0.00012479517 0.00015887787
000080 5d 6c 75 36 4d bd 1d 38 e5 99 8e b8 f7 db 6c b8
       3.657092e-06 3.7608017e-05 -6.799753e-05 -5.6471643e-05
000090 e7 77 eb b8 0c 7e c1 b8 66 35 31 b8 c2 14 49 b8
       -0.00011228007 -9.226435e-05 -4.224982e-05 -4.7941467e-05
0000a0 36 c6 aa 38 a5 a3 b9 38 60 26 31 38 58 0f d4 b8
       8.143151e-05 8.8519686e-05 4.2235828e-05 -0.00010111806
0000b0 4d 43 b0 b6 fd dc c3 b7 ae 6d 94 b7 93 0a fa b7
       -5.2530436e-06 -2.3348717e-05 -1.7694048e-05 -2.9807246e-05
0000c0 13 9f 04 39 33 18 04 b8 12 17 8e 38 7b cf ac b8
       0.00012647761 -3.149379e-05 6.775385e-05 -8.2402454e-05
0000d0 9a ba c1 38 15 04 0f 39 d5 75 02 b9 c7 0a eb b8
       9.2377144e-05 0.00013639063 -0.00012441662 -0.00011207681
0000e0 9b b2 ba 38 ff 42 67 b7 d1 c4 ae 38 f1 b4 2d 38
       8.902439e-05 -1.3784272e-05 8.3336265e-05 4.141493e-05
0000f0 9e ca da 38 9a a7 6f b8 47 41 6f 38 2a 1f 2d 38
       0.000104327904 -5.713813e-05 5.7042835e-05 4.1275438e-05
000100 12 af 93 37 0f 99 55 b8 ff c9 6b 38 04 fa ac b8
       1.7605289e-05 -5.0925704e-05 5.621649e-05 -8.248168e-05
000110 27 28 02 38 14 48 94 b7 19 7c ab b8 29 64 03 b9
       3.103181e-05 -1.7676539e-05 -8.1770304e-05 -0.00012530446
000120 ed 83 ba 38 d3 6c 35 38 ea 35 92 b8 ac 91 03 38
       8.893744e-05 4.3255113e-05 -6.971865e-05 3.13685e-05
000130 7a 50 b0 36 f9 d0 ec b7 fc 74 1d b9 c6 fb ab b8
       5.2545774e-06 -2.8230703e-05 -0.00015016267 -8.200812e-05
000140 1e 77 c1 b8 83 bb 3e b9 48 02 b1 38 e5 97 c1 38
       -9.2251445e-05 -0.00018189666 8.4404426e-05 9.23125e-05
000150 c5 f9 e9 b8 12 c7 00 38 cc ab 5a 38 b2 31 31 b8
       -0.00011156829 3.0702977e-05 5.213525e-05 -4.224637e-05
000160 a6 6d d0 38 a7 78 ce b6 ea fe 31 38 a7 b0 f6 b7
       9.9386365e-05 -6.153324e-06 4.2437496e-05 -2.9407745e-05
000170 85 6d 31 38 ad c6 0e b9 90 13 4a b8 3b 86 31 38
       4.2302087e-05 -0.00013616188 -4.8178772e-05 4.23251e-05
000180 5d 99 45 b8 3c f4 a5 b8 8a 1c d5 38 9e c3 ae 38
       -4.711129e-05 -7.913305e-05 0.00010161947 8.333403e-05
000190 39 5e d8 b8 0e 64 d0 38 5d 05 24 b8 e8 5c df 38
       -0.00010317233 9.9368495e-05 -3.9105642e-05 0.00010650774
0001a0 19 7d 0d b8 d2 52 7b b8 8f 42 1b b9 79 8e ad 38
       -3.3733526e-05 -5.9920196e-05 -0.00014806747 8.2758204e-05
0001b0 00 97 80 38 64 8c d8 38 5e 59 12 b8 39 78 d8 b8
       6.1316416e-05 0.000103258324 -3.4892342e-05 -0.00010322076
0001c0 0b 2c 70 b7 cf e4 bf 38 c3 a9 12 38 01 67 ab b8
       -1.4315369e-05 9.150209e-05 3.4967215e-05 -8.1731014e-05
0001d0 6f 13 43 38 3d bf 86 38 6d 7a b6 38 f1 4f 9f b8
       4.6509722e-05 6.425239e-05 8.70124e-05 -7.596601e-05
0001e0 ae c0 b7 b8 6a 50 4c 39 c0 55 29 b9 c1 ee 5c b8
       -8.7620094e-05 0.00019484913 -0.0001614904 -5.2674444e-05
0001f0 70 5a 55 b8 1e ea 15 39 27 45 ad 38 c2 a8 bc b8
       -5.0867384e-05 0.00014296963 8.2621635e-05 -8.995972e-05
000200 f1 ef 92 b8 65 94 ad 38 d6 c2 8e 39 7a d2 99 38
       -7.006515e-05 8.2769235e-05 0.00027229515 7.334813e-05
000210 cc 7b b2 b1 bf eb 96 38 f0 ac b0 b8 60 21 af 38
       -5.194556e-09 7.1964685e-05 -8.424546e-05 8.350867e-05
000220 77 7a d8 38 f6 0b 3a b8 98 0b 89 38 a0 30 5f b8
       0.000103224935 -4.4356995e-05 6.5348286e-05 -5.321263e-05
000230 b9 96 6c 38 63 c8 cf b8 b1 95 c3 b8 cc 48 32 b8
       5.6407156e-05 -9.907854e-05 -9.326207e-05 -4.2506304e-05
000240 7e 1e 0a 37 fb 79 a1 37 ab 90 4f 39 04 b4 ba b8
       8.2325405e-06 1.9249497e-05 0.00019794951 -8.902702e-05
000250 5e d0 00 37 aa a0 be 38 65 fc 22 39 58 ed fd b7
       7.677909e-06 9.089832e-05 0.00015543548 -3.0270472e-05
000260 da 3c f9 b6 8a 7c 0d 37 7a a2 0f b9 9f d5 37 b8
       -7.4278623e-06 8.433251e-06 -0.0001369807 -4.382955e-05
000270 f7 bd 03 b8 96 56 45 b8 e8 45 00 b8 26 0f 5c 39
       -3.1409752e-05 -4.70491e-05 -3.0582683e-05 0.00020986478
000280 11 fc d2 37 06 15 01 b9 01 20 35 38 ad d2 12 37
       2.5151328e-05 -0.0001231023 4.318357e-05 8.75133e-06
000290 27 8b e4 38 2e 19 5a 38 4d c1 08 b8 db 26 b2 b6
       0.00010897806 5.19987e-05 -3.2604952e-05 -5.3093368e-06
0002a0 91 20 6a b8 d6 9e 35 b8 a9 ed 11 38 b8 7c ba 38
       -5.5820277e-05 -4.330169e-05 3.4792032e-05 8.892402e-05
0002b0 a7 dd 30 b8 3c 37 3a 38 09 44 a4 38 ee 9a 32 b8
       -4.21681e-05 4.4397297e-05 7.832802e-05 -4.2582797e-05
0002c0 76 6c ac b8 bc 7f 25 b9 2a 3f 85 38 6f d6 ae 38
       -8.2218015e-05 -0.00015783211 6.3536994e-05 8.336908e-05
0002d0 50 bd 05 39 82 26 72 b7 bd 51 b7 b7 9b 4f 54 37
       0.00012754393 -1.443329e-05 -2.1853362e-05 1.2654719e-05
0002e0 67 a1 14 b8 a6 d8 24 b9 8a cb 1f b8 6a cc f7 b7
       -3.5436267e-05 -0.00015720967 -3.8098115e-05 -2.9539882e-05
0002f0 52 6b 5b 39 f4 b4 2a 39 65 72 02 b6 04 13 6b 38
       0.00020925447 0.00016279874 -1.9438096e-06 5.6046076e-05
000300 bc 0a 5c 39 41 45 52 38 b7 af ac b8 93 d3 01 39
       0.00020984834 5.01324e-05 -8.2343286e-05 0.00012381216
000310 b7 91 0c b7 b6 77 3e 39 fb 33 55 37 8d 45 5c 39
       -8.378577e-06 0.00018164408 1.2707892e-05 0.00021006745
000320 f6 bc 53 b8 a7 a0 10 39 f3 74 2b b9 c6 7b 01 38
       -5.0482304e-05 0.00013792758 -0.00016351398 3.087127e-05
000330 d8 14 10 39 89 bf 24 39 17 17 cf b8 fc 47 02 39
       0.00013740675 0.00015711611 -9.87483e-05 0.00012424582
000340 95 5e ec 38 3a 77 65 37 dd 4b 15 39 0f a7 6a b8
       0.00011270974 1.3677223e-05 0.00014238009 -5.5945533e-05
000350 18 c9 e3 38 0a c0 ee b7 cc 4a ca 38 d6 a0 0e 37
       0.0001086166 -2.8461236e-05 9.6460426e-05 8.501307e-06
000360 98 00 0a 38 1b c4 8a 38 10 33 cb 38 7f 1c 46 bf
       3.2902317e-05 6.61688e-05 9.6893054e-05 -0.7738723
000370 89 bc 9c 38 09 e0 ae b8 4b 8b 7b 37 50 d0 2c 39
       7.473777e-05 -8.338696e-05 1.49931975e-05 0.000164808
000380 61 a7 85 38 91 18 fc 36 0a 9f ab b8 8d 1c 98 b8
       6.373111e-05 7.513045e-06 -8.183539e-05 -7.253243e-05
000390 ac 0f ac 38 e9 85 ac 38 ce 47 7a b7 cb 72 6e 38
       8.204518e-05 8.226542e-05 -1.49178795e-05 5.685053e-05
0003a0 6a 9b ad 38 07 d1 6f 38 69 e3 92 b8 10 26 b6 b8
       8.278231e-05 5.7176712e-05 -7.004181e-05 -8.685526e-05
0003b0 7c bd c5 b7 eb 5e 15 38 7b 94 ad b8 c6 c5 ab b8
       -2.3572466e-05 3.5612768e-05 -8.2769395e-05 -8.1907536e-05
0003c0 4b b2 3e 39 39 b9 01 39 5d bb 5a 38 92 2f 8f 38
       0.00018186231 0.000123714 5.2149746e-05 6.827632e-05
0003d0 57 78 ac b8 e4 66 93 37 75 9f 0f b9 4d 87 45 38
       -8.224014e-05 1.7571678e-05 -0.00013696945 4.709447e-05
0003e0 be 17 15 38 11 1b 99 b8 fc 8f 1e b7 c6 99 0d 39
       3.554648e-05 -7.30065e-05 -9.451058e-06 0.00013504093
0003f0 1e bf 37 38 53 1b 51 38 b9 5c df b8 bc e7 05 39
       4.380859e-05 4.985493e-05 -0.000106507396 0.00012770196

normalize_module.0.bias f4 [128]
000000 48 35 43 36 b1 87 ab 38 9f 67 10 b9 14 1a 17 b9
       2.9088278e-06 8.17919e-05 -0.00013771512 -0.00014410197
000010 55 69 d2 b5 c8 d5 e5 38 70 cb 89 37 b9 a8 7f 3e
       -1.5676875e-06 0.00010959391 1.6426406e-05 0.24966706
000020 b1 ce ad 38 2b ff 7f b8 13 7c 44 b8 a7 c6 31 39
       8.287782e-05 -6.103438e-05 -4.6845595e-05 0.00016954039
000030 26 49 a5 37 2c c1 1b 3f be b3 1a b8 b1 54 6d b8
       1.9703595e-05 0.6084163 -3.688386e-05 -5.658408e-05
000040 3f e7 1c 3f 3c 86 45 b8 ff f7 cc 38 91 a3 41 38
       0.61290354 -4.7093476e-05 9.773671e-05 4.616712e-05
000050 de 82 ae b6 d6 a3 2c b8 ea 09 8c b8 c7 97 27 b5
       -5.200839e-06 -4.116058e-05 -6.677567e-05 -6.2433213e-07
000060 d2 36 6d 38 ba 21 29 b7 4e c0 5a b8 7d b6 b1 b7
       5.655626e-05 -1.00810375e-05 -5.2154348e-05 -2.1185022e-05
000070 4e bc 92 35 6b 9c 56 b6 b3 9b 60 b9 2f 00 ba b8
       1.0932652e-06 -3.1979532e-06 -0.00021420307 -8.869205e-05
000080 35 b9 89 38 49 20 07 b9 74 77 ae 37 8e 5a b5 b8
       6.5671666e-05 -0.0001288663 2.0798041e-05 -8.64762e-05
000090 19 bb 1c b9 81 27 82 37 1b ad 35 b8 9a 26 22 38
       -0.00014947019 1.5515603e-05 -4.331498e-05 3.865976e-05
0000a0 ed 3d ad b8 28 7d 80 b8 be 3c 9a b8 3f ef 00 3f
       -8.2608174e-05 -6.126828e-05 -7.354606e-05 0.5036506
0000b0 0b 1a 98 b8 bc 3d fb 38 5e 75 f2 38 f3 10 e0 38
       -7.252776e-05 0.000119801116 0.000115613206 0.000106843094
0000c0 95 28 bc 37 7c fd 1b 3f f4 6b f4 b8 da c9 9d 38
       2.2430244e-05 0.6093366 -0.000116549345 7.523941e-05
0000d0 ce 81 8e b7 39 34 c8 38 6e cc 23 b7 f0 6b 65 38
       -1.6988164e-05 9.5464704e-05 -9.763155e-06 5.469838e-05
0000e0 75 cf 9b b8 7c 56 8d 37 e1 4a 49 b9 15 ad b8 b8
       -7.429618e-05 1.6848782e-05 -0.00019196748 -8.806043e-05
0000f0 25 60 65 37 b7 d0 b7 b8 cb 97 28 b8 e4 16 1e b9
       1.3671849e-05 -8.764996e-05 -4.019569e-05 -0.00015076582
000100 a0 94 87 37 f2 7d ca b8 90 6f 4d b8 33 d1 54 b7
       1.6162463e-05 -9.65557e-05 -4.897971e-05 -1.2684893e-05
000110 dc 18 fa b7 7b 4c 78 b7 eb 4e d3 b8 78 75 16 b8
       -2.9813898e-05 -1.4799759e-05 -0.00010075964 -3.5872188e-05
000120 87 50 da b6 1e c4 a6 38 7e 00 96 b7 a0 49 f5 38
       -6.506281e-06 7.9520265e-05 -1.7881623e-05 0.00011696224
000130 20 8e 05 38 0a fe a2 34 df ad 74 37 10 8f ba b8
       3.1842035e-05 3.035969e-07 1.4584016e-05 -8.8958186e-05
000140 23 dc f6 b5 b8 d1 cd b8 b3 75 9c 38 ac ce 10 3f
       -1.8392496e-06 -9.814225e-05 7.460583e-05 0.56565356
000150 5b 8c 9f 38 bb 8b 1b 3f 47 f8 5d b8 ef 7f 7b 38
       7.607854e-05 0.60760087 -5.2921732e-05 5.996221e-05
000160 83 60 30 b8 41 f3 b4 37 af e7 12 39 59 3e 01 38
       -4.2051553e-05 2.1570946e-05 0.00014009954 3.0814062e-05
000170 79 bb f0 38 f7 cc 39 b7 1d 24 23 b8 f0 f4 06 b9
       0.00011479011 -1.1074581e-05 -3.889586e-05 -0.00012870482
000180 88 ec 86 b8 08 c4 2f b9 68 fc 81 38 16 67 3e 39
       -6.433675e-05 -0.00016762328 6.198214e-05 0.00018158215
000190 3b 0e 14 b7 52 71 9c 36 3c 4b 50 39 c6 ad 97 35
       -8.824801e-06 4.6623545e-06 0.00019864453 1.1300951e-06
0001a0 98 8a b0 38 76 f1 bb b8 e9 c3 5b b9 cd 37 a3 b8
       8.418149e-05 -8.9618305e-05 -0.0002095845 -7.7828394e-05
0001b0 59 32 b6 b7 49 e3 9c b8 35 c0 22 b9 da cd 2e 3e
       -2.1719536e-05 -7.480995e-05 -0.00015521127 0.17070714
0001c0 0c f9 1a 3f bc 9b 34 38 3e a2 33 b6 d3 46 3f 38
       0.60536265 4.3060383e-05 -2.6767516e-06 4.560391e-05
0001d0 ba 57 2c 36 ce ce 51 b9 3b b0 8e 38 b3 3c 13 39
       2.568106e-06 -0.00020008834 6.803913e-05 0.00014041625
0001e0 d6 7f 64 b8 66 d1 ab b7 97 c4 5d b8 53 7e f1 3e
       -5.4478493e-05 -2.0482297e-05 -5.2873595e-05 0.4716669
0001f0 76 2b 95 b8 f9 c3 15 b5 b1 02 1f b9 8b 72 e7 b8
       -7.112969e-05 -5.5792003e-07 -0.00015164424 -0.00011036274

normalize_module.3.weight f4 [64, 128]
000000 e9 1f 08 39 fb e0 41 b8 42 89 e7 b8 2b 71 fd b7
       0.00012981858 -4.6224315e-05 -0.000110405046 -3.0212648e-05
000010 5d 4d cc b8 ff e5 7c 38 d9 12 35 38 0f cc e6 38
       -9.741888e-05 6.0295682e-05 4.3171316e-05 0.000110052635
000020 73 0c 62 38 f0 1b f8 b8 31 45 cc b8 86 b0 35 38
       5.3894193e-05 -0.00011830765 -9.740366e-05 4.3318163e-05
000030 59 d2 04 b8 2a 9a 2b 3e bf 66 a9 b8 fd 25 6b b6
       -3.1667154e-05 0.16758028 -8.077686e-05 -3.503984e-06
000040 1a 90 38 3e d6 fd 8c b8 a8 2a 21 b9 c1 5a cf b7
       0.1802372 -6.723001e-05 -0.00015370047 -2.4718584e-05
000050 83 a3 c4 37 84 f8 b3 38 74 5a 6b 38 e0 f1 dc b6
       2.3441162e-05 8.581675e-05 5.6112607e-05 -6.584669e-06
000060 b6 df 45 b6 10 3c 9e 38 59 61 15 b9 59 5b 59 b8
       -2.9485504e-06 7.5452146e-05 -0.00014246012 -5.1821906e-05
000070 16 35 1e 39 de 32 53 b8 89 21 c8 38 66 ef 83 b8
       0.0001508783 -5.0353694e-05 9.5429896e-05 -6.291158e-05
000080 90 ec bb 38 2a a7 ad 38 d9 41 02 b9 0f f3 bd b7
       8.960918e-05 8.2804196e-05 -0.00012422296 -2.2643739e-05
000090 fa 6f 98 b8 ae 2f 16 38 5f 4a 43 38 09 ac bb b8
       -7.268782e-05 3.5807192e-05 4.6560886e-05 -8.948899e-05
0000a0 89 09 89 b8 10 8b 1c 38 2e 60 af 38 6d 69 66 3d
       -6.534445e-05 3.732281e-05 8.362565e-05 0.056252886
0000b0 81 53 2f b8 56 74 c5 b8 0c 25 8e b8 ea a8 2b b8
       -4.180102e-05 -9.415361e-05 -6.777988e-05 -4.092689e-05
0000c0 4d 13 7e 38 2c a5 17 3e 57 92 27 38 14 2d 9b b7
       6.0576294e-05 0.14809102 3.9952192e-05 -1.8498431e-05
0000d0 92 a5 ae b8 1b 7f 2f 39 0f 99 28 37 9e 67 24 39
       -8.3278064e-05 0.00016736651 1.0049217e-05 0.00015678859
0000e0 4e fb d3 b8 7e c1 81 b8 f1 6c 10 39 4a 92 9f b8
       -0.00010108073 -6.18724e-05 0.00013773494 -7.608959e-05
0000f0 f0 28 24 b8 9d 7a 84 b8 36 cf 10 38 81 db 39 38
       -3.9138773e-05 -6.317089e-05 3.4525256e-05 4.4311866e-05
000100 5a ce 26 39 df 42 b8 37 c2 af 5d b8 dd 62 f5 38
       0.00015907866 2.1965649e-05 -5.2854193e-05 0.00011700925
000110 32 86 cd 37 3d bd 01 b9 c1 90 24 b8 2d a1 9f b8
       2.4500394e-05 -0.00012372895 -3.923546e-05 -7.611732e-05
000120 3a 56 07 39 78 bb 45 38 3f 78 56 38 be 83 cc b8
       0.00012906725 4.7143054e-05 5.1133564e-05 -9.752017e-05
000130 0a ad dd 38 ef 50 08 b9 ff fe f4 b6 93 c0 9b b6
       0.00010570332 -0.00013000121 -7.301452e-06 -4.6417786e-06
000140 64 ea da b8 f7 50 86 b8 92 db 6e b8 0d 00 e4 3d
       -0.00010438709 -6.404699e-05 -5.6948113e-05 0.11132822
000150 58 fa 12 39 c1 04 25 3e 66 2a fc b8 a9 5b c0 38
       0.00014016905 0.16115095 -0.00012024194 9.1723465e-05
000160 53 d7 02 b8 7f d3 ee 38 21 23 01 b7 06 88 93 b8
       -3.119495e-05 0.000113881186 -7.697178e-06 -7.0348426e-05
000170 f1 4d 8d 37 ef 71 54 b8 9b 10 89 38 91 56 2b 39
       1.6844804e-05 -5.0650848e-05 6.535762e-05 0.0001634008
000180 50 f8 3a b8 13 4c a4 b9 87 71 05 b8 ef e8 f8 b8
       -4.4577115e-05 -0.00031337197 -3.18154e-05 -0.00011868949
000190 4f 2a c7 b8 89 07 a3 b7 f6 41 ca b8 91 86 95 38
       -9.49694e-05 -1.9434623e-05 -9.644397e-05 7.1299386e-05
0001a0 f0 58 63 b8 02 9e 2b 37 8d 1d b1 b8 c3 21 92 38
       -5.4203847e-05 1.0229183e-05 -8.445522e-05 6.968111e-05
0001b0 68 68 48 38 30 17 81 38 18 d2 03 b9 87 ef 87 b9
       4.778095e-05 6.155518e-05 -0.000125714 -0.00025927668
0001c0 1d 39 1f 3e 5b 7c 33 b8 e5 33 e3 b8 1d 14 36 38
       0.1554913 -4.279274e-05 -0.000108338696 4.3410913e-05
0001d0 24 62 f0 37 3d 05 53 38 2f a4 20 b8 2d 8f 21 b9
       2.865593e-05 5.03112e-05 -3.829988e-05 -0.00015407494
0001e0 dd d7 0b 38 bd fb 32 38 4d a3 bb 38 06 f7 51 3d
       3.334122e-05 4.2672957e-05 8.947272e-05 0.05126097
0001f0 3e cd ae b8 93 99 aa b8 87 25 19 38 d3 cd 6a b8
       -8.335196e-05 -8.134837e-05 3.6512993e-05 -5.5981636e-05
000200 ff 02 31 38 fb f8 51 38 8e 60 ac b8 2e 8d ab b6
       4.220288e-05 5.0061364e-05 -8.219584e-05 -5.1126326e-06
000210 a7 be 20 b8 c6 15 25 b9 65 12 ac b8 3d 30 f2 b7
       -3.832453e-05 -0.00015743737 -8.2050254e-05 -2.887111e-05
000220 bf 28 70 b8 73 3f 03 38 43 61 a6 b8 4e a4 c6 b7
       -5.7258407e-05 3.1291926e-05 -7.933613e-05 -2.367995e-05
000230 6b 7e ad 38 11 df 7d b7 27 f5 0f b9 19 c2 ad 38
       8.27283e-05 -1.5131912e-05 -0.00013728869 8.285436e-05
000240 79 11 20 39 10 5f 03 38 ab 50 a4 b8 ad 2f d0 b8
       0.00015265298 3.1321368e-05 -7.835155e-05 -9.927093e-05
000250 8c bc 8d b8 0e bb 2e b8 0b fa c6 b7 37 d9 9b 38
       -6.7585235e-05 -4.165904e-05 -2.3719875e-05 7.4314354e-05
000260 e6 ea 12 38 25 4f 5c b7 ae 21 00 39 82 52 96 b8
       3.502788e-05 -1.3131449e-05 0.00012219578 -7.167926e-05
000270 d6 dc 05 39 80 58 93 38 95 d0 4f b9 0c 49 ad 38
       0.00012766136 7.0259906e-05 -0.00019818761 8.262889e-05
000280 38 23 6d b8 19 a9 03 b7 31 e1 8d 38 0b a9 82 b8
       -5.6538003e-05 -7.84758e-06 6.765349e-05 -6.23037e-05
000290 1e b5 03 b8 c6 4c 10 b9 ea 1e a7 38 af 0e a8 38
       -3.1401512e-05 -0.0001376151 7.968939e-05 8.013599e-05
0002a0 f1 e9 b5 38 cc 56 c1 38 9a ac 91 b8 71 4d 95 b9
       8.6743275e-05 9.219124e-05 -6.946288e-05 -0.00028477193
0002b0 45 3f ac 38 f1 ac 44 b8 e4 b0 bb b8 ad 30 10 b9
       8.213384e-05 -4.6891106e-05 -8.949803e-05 -0.00013751043
0002c0 f0 b5 72 38 1f 27 b8 b8 da e2 88 37 4d 1b 2e 39
       5.786674e-05 -8.7810906e-05 1.63181e-05 0.00016604103
0002d0 72 09 5c 39 50 a9 2b 39 d1 c9 4d 38 60 f0 24 39
       0.00020984354 0.00016370905 4.9063765e-05 0.00015729805
0002e0 4e 58 be 38 04 6e ae 38 bc 2f 31 b8 97 cc 12 38
       9.076354e-05 8.3174586e-05 -4.2244545e-05 3.499965e-05
0002f0 71 d8 84 38 ad ef f0 b8 a3 ac 74 37 ab e2 11 b8
       6.334566e-05 -0.00011488735 1.4583728e-05 -3.4781795e-05
000300 2d c8 01 39 3e 6c 7b 38 7d 4b 1e b8 2d fe ab 38
       0.0001237697 5.994387e-05 -3.774044e-05 8.201259e-05
000310 65 ce ac b8 79 08 10 39 61 19 aa 38 d4 7a 86 38
       -8.240043e-05 0.00013736066 8.110959e-05 6.4124964e-05
000320 74 14 af b8 94 60 a1 37 ba 65 ae 36 f1 60 12 38
       -8.34846e-05 1.9237668e-05 5.1974466e-06 3.4899396e-05
000330 69 5a b3 36 d9 c7 8e 38 da ea 11 b8 d0 6f 06 b8
       5.345141e-06 6.808312e-05 -3.4789417e-05 -3.2052223e-05
000340 99 8f d2 b8 c5 2d 25 b9 e0 91 11 b8 2e 53 b5 b8
       -0.000100403275 -0.00015752677 -3.470655e-05 -8.646246e-05
000350 b2 e0 31 b8 d4 21 66 38 41 45 31 38 9e f0 40 38
       -4.2409352e-05 5.4867778e-05 4.2264586e-05 4.600046e-05
000360 83 81 9e 39 d8 a1 be 38 b0 f4 9e b8 e3 52 11 b8
       0.00030232602 9.090052e-05 -7.579604e-05 -3.464789e-05
000370 2b 94 c7 b7 34 80 cd b7 ac 14 2c 38 7d 01 a7 b8
       -2.3791645e-05 -2.4497604e-05 4.1027248e-05 -7.963458e-05
000380 16 40 af b8 e1 1a 16 37 52 e5 0a 39 57 10 57 b7
       -8.356587e-05 8.946955e-06 0.00013246134 -1.2818803e-05
000390 2d 61 ac b8 37 32 10 39 49 52 a6 38 88 6c 01 b9
       -8.2196995e-05 0.00013751617 7.9308236e-05 -0.0001234283
0003a0 35 9e e3 b8 08 5b ad 38 bd 1c 36 b8 af c0 48 38
       -0.00010853672 8.266239e-05 -4.3418946e-05 4.7863166e-05
0003b0 1c 2b 81 b6 28 cb 4f b9 6f 7f d1 b6 8b 29 72 37
       -3.849518e-06 -0.0001981674 -6.2435206e-06 1.44339965e-05
0003c0 82 a0 7d 37 8d 2d ac 38 e2 fd a5 b8 84 60 ad b8
       1.5117346e-05 8.2100836e-05 -7.9151025e-05 -8.26726e-05
0003d0 a9 66 91 b7 a9 ec 9a 38 3c 68 01 39 28 f1 bc 38
       -1.7333152e-05 7.3873736e-05 0.00012341229 9.0094574e-05
0003e0 6c 42 a6 38 32 47 2c 38 ae 6c 45 b8 a9 83 98 b8
       7.927869e-05 4.10743e-05 -4.7069676e-05 -7.2724484e-05
0003f0 25 07 1e b8 77 29 9d b8 49 85 6f 37 38 4e ad 38
       -3.767679e-05 -7.494067e-05 1.4276543e-05 8.263852e-05

normalize_module.3.bias f4 [64]
000000 68 38 f5 3e 74 ac 10 37 69 4c 36 38 17 67 53 b8
       0.47894597 8.623221e-06 4.3463344e-05 -5.040233e-05
000010 2e 4e f9 3e e6 90 f5 b8 48 a1 03 b8 ef c0 56 b8
       0.4869246 -0.000117095 -3.138304e-05 -5.120126e-05
000020 7e 1b 82 b7 48 3e 8a 38 47 40 a5 38 0e 5e ea 3e
       -1.551001e-05 6.5919536e-05 7.879786e-05 0.45774883
000030 cd 01 5d b7 8f 59 20 b8 59 49 a8 b8 73 16 bd b8
       -1.3173046e-05 -3.823038e-05 -8.024526e-05 -9.016404e-05
000040 f1 5b 6e 38 39 ed 3e b8 9a 7e ce b8 2f c0 04 3f
       5.682925e-05 -4.552046e-05 -9.846427e-05 0.5185575
000050 43 fd 15 38 25 e2 f7 b8 dc 9b 1d 39 5c ab 08 b8
       3.5760237e-05 -0.000118200005 0.00015030749 -3.2584518e-05
000060 30 dd f2 38 07 df 59 39 d2 0a 05 3f ef ea 0d 39
       0.000115806586 0.00020777817 0.51969635 0.00013534327
000070 fe e8 12 38 dd 65 8d b8 7c 97 86 b8 41 9d e3 b8
       3.5026103e-05 -6.7423774e-05 -6.417834e-05 -0.00010853494
000080 b4 b0 b9 38 66 8f fb b7 ad 32 eb 38 04 5e 2e b7
       8.854401e-05 -2.9988307e-05 0.00011215112 -1.0393098e-05
000090 a4 5e f3 38 b1 1f 21 38 05 44 cc b8 73 07 6c 38
       0.00011604771 3.8414906e-05 -9.740148e-05 5.6273722e-05
0000a0 40 df 6d 37 65 e5 19 3d 7e 40 84 b6 f0 c2 91 b8
       1.417828e-05 0.037572283 -3.9414144e-06 -6.950449e-05
0000b0 a6 67 b5 b8 fc 61 dd b8 1d 3b 78 37 b9 46 02 3f
       -8.6500586e-05 -0.00010556352 1.4795715e-05 0.50889164
0000c0 e3 d9 fb 3e 55 12 89 b7 1d ab f0 37 00 3a 46 b8
       0.49189672 -1.634021e-05 2.868991e-05 -4.7260895e-05
0000d0 24 cd 3f b7 bb 10 5f 38 08 cf a7 b8 40 18 f9 3e
       -1.143225e-05 5.3182925e-05 -8.001743e-05 0.48651314
0000e0 53 23 00 3f 9b a0 fc 3e 27 0b 0e 39 93 e8 81 38
       0.500539 0.49341282 0.0001354633 6.19452e-05
0000f0 9f 6a 16 38 96 a4 40 b9 53 d4 b5 b8 ae 49 f0 38
       3.5862085e-05 -0.0001837186 -8.670301e-05 0.00011457816

normalize_module.6.weight f4 [64, 64]
000000 a2 3a 0c 38 c7 ab 5f b7 14 b6 8e b8 62 f6 11 38
       3.3433207e-05 -1.3331831e-05 -6.805002e-05 3.4800156e-05
000010 41 35 2e 39 ad 80 ac 38 a3 32 b0 38 ab 79 03 b8
       0.00016613772 8.225567e-05 8.401766e-05 -3.1346146e-05
000020 83 fa ad b8 4b f0 ac 38 07 b9 02 b8 2d 0b b8 b8
       -8.295944e-05 8.246357e-05 -3.1166735e-05 -8.775885e-05
000030 01 d9 ee 38 9c 5c 32 b8 a9 f9 31 38 3d c8 20 b8
       0.000113891445 -4.2524756e-05 4.2432603e-05 -3.833346e-05
000040 8e 1e d0 38 56 50 ac b8 c9 ab 11 b8 8d 6e 22 37
       9.923904e-05 -8.216563e-05 -3.473068e-05 9.681692e-06
000050 e4 35 01 39 3b 80 43 38 f6 7e ac 38 2f c6 bf 38
       0.00012322475 4.6611047e-05 8.2252474e-05 9.144504e-05
000060 ac de 00 39 b7 5b ea b8 3e 1b b7 38 c4 b5 8e b8
       0.00012289983 -0.00011175073 8.731194e-05 -6.804944e-05
000070 39 00 32 38 26 da 12 b8 43 64 85 38 c3 5d fe 36
       4.2438714e-05 -3.501228e-05 6.3606094e-05 7.580705e-06
000080 5d c6 31 b8 8c 8d ac 38 4c fa aa 38 9f 0e 6f b7
       -4.238483e-05 8.227964e-05 8.152853e-05 -1.4248914e-05
000090 95 9d 6b b8 25 07 35 b8 55 da 24 39 11 3a 72 b8
       -5.6175126e-05 -4.3160417e-05 0.00015721594 -5.7751375e-05
0000a0 e0 da 35 b8 fb b2 f1 b8 e9 56 2c 38 1e c8 6c b8
       -4.3357606e-05 -0.00011525113 4.1088937e-05 -5.645316e-05
0000b0 29 4f 88 38 7e 77 33 38 85 42 a6 b8 89 9a c4 38
       6.49973e-05 4.278821e-05 -7.927887e-05 9.374793e-05
0000c0 4f 35 07 39 5f e2 05 b9 ab d9 10 39 23 11 9a b8
       0.00012894462 -0.00012768198 0.00013813998 -7.346484e-05
0000d0 2a 0b f6 b7 2c 32 25 b9 95 c3 32 38 65 b1 5a 38
       -2.9330684e-05 -0.00015754317 4.2620657e-05 5.214046e-05
0000e0 d0 14 47 b8 06 37 f5 38 63 78 3e b9 6c 71 05 b9
       -4.746468e-05 0.00011692759 -0.0001816466 -0.00012726121
0000f0 57 31 eb 38 0f a1 1f b9 73 88 1d b9 0d 0d 6c 38
       0.000112148635 -0.0001522342 -0.00015023518 5.627894e-05
000100 1a a5 48 3e ed 4f be b8 88 28 e8 38 26 35 8e b8
       0.19594231 -9.074793e-05 0.000110701716 -6.780987e-05
000110 84 ae 53 3e ad c1 f1 38 b4 f1 95 37 cd f6 2b b8
       0.20672041 0.000115278504 1.7874736e-05 -4.0999428e-05
000120 f9 7a 6e 38 ba 39 a4 38 81 96 81 38 22 ae 67 3e
       5.685815e-05 7.830882e-05 6.179233e-05 0.2262502
000130 a7 41 85 38 50 88 dd 37 49 48 e1 b7 a2 f3 36 37
       6.354163e-05 2.6408728e-05 -2.685575e-05 1.09047705e-05
000140 f5 80 49 b7 5d 07 41 b6 1b 4b a9 38 6a 6b 69 3e
       -1.2010559e-05 -2.8763527e-06 8.0725375e-05 0.22794881
000150 fb 84 e1 37 e4 68 cb 38 32 a1 85 38 a8 fc 21 b8
       2.6884014e-05 9.699332e-05 6.371959e-05 -3.8620696e-05
000160 1c 13 e7 38 49 20 86 b8 09 b2 78 3e ec 1e 9f 38
       0.00011018498 -6.3956315e-05 0.24286665 7.5874705e-05
000170 02 a5 3f 39 50 de 79 37 fb 79 c8 38 11 41 c9 b8
       0.0001827665 1.4893318e-05 9.559464e-05 -9.5965464e-05
000180 94 75 1c b8 15 bc 92 38 75 64 c1 37 2f 0f 86 38
       -3.73028e-05 6.9968555e-05 2.3054172e-05 6.392446e-05
000190 38 2e b5 37 c6 8f f9 38 86 b7 dc 37 07 b7 4d b8
       2.1598404e-05 0.00011900025 2.6311503e-05 -4.9046266e-05
0001a0 55 20 aa 38 d6 48 1a b9 c7 70 d0 b8 ac 2a d0 b8
       8.112254e-05 -0.00014713718 -9.939219e-05 -9.926161e-05
0001b0 43 f5 de b7 c0 ac 91 38 66 c2 33 b8 33 f4 66 3e
       -2.6578671e-05 6.946316e-05 -4.2857973e-05 0.22554092
0001c0 15 91 7a 3e 5b 27 fe 38 ce bc a7 38 00 98 c2 b8
       0.24469407 0.00012118994 7.998348e-05 -9.278953e-05
0001d0 54 ed 20 b9 7d 53 b7 38 f3 b1 bf 38 6e ed 6b 3e
       -0.000153472 8.741671e-05 9.140735e-05 0.23039791
0001e0 c1 42 78 3e 84 17 74 3e 70 5d be b8 88 ce 74 36
       0.24244215 0.23837095 -9.07731e-05 3.647905e-06
0001f0 03 5e c2 b7 72 0c aa 38 31 61 80 38 ac 5c 4c b7
       -2.317038e-05 8.10855e-05 6.121619e-05 -1.2180924e-05
000200 67 f9 9b 36 16 2a ac 38 3b df 6a 38 78 ae b7 38
       4.648394e-06 8.209438e-05 5.5997847e-05 8.758617e-05
000210 b6 d2 f3 37 58 cd 6b b8 0f 15 10 39 23 a8 28 38
       2.9065977e-05 -5.6219607e-05 0.00013740755 4.021091e-05
000220 34 55 89 38 0b c3 6a b8 00 9a ac 38 44 9d 88 b6
       6.5485394e-05 -5.5971595e-05 8.230284e-05 -4.071424e-06
000230 af 24 8f b8 bb c5 ab 38 3e 42 10 39 f9 6a be b8
       -6.825604e-05 8.1907456e-05 0.00013757587 -9.079831e-05
000240 ce a9 82 38 f8 78 31 b8 48 ff 0f b9 2a a5 15 b8
       6.230512e-05 -4.231275e-05 -0.00013732642 -3.567819e-05
000250 9b c9 a1 b7 54 99 44 b8 f0 e5 6c b8 96 b0 6d 38
       -1.9286575e-05 -4.687284e-05 -5.648093e-05 5.666966e-05
000260 99 5e 74 b7 bf 82 ad b8 e8 0d 88 38 91 8a 01 39
       -1.4565559e-05 -8.273636e-05 6.4875756e-05 0.00012354019
000270 da d9 01 b9 60 88 32 38 92 b1 49 38 e7 fb 14 38
       -0.00012383555 4.2565516e-05 4.808751e-05 3.5520552e-05
000280 2f ee 8a b6 55 3c 03 39 cb 67 b9 b8 96 6d 2d b8
       -4.1404487e-06 0.00012515609 -8.8408204e-05 -4.1348474e-05
000290 bf c6 6b b8 a3 9e ac b8 bf 7e 28 b8 45 aa c1 b8
       -5.6213463e-05 -8.2311475e-05 -4.0172363e-05 -9.234672e-05
0002a0 61 7d 4b b8 b4 cc 4a 38 fa 6b db b8 b3 ee 31 b8
       -4.851574e-05 4.8351198e-05 -0.00010462846 -4.2422394e-05
0002b0 34 b8 96 38 97 d7 4f 39 23 cf 31 38 4c 1e ad 38
       7.186868e-05 0.00019821372 4.2393e-05 8.254926e-05
0002c0 f2 69 96 b8 04 16 ac b8 a1 44 5c 39 c0 43 a6 38
       -7.172291e-05 -8.2057e-05 0.00021006401 7.928116e-05
0002d0 fa d8 ab b8 85 06 aa 38 8c 4d 03 38 00 ff 0e b6
       -8.1943304e-05 8.107446e-05 3.1305055e-05 -2.1308078e-06
0002e0 ec de d5 38 07 54 bb 38 ec b3 ba 38 46 d0 d2 b8
       0.00010198154 8.932506e-05 8.902684e-05 -0.00010052374
0002f0 f3 6f ad 38 19 f7 03 38 1c 07 35 38 97 95 23 38
       8.270135e-05 3.146296e-05 4.3160384e-05 3.9001545e-05
000300 be 7c ff b8 5f a3 32 38 2c ba 04 b9 c8 6c 85 b8
       -0.000121825826 4.259066e-05 -0.00012657855 -6.362196e-05
000310 02 18 2d 37 e8 e5 20 38 10 40 a5 b8 b0 56 d0 b8
       1.0317193e-05 3.836109e-05 -7.879746e-05 -9.93436e-05
000320 82 87 6d b8 02 ba 01 39 e0 76 2c b8 ba 09 ad 38
       -5.6631405e-05 0.00012371692 -4.1118707e-05 8.2510946e-05
000330 a1 2b 00 38 e9 42 84 b8 94 e8 20 38 86 15 5d b8
       3.055821e-05 -6.3067135e-05 3.8363578e-05 -5.271055e-05
000340 1b 07 10 39 aa 58 ab 38 dc d1 2f 38 37 79 5c b8
       0.00013735557 8.1704304e-05 4.1918698e-05 -5.2564978e-05
000350 2e dc 67 b8 9b 3e ac b8 5f 77 d0 b8 e3 6d 12 b8
       -5.527975e-05 -8.21326e-05 -9.9404475e-05 -3.4911453e-05
000360 b6 98 8e 39 65 d8 65 37 6b 89 7f b7 6e 87 d3 b8
       0.0002719813 1.3699847e-05 -1.52311795e-05 -0.0001008649
000370 59 c0 ab b8 5a c0 a9 38 17 8d b0 b7 e0 01 74 b7
       -8.189743e-05 8.094376e-05 -2.1046535e-05 -1.454397e-05
000380 3e c7 a0 37 92 46 02 b8 ef 8e 12 38 e4 14 6c 38
       1.9166266e-05 -3.106014e-05 3.494223e-05 5.628624e-05
000390 eb 21 6b 38 a4 b8 05 b9 ef 5e a6 b8 d0 f5 af b8
       5.6059955e-05 -0.00012752652 -7.9331796e-05 -8.3904364e-05
0003a0 d9 b1 af b8 1a 44 7c 38 bc 15 ad 38 6e 35 25 b9
       -8.377777e-05 6.0144906e-05 8.253331e-05 -0.0001575553
0003b0 ea fd 6b b8 12 4c 0e 39 19 4b 32 38 9a 39 5d b8
       -5.6264842e-05 0.00013570514 4.2508447e-05 -5.274415e-05
0003c0 be 7e 78 38 3b 82 ad b8 b6 88 16 38 13 d3 71 b8
       5.9245845e-05 -8.27354e-05 3.589011e-05 -5.7655456e-05
0003d0 39 77 ae b8 8a 5f 34 b8 e4 e3 d8 36 6c 7b c2 b8
       -8.3191735e-05 -4.3004322e-05 6.4638316e-06 -9.27363e-05
0003e0 63 e2 a6 b8 e5 c5 21 b8 f5 19 30 b8 46 47 46 37
       -7.957665e-05 -3.8569695e-05 -4.1985844e-05 1.1818314e-05
0003f0 80 36 fb b7 65 2c 6d b8 6c f0 17 b8 7f 55 02 b9
       -2.994691e-05 -5.654655e-05 -3.6225116e-05 -0.00012429616

normalize_module.6.bias f4 [64]
000000 6c d7 7b b6 d1 ea 93 3e 97 f7 a7 38 fe d0 34 b8
       -3.7527307e-06 0.28890088 8.009298e-05 -4.3109983e-05
000010 c3 50 2e b8 c8 70 df b8 30 63 a7 38 59 88 82 38
       -4.1560048e-05 -0.00010654476 7.981656e-05 6.22428e-05
000020 c8 04 17 b9 6b be 5b b8 8c ef c0 b8 62 80 e5 38
       -0.00014402263 -5.239101e-05 -9.1998925e-05 0.00010943484
000030 c1 fd 0f b6 c2 f6 4a b8 4c c8 96 b8 f7 39 0d b9
       -2.1456365e-06 -4.8390364e-05 -7.1898656e-05 -0.00013468401
000040 50 a1 f5 36 c3 37 93 38 51 c2 f3 38 80 a2 b2 38
       7.3203482e-06 7.019893e-05 0.00011623337 8.5179694e-05
000050 16 03 33 b9 1f 2f 07 39 95 f6 d0 36 46 c1 94 3e
       -0.0001707192 0.00012892157 6.227589e-06 0.29053706
000060 5e c8 84 b8 fc 43 5c 3e 88 c9 93 38 8c fa 5f 3e
       -6.331572e-05 0.21510309 7.047044e-05 0.2187292
000070 33 29 e9 b8 2c ee 8f 3e 6f b4 06 b9 41 df e5 38
       -0.0001111798 0.28111398 -0.00012846453 0.00010961155
000080 e1 da 37 3e a9 48 8c 38 5e be d6 38 2d 33 86 38
       0.1795459 6.689254e-05 0.00010239774 6.39915e-05
000090 a5 54 fc 38 68 fe ff b8 b0 e4 17 38 1c 2c 32 35
       0.00012032063 -0.000122067344 3.6214187e-05 6.6374355e-07
0000a0 d1 12 93 3e f0 d1 24 39 ca 6d 04 39 85 8c 29 b9
       0.28725293 0.00015718467 0.000126294 -0.00016169444
0000b0 49 6d 8d b8 cd 7b e1 38 87 33 8a 3e b1 be ce b7
       -6.74376e-05 0.00010751896 0.26992437 -2.4645911e-05
0000c0 9e c7 c9 b8 a5 0d aa b8 8b 1a 86 b8 2d 11 19 39
       -9.6216085e-05 -8.108773e-05 -6.394562e-05 0.00014597616
0000d0 9e 5b 4e b8 cc 27 98 b8 7d 7e ad 38 54 e8 75 3e
       -4.9199552e-05 -7.2553376e-05 8.272843e-05 0.24014407
0000e0 63 f2 08 b9 e2 94 77 38 6f 73 0f b8 10 04 7b 38
       -0.00013060267 5.9028047e-05 -3.4201363e-05 5.9846847e-05
0000f0 b2 e1 0c b7 cb b6 92 3e 11 9a 5a 38 96 6c 8f 3e
       -8.397199e-06 0.28655085 5.2118736e-05 0.28012532
