lstm_model.pth (torch, 920802 bytes, 31 tensors)

normalize_lstm.weight_ih_l0 f4 [256, 49]
000000 55 fe 55 b8 ae 16 6a 38 f5 fc e9 35 d6 46 5a 39
       -5.1020023e-05 5.581107e-05 1.7433473e-06 0.00020816489
000010 51 86 00 b8 62 d3 1a 38 5f 98 a8 37 a4 b6 80 37
       -3.064267e-05 3.6913327e-05 2.0098114e-05 1.5343838e-05
000020 70 e1 c8 b7 f3 a1 63 b8 5e 26 ac b8 80 5e f7 b8
       -2.3946835e-05 -5.4271844e-05 -8.2087456e-05 -0.0001179548
000030 9f 30 b2 b8 02 f9 32 38 ad 03 6e 37 e7 b9 4d 37
       -8.496758e-05 4.2670414e-05 1.4186761e-05 1.2262236e-05
000040 87 f4 5b 38 08 5e 8e b7 48 35 ec 37 77 39 9a 37
       5.2441403e-05 -1.6971506e-05 2.8158203e-05 1.838499e-05
000050 3c c8 08 38 14 30 d9 b8 01 0a e6 b8 fe 83 18 b7
       3.261141e-05 -0.000103563216 -0.00010969118 -9.090638e-06
000060 db b3 e4 38 32 7d 9b b8 3b ce e9 b7 9c 1a d8 38
       0.00010905388 -7.4142954e-05 -2.7871798e-05 0.00010304639
000070 a7 a5 86 38 9f 96 66 b8 1a 3e 08 b8 21 b9 77 38
       6.420473e-05 -5.497655e-05 -3.2482763e-05 5.9061804e-05
000080 36 5e 14 b8 c7 e4 b6 b8 7a 10 13 37 98 78 13 b8
       -3.537369e-05 -8.7210494e-05 8.765719e-06 -3.5159843e-05
000090 37 63 9e b8 ff f1 a5 b7 08 08 82 b8 b3 15 c1 b7
       -7.552507e-05 -1.9782221e-05 -6.200379e-05 -2.3017497e-05
0000a0 73 5b 1d 36 33 30 48 38 92 ef 15 b8 db 44 dc b8
       2.3448054e-06 4.7728605e-05 -3.5747486e-05 -0.00010503243
0000b0 34 c0 f2 37 d8 2a b2 b8 02 27 4f 38 42 06 9f 36
       2.893815e-05 -8.495682e-05 4.9388975e-05 4.7392978e-06
0000c0 8f 3e 3e b8 ba a0 bd b7 22 45 83 38 14 c0 20 38
       -4.5357792e-05 -2.26054e-05 6.259444e-05 3.832586e-05
0000d0 b3 cf b8 b5 d4 57 72 b7 f8 e2 42 b9 d5 5a 30 b7
       -1.3769517e-06 -1.4444773e-05 -0.00018585834 -1.0511566e-05
0000e0 d6 8e 13 35 e1 bf 24 38 9e d7 a6 38 2e 1f ad b8
       5.496962e-07 3.9279348e-05 7.955659e-05 -8.2550905e-05
0000f0 00 16 dc b8 27 02 30 37 ab 44 ec 38 d2 af 16 38
       -0.00010494515 1.0490919e-05 0.00011266147 3.5926532e-05
000100 f9 86 bb b7 40 7c 20 b8 2c 3d 7b b8 22 d7 10 38
       -2.2354989e-05 -3.826269e-05 -5.9900034e-05 3.4532633e-05
000110 fd bb a8 b7 68 8a 77 b8 62 af a9 37 6e 45 79 b8
       -2.01147e-05 -5.901829e-05 2.0228039e-05 -5.9430888e-05
000120 7d 48 58 37 a2 7a b4 b7 19 b9 e9 b8 27 76 5f 38
       1.2891481e-05 -2.1514777e-05 -0.00011144783 5.327738e-05
000130 5d 0e 12 39 25 e7 1d 37 21 f6 6f b8 a3 c6 2d b8
       0.00013928996 9.411747e-06 -5.7211266e-05 -4.143141e-05
000140 7e 69 0a b7 30 68 ec b7 5e 4c 8f b7 72 6f a9 b8
       -8.250003e-06 -2.8181908e-05 -1.708249e-05 -8.079306e-05
000150 cb c8 1f b8 f0 bd 14 37 de 19 03 38 a0 c6 37 38
       -3.8095557e-05 8.865711e-06 3.1256925e-05 4.3815584e-05
000160 8b d1 30 38 ab 75 62 38 4b 3d 44 39 7f ed b5 b7
       4.2156822e-05 5.3992186e-05 0.0001871485 -2.1687474e-05
000170 14 7b 14 b8 a8 96 53 38 4b 74 af 38 9e 8e f0 38
       -3.5400575e-05 5.044663e-05 8.3663115e-05 0.00011470656
000180 8c 88 10 39 2b 52 5f b9 14 3d 22 38 ef d1 68 b8
       0.00013783778 -0.00021297547 3.8680693e-05 -5.5508626e-05
000190 bd 5a e3 b8 42 79 46 38 c2 8f fb b7 3c b3 aa 37
       -0.00010841105 4.731981e-05 -2.9988474e-05 2.0349042e-05
0001a0 f3 9a 23 38 0c 70 f1 37 a2 cb 38 37 93 07 85 b8
       3.9006536e-05 2.8781615e-05 1.1014667e-05 -6.343345e-05
0001b0 b8 62 45 b9 75 0f 11 37 da 60 79 38 9e 03 b3 b7
       -0.0001882416 8.646272e-06 5.9456426e-05 -2.1340147e-05
0001c0 e8 f5 3d 38 6b 7a 55 38 fe 4e ae 37 6f 29 ee 37
       4.529013e-05 5.0897168e-05 2.07792e-05 2.8391105e-05
0001d0 21 4e 42 37 2c b2 d1 37 5e c3 41 b9 5c 5f 68 b8
       1.1581492e-05 2.499771e-05 -0.00018478694 -5.540192e-05
0001e0 e0 73 a3 b8 9c 94 41 39 a0 e2 12 b8 78 80 f9 38
       -7.794029e-05 0.00018461276 -3.5020174e-05 0.000118971744
0001f0 cc 90 8e b8 0a 80 f8 37 ee e5 43 b9 ec 31 81 38
       -6.798058e-05 2.9623527e-05 -0.00018682305 6.160498e-05
000200 34 b3 74 b4 1e b0 96 b8 fa bc 01 b9 48 4e fd 37
       -2.2789465e-07 -7.185362e-05 -0.00012372798 3.0196403e-05
000210 07 66 02 b8 62 ae a9 b7 3c 6b bf b6 f7 86 0d 39
       -3.1089436e-05 -2.0227573e-05 -5.7047273e-06 0.00013497086
000220 1f 34 a0 38 7a 57 e0 38 49 f2 bb b8 82 a3 c8 37
       7.639103e-05 0.00010697446 -8.961984e-05 2.3917997e-05
000230 c4 f4 ee 38 30 dc 05 38 2c c6 87 b8 5f 5a c2 b7
       0.000113943155 3.1914737e-05 -6.474214e-05 -2.3168684e-05
000240 a3 18 e6 37 f4 ce 45 b7 86 ea 57 b7 86 98 e9 38
       2.7429609e-05 -1.17903e-05 -1.2869603e-05 0.000111387155
000250 98 f8 08 b8 5d 67 27 b6 7f 22 08 38 68 62 10 b6
       -3.2656448e-05 -2.4945105e-06 3.2457054e-05 -2.1514952e-06
000260 2b e4 25 b8 3d f4 86 b7 f7 de 63 38 79 bd 47 b8
       -3.9551564e-05 -1.6087777e-05 5.432867e-05 -4.7621757e-05
000270 75 3e b3 b7 5b 3f 1c b7 b6 f8 a8 38 a2 4c 58 b6
       -2.1367547e-05 -9.313076e-06 8.05719e-05 -3.2231114e-06
000280 41 9d 5b 39 74 16 cb 37 f5 e5 7c b8 b9 e9 eb 34
       0.00020944049 2.4209941e-05 -6.0295646e-05 4.3942217e-07
000290 51 9a 92 b8 9a 4d f9 b7 20 41 58 b8 19 08 c2 37
       -6.990566e-05 -2.971925e-05 -5.1559065e-05 2.3130373e-05
0002a0 83 9f a4 b7 29 5c d7 b7 8c 50 d5 37 c9 b8 97 38
       -1.9624602e-05 -2.5672913e-05 2.5429086e-05 7.23466e-05
0002b0 ce a7 7c 37 20 ff 96 37 09 7c 84 b7 99 7e 93 36
       1.5059441e-05 1.8000195e-05 -1.5793385e-05 4.3956793e-06
0002c0 48 08 0b 37 c8 09 4b 38 2a 16 4c 38 2b 8d 73 38
       8.286974e-06 4.840808e-05 4.8658032e-05 5.8067188e-05
0002d0 42 6a fe 38 35 e8 2d b8 82 0b a0 b8 14 6a f8 37
       0.00012131456 -4.1462674e-05 -7.631538e-05 2.96133e-05
0002e0 77 16 02 b8 dc 20 0d b9 92 c6 b2 b7 21 0f c0 b7
       -3.1015337e-05 -0.00013459049 -2.131172e-05 -2.2895229e-05
0002f0 8c c4 c9 35 85 32 0b b7 2e f0 98 b7 25 40 9b 36
       1.503287e-06 -8.296808e-06 -1.8231654e-05 4.6268274e-06
000300 07 02 e3 b7 68 27 38 37 18 a1 90 b8 39 83 05 37
       -2.7061453e-05 1.097643e-05 -6.896461e-05 7.95797e-06
000310 9b 13 d2 b7 6a 33 f0 b7 33 04 e7 b7 57 58 3d 39
       -2.504308e-05 -2.8634171e-05 -2.7539301e-05 0.00018057354
000320 ef fd 80 b8 0b 0f 5d b8 72 3b 95 b7 89 14 11 b8
       -6.1508144e-05 -5.2704516e-05 -1.7789866e-05 -3.458982e-05
000330 72 29 5d 37 00 d5 43 b9 a4 fd bf 37 a7 13 25 38
       1.3182276e-05 -0.00018675998 2.2887085e-05 3.935737e-05
000340 49 59 02 b5 37 e4 15 b9 58 59 35 b7 41 5a 0c 38
       -4.85587e-07 -0.00014294764 -1.0809243e-05 3.3462657e-05
000350 0d 04 e7 38 91 58 88 38 04 2c 0e 36 09 b6 8e b7
       0.00011015693 6.501482e-05 2.118527e-06 -1.7012486e-05
000360 fd 94 11 b8 33 86 e3 38 8e 90 a2 38 35 91 a0 37
       -3.470945e-05 0.000108492 7.7516874e-05 1.9141104e-05
000370 14 ea 5b b8 23 11 af b8 9a 99 94 b8 28 02 3b 35
       -5.243167e-05 -8.347842e-05 -7.0858005e-05 6.9666066e-07
000380 af a3 44 b8 c0 35 5c 37 f3 64 34 b7 90 8a 20 38
       -4.6882484e-05 1.31255365e-05 -1.075234e-05 3.827602e-05
000390 2b a3 38 37 25 c1 a7 38 e6 a3 a2 38 51 5e 35 b8
       1.1005245e-05 7.9991565e-05 7.7552904e-05 -4.32416e-05
0003a0 0a ea c6 b7 94 bf ef b7 2b ef a5 37 ac 3e dc b7
       -2.3712422e-05 -2.858023e-05 1.9780904e-05 -2.6255228e-05
0003b0 1a 66 3f b7 b5 22 bf b8 50 40 ee b8 6b c6 81 b8
       -1.14082595e-05 -9.1140544e-05 -0.000113607035 -6.1881576e-05
0003c0 5a 1a e7 b7 d9 b9 23 38 bc 74 80 38 1e dd c0 b7
       -2.7549617e-05 3.9035313e-05 6.125259e-05 -2.299115e-05
0003d0 3d ba 06 38 f4 8c 92 37 19 b1 0d 39 e0 41 3d b8
       3.2121538e-05 1.7470193e-05 0.00013512782 -4.5122462e-05
0003e0 32 86 8c b7 c6 69 18 39 7e 5b 84 b7 62 23 52 b8
       -1.675179e-05 0.00014535253 -1.577823e-05 -5.0100854e-05
0003f0 3e a1 45 b8 8f 68 d3 37 a2 ed 80 38 d3 fd 26 37
       -4.711863e-05 2.5201849e-05 6.147778e-05 9.953469e-06

normalize_lstm.weight_hh_l0 f4 [256, 64]
000000 9f d0 2c b8 a9 40 00 b6 93 b1 04 38 68 19 fa b7
       -4.120229e-05 -1.9111123e-06 3.163663e-05 -2.9814153e-05
000010 70 e4 44 39 6d 42 e7 b6 f1 c9 16 39 c1 bf 26 38
       0.00018777116 -6.8920695e-06 0.00014380344 3.975607e-05
000020 c6 23 e4 b8 0a 06 12 b8 3b b5 a1 37 bc 65 6f b7
       -0.000108785505 -3.4814737e-05 1.9277088e-05 -1.4269197e-05
000030 71 a8 41 b8 c2 5d 18 b9 d0 9c 7a 38 44 47 c0 38
       -4.617166e-05 -0.00014530777 5.9750688e-05 9.168548e-05
000040 a9 cd 2f 38 99 8e df 38 0e 0f d3 38 05 e3 15 39
       4.1914787e-05 0.000106600295 0.00010064068 0.00014294319
000050 da eb 87 37 3a 17 f8 37 77 e0 34 38 6e fb c2 34
       1.6203081e-05 2.957472e-05 4.3124393e-05 3.6318255e-07
000060 43 24 9d 38 d5 a5 48 b8 62 4a c0 38 c5 5e 6c 35
       7.493098e-05 -4.783816e-05 9.169128e-05 8.805476e-07
000070 09 2e 7d 38 f8 c2 cf b8 f1 f3 e0 b7 5f 6e 43 39
       6.0362774e-05 -9.906845e-05 -2.6816475e-05 0.00018637766
000080 79 ea dd 37 c7 ba f6 37 88 39 ff b8 70 d8 50 b8
       2.6454438e-05 2.941246e-05 -0.000121700636 -4.9792638e-05
000090 15 7c 6e 38 a8 34 10 b8 5d 73 83 b8 2e a2 31 38
       5.6859182e-05 -3.4381315e-05 -6.268055e-05 4.235113e-05
0000a0 68 40 97 38 94 31 31 38 81 91 91 b7 be 37 60 b7
       7.212238e-05 4.224626e-05 -1.7353103e-05 -1.3364419e-05
0000b0 8f 02 00 38 03 a8 99 b7 49 1f 93 b7 ea 19 3c 35
       3.051996e-05 -1.8317258e-05 -1.7538334e-05 7.007317e-07
0000c0 f0 69 10 b8 19 4b 4e 38 bf 91 8f 35 55 c1 53 38
       -3.4430937e-05 4.9184167e-05 1.0696748e-06 5.0486375e-05
0000d0 8f 5d 73 b8 f4 57 fd 37 3a 68 e9 b7 23 8e 60 38
       -5.8022848e-05 3.0200907e-05 -2.7824299e-05 5.3538137e-05
0000e0 c6 dc fe b7 32 65 fd b7 29 f0 48 b8 f9 ce 94 b7
       -3.0381965e-05 -3.0207073e-05 -4.7907382e-05 -1.7739354e-05
0000f0 54 5d 43 39 30 f3 fa 37 94 ab d3 37 35 38 bc 37
       0.00018631417 2.9915565e-05 2.5233057e-05 2.243752e-05
000100 6c 77 94 b8 40 9b 67 b8 ee 7c a2 37 cf b4 61 b8
       -7.079434e-05 -5.521928e-05 1.937008e-05 -5.381257e-05
000110 2f 91 d8 b8 c9 a3 0b b7 86 6f 07 39 b2 2d ee b7
       -0.00010326725 -8.32318e-06 0.00012916149 -2.839309e-05
000120 79 b5 0e 39 0f f5 7f 37 90 7b ad b6 b2 24 85 37
       0.00013609779 1.5256242e-05 -5.1701863e-06 1.5871923e-05
000130 d3 6f a8 36 20 a3 9c 36 2f f7 40 37 c1 2c 12 b9
       5.019808e-06 4.6681525e-06 1.1501644e-05 -0.00013940317
000140 67 14 9a b8 74 b8 0d b8 2d af 7c 37 77 be ae 37
       -7.3470925e-05 -3.3788805e-05 1.5061157e-05 2.0831108e-05
000150 76 6c 23 38 99 4c 68 b7 48 49 d8 b7 c9 8e e6 b8
       3.896324e-05 -1.3846112e-05 -2.578333e-05 -0.000109938504
000160 7c c1 9a 38 88 58 49 36 a3 5f 19 b9 f6 b4 bf 37
       7.3793315e-05 3.0002866e-06 -0.00014626844 2.285324e-05
000170 c9 90 cc b8 9f 5f 67 b8 22 65 80 38 30 32 e8 37
       -9.7544464e-05 -5.5163746e-05 6.122353e-05 2.7679926e-05
000180 d1 75 8c b8 01 04 8f b7 6f 68 5e 39 75 39 58 37
       -6.697665e-05 -1.7048793e-05 0.00021210474 1.2887981e-05
000190 c8 f8 40 39 10 2f 73 38 e6 b2 23 b7 a0 a8 b7 b8
       0.00018403225 5.7979545e-05 -9.75721e-06 -8.757529e-05
0001a0 15 1b 75 b8 2a 9e 9f 38 1a 1c e9 37 65 c3 20 39
       -5.8437774e-05 7.611171e-05 2.778885e-05 0.00015331579
0001b0 d9 1a f4 37 a9 52 d3 38 0c 84 a3 b8 a9 a2 e4 b7
       2.9099569e-05 0.00010076661 -7.797041e-05 -2.7255463e-05
0001c0 e0 1f 81 38 4c 6f a9 38 62 3b ec 37 8c 86 6d 38
       6.1571365e-05 8.0792786e-05 2.8161045e-05 5.663051e-05
0001d0 0d df 27 b8 b1 49 22 b8 63 cf 40 b8 37 0a 81 b8
       -4.0023635e-05 -3.869244e-05 -4.596951e-05 -6.153102e-05
0001e0 af ba 4a 38 23 60 10 b8 a0 ec 93 37 4e 80 47 38
       4.8334416e-05 -3.442181e-05 1.7633953e-05 4.756479e-05
0001f0 83 b9 aa b8 ca a1 48 b8 0c ee 7f b8 10 81 b4 b7
       -8.140786e-05 -4.7834394e-05 -6.1018436e-05 -2.1517772e-05
000200 af bf 46 37 81 50 96 b8 84 f5 13 b8 a5 56 7d b8
       1.18463495e-05 -7.1675524e-05 -3.5276185e-05 -6.0400595e-05
000210 08 9e 81 b8 1e 43 85 36 54 4f e0 38 91 87 e3 b8
       -6.180635e-05 3.9715223e-06 0.00010695928 -0.00010849455
000220 24 13 ff 37 ba b8 bb b6 fd 60 80 b5 58 37 0f b8
       3.0407282e-05 -5.5945393e-06 -9.56497e-07 -3.41454e-05
000230 e7 11 5e b8 20 9b 44 b8 c4 b6 cc 37 ce 3b 9c 38
       -5.2945597e-05 -4.6874513e-05 2.4403802e-05 7.449799e-05
000240 57 57 93 b8 e3 1d 04 b8 9a 91 a2 38 d5 74 b5 38
       -7.0257745e-05 -3.1499087e-05 7.7518824e-05 8.652514e-05
000250 0e 4c bf b7 bd 71 97 38 29 6e f4 37 0b 58 e5 38
       -2.280439e-05 7.2214265e-05 2.9138364e-05 0.0001093597
000260 b9 e6 de 36 8e 3a b3 38 0f b0 9e b8 1c 67 12 37
       6.642975e-06 8.546292e-05 -7.5668206e-05 8.726285e-06
000270 a5 61 15 38 31 81 ac 38 dd 19 0b 38 a7 e5 14 39
       3.5615307e-05 8.225663e-05 3.316427e-05 0.00014199932
000280 44 a1 56 38 ff a1 20 38 aa 27 3d 38 ce cd a1 b7
       5.1171766e-05 3.8297843e-05 4.509805e-05 -1.928853e-05
000290 35 d7 f1 b7 bf 30 3a 38 a3 6d 63 b8 7b 09 46 b8
       -2.8829652e-05 4.4391254e-05 -5.4223125e-05 -4.7215708e-05
0002a0 65 88 4b 38 7d 84 3d b8 bf 89 0a b8 0b 28 fc b7
       4.8526e-05 -4.51845e-05 -3.303005e-05 -3.0059387e-05
0002b0 3e 95 c3 37 84 13 45 37 73 15 d5 38 4f 27 88 b7
       2.3315308e-05 1.1746659e-05 0.00010160627 -1.6230768e-05
0002c0 d3 95 ce 37 16 e9 de b7 a1 78 7a b8 a5 52 0e b8
       2.4626881e-05 -2.6573001e-05 -5.971699e-05 -3.3932407e-05
0002d0 8f 73 90 b8 3d 52 45 b9 c9 d2 a6 b4 9c 6d 62 38
       -6.8879795e-05 -0.0001881802 -3.1073276e-07 5.398468e-05
0002e0 d3 73 a3 37 e5 28 45 39 8c 24 37 b8 80 17 d4 38
       1.9485049e-05 0.00018802618 -4.3664637e-05 0.00010113325
0002f0 9f fe 34 38 e6 df 87 b8 7e 7d a1 38 de 40 8d 38
       4.315248e-05 -6.479006e-05 7.700453e-05 6.7354864e-05
000300 1c db cc 38 18 27 07 b9 16 0d aa 38 fa b7 8a 38
       9.76829e-05 -0.00012889167 8.108669e-05 6.614621e-05
000310 9d 3e 0e b7 ec 68 36 38 d9 b7 4c b7 be 09 0b b8
       -8.478438e-06 4.3489898e-05 -1.2202153e-05 -3.3149256e-05
000320 73 2a 37 38 54 dc 88 38 00 f2 a9 38 7e d4 be b8
       4.3670134e-05 6.526025e-05 8.103624e-05 -9.099486e-05
000330 20 8e 8a 35 46 ba fb b7 25 04 68 37 38 18 39 38
       1.0323165e-06 -3.0008272e-05 1.3829243e-05 4.4129993e-05
000340 e4 79 b4 b8 fa 9e 61 38 3d d6 c7 38 19 88 92 37
       -8.605773e-05 5.379224e-05 9.5289644e-05 1.7467932e-05
000350 ce 4d db b6 5f d8 de b7 70 a9 d3 38 49 43 68 38
       -6.5357663e-06 -2.6565218e-05 0.00010092824 5.5375775e-05
000360 38 82 16 b8 29 d0 bf b7 b3 8d 1a 38 84 6e aa b8
       -3.5884063e-05 -2.2865906e-05 3.684843e-05 -8.126817e-05
000370 2e a4 1a b9 e0 8a f6 b7 80 97 5b b8 45 c5 19 38
       -0.00014747746 -2.9390154e-05 -5.2354764e-05 3.6661764e-05
000380 e6 43 30 b8 73 00 8d 38 91 6c 00 37 40 a0 99 36
       -4.2024905e-05 6.7234876e-05 7.654672e-06 4.578411e-06
000390 f1 25 e6 b7 94 7b cc b8 92 39 04 38 a1 58 df 37
       -2.7435804e-05 -9.750496e-05 3.152487e-05 2.6624943e-05
0003a0 d9 eb 86 b7 f3 a1 5d 38 08 8e 5f b8 af f3 2b b8
       -1.608387e-05 5.2841333e-05 -5.329962e-05 -4.0996525e-05
0003b0 79 ee ed b8 12 01 3f 39 f9 e3 fb b7 4e 52 ea b7
       -0.0001134546 0.00018215578 -3.002769e-05 -2.79333e-05
0003c0 0d 9e d9 b8 f7 7e 48 b9 a6 c6 62 37 ee 97 93 37
       -0.000103768056 -0.00019120784 1.3516901e-05 1.7594513e-05
0003d0 99 1c 44 37 d9 9b ed 38 98 d4 b2 37 8d ec 05 39
       1.1689169e-05 0.000113300695 2.131825e-05 0.0001277199
0003e0 d9 ef 6e b8 20 82 b9 b6 71 69 96 38 c3 0b c6 37
       -5.6966997e-05 -5.528578e-06 7.1721974e-05 2.3608916e-05
0003f0 53 48 23 b8 76 ac 07 37 36 ad 88 b6 1b ff 30 b8
       -3.8929586e-05 8.086781e-06 -4.0732803e-06 -4.2199255e-05

normalize_lstm.bias_ih_l0 f4 [256]
000000 e2 9b 4b b8 c1 d4 a0 b8 8f 74 4d 38 f2 94 a9 b8
       -4.854415e-05 -7.669023e-05 4.8984362e-05 -8.086291e-05
000010 bc 16 0f 38 7e 89 c1 b8 ad d1 bf b8 1c c6 53 b8
       3.411503e-05 -9.228567e-05 -9.146645e-05 -5.0490824e-05
000020 2d 02 87 b8 ff 9d 1e b5 25 69 59 b8 62 bd a2 36
       -6.437707e-05 -5.90895e-07 -5.1834755e-05 4.8500233e-06
000030 f8 c4 12 b7 8d e2 42 b8 ab 7c 47 38 f9 f2 88 38
       -8.7481385e-06 -4.6464196e-05 4.7561403e-05 6.5302425e-05
000040 ab ac d8 38 41 fc e4 38 f2 21 dd b8 d2 09 85 38
       0.000103318445 0.00010918873 -0.00010544424 6.3437634e-05
000050 8d 3b ae 38 d6 cc 86 b8 44 1d dd 38 d4 4a 0b b8
       8.308059e-05 -6.4277716e-05 0.00010543552 -3.320987e-05
000060 72 78 0d 38 4b 56 01 37 eb 01 06 b6 5c 73 fe 37
       3.3729193e-05 7.709091e-06 -1.9968672e-06 3.0332878e-05
000070 0e 67 c3 34 4d c8 ca 37 c1 d7 db 38 5e ec 1a 39
       3.6396563e-07 2.4173549e-05 0.00010482921 0.00014774638
000080 84 04 e1 b7 da 09 5c b8 54 c5 c7 38 53 c0 02 38
       -2.6824193e-05 -5.2461262e-05 9.525815e-05 3.117353e-05
000090 6e 67 5e 37 b0 a9 44 b9 dc b2 03 b9 cc 20 b6 37
       1.3256313e-05 -0.0001875523 -0.00012559764 2.1711363e-05
0000a0 8d 94 b5 b8 05 67 12 b9 f4 ab 7b 38 b3 45 e1 37
       -8.658422e-05 -0.00013962023 6.0003207e-05 2.6854546e-05
0000b0 7c 63 07 b8 25 6b a2 b8 7e b8 f7 b8 73 c8 3d b8
       -3.227916e-05 -7.744719e-05 -0.00011812242 -4.5247794e-05
0000c0 2b 55 e4 b7 a8 0d d7 b4 ef d8 8c b7 17 56 ce b6
       -2.7219377e-05 -4.0056807e-07 -1.6790318e-05 -6.1493006e-06
0000d0 b8 9f 81 37 66 ad 46 38 25 78 06 38 9e ac cc b7
       1.5452373e-05 4.736837e-05 3.2059983e-05 -2.4399076e-05
0000e0 51 7b 70 38 69 fe f4 b7 57 29 50 38 cc 32 b7 38
       5.7335306e-05 -2.9205536e-05 4.9629565e-05 8.735582e-05
0000f0 1a 15 62 38 0a 62 d3 b7 75 12 2e 37 d2 83 75 b7
       5.390225e-05 -2.5198813e-05 1.0375506e-05 -1.463383e-05
000100 71 8c 5f b8 7a 97 01 b8 19 f1 88 38 44 c2 19 39
       -5.329814e-05 -3.089707e-05 6.529893e-05 0.00014663587
000110 11 dc 1c 38 6e e5 14 b8 e3 a0 6a b8 3e ed 84 38
       3.739825e-05 -3.5499623e-05 -5.5939785e-05 6.33844e-05
000120 27 c1 fd 37 db 1e dd b7 8e d6 08 38 52 03 96 b8
       3.0249894e-05 -2.6359621e-05 3.2624746e-05 -7.153176e-05
000130 c1 5b e4 b8 af 53 a6 38 ec d5 5b b9 e2 b5 0d b8
       -0.00010888978 7.931084e-05 -0.0002096516 -3.378641e-05
000140 de b0 c3 b7 bc 5a 8b 38 af ea 4a 38 61 75 6a 38
       -2.3328172e-05 6.644937e-05 4.837912e-05 5.5899265e-05
000150 9b c2 a3 37 e3 08 f3 37 73 5b 44 b6 47 e7 80 38
       1.9521734e-05 2.8971996e-05 -2.9259506e-06 6.1465944e-05
000160 11 2a 26 b8 74 06 aa b8 66 d6 29 37 6e 7d 48 37
       -3.961666e-05 -8.107434e-05 1.01231035e-05 1.1950133e-05
000170 96 90 e6 b8 48 e4 11 38 b8 d2 6f b8 c0 bc af b7
       -0.00010994186 3.4783297e-05 -5.7178288e-05 -2.094952e-05
000180 13 69 6b 38 fa 72 ad 36 8b 7f 60 36 f3 61 7d 38
       5.6126224e-05 5.169187e-06 3.345284e-06 6.0411123e-05
000190 b8 91 8e b8 85 ab 09 38 5f 42 24 b7 8f 3c 7f b8
       -6.79823e-05 3.2823085e-05 -9.790615e-06 -6.0853137e-05
0001a0 4f 88 c3 b8 69 ae 37 38 1b d0 8f 38 03 80 45 b9
       -9.323714e-05 4.3793032e-05 6.857534e-05 -0.00018835072
0001b0 dc 82 10 b8 13 39 63 38 4b a5 1a 39 dd 70 fe 32
       -3.4454148e-05 5.4174172e-05 0.00014748161 2.9620816e-08
0001c0 53 48 ed b7 53 60 aa b8 ee 1d 5b b7 69 69 16 39
       -2.828628e-05 -8.1241735e-05 -1.3060386e-05 0.00014344383
0001d0 f9 98 9f b8 b3 3a 8e b8 c4 88 60 38 c3 82 37 38
       -7.610204e-05 -6.782021e-05 5.3533135e-05 4.375238e-05
0001e0 e9 c9 0a b7 ed 6c 82 b8 92 3e 8c 37 3d 68 79 b8
       -8.272452e-06 -6.219172e-05 1.6718437e-05 -5.9463306e-05
0001f0 c1 90 dd b8 65 fb 62 37 42 32 80 38 8d 40 82 b8
       -0.00010565064 1.3529182e-05 6.112877e-05 -6.2109066e-05
000200 11 c6 0b 38 8f ab b4 b7 be df af b8 70 11 5e b7
       3.3324646e-05 -2.153756e-05 -8.3863255e-05 -1.3236291e-05
000210 fc 46 ad b8 3f 36 5a 38 14 1d 1a b9 ff 66 80 b8
       -8.262505e-05 5.202577e-05 -0.00014697417 -6.1227e-05
000220 ee e6 b6 38 ce 6e c2 b5 4d 9d 95 38 40 5a 27 37
       8.72145e-05 -1.4486375e-06 7.134173e-05 9.974989e-06
000230 6a 81 58 39 4d eb 3b 38 46 cd cb b8 b2 65 1d b8
       0.00020647576 4.4803415e-05 -9.7180295e-05 -3.7526428e-05
000240 61 c4 b3 b7 2a ff 9f 38 4f 00 6f 36 ba 06 33 b8
       -2.1429909e-05 7.629239e-05 3.5613955e-06 -4.268319e-05
000250 5b ad 43 b9 b3 71 64 37 f8 ba 41 b9 0b 47 a3 b8
       -0.00018661229 1.3616332e-05 -0.00018475566 -7.7856785e-05
000260 56 79 23 38 13 b2 f3 b8 81 6f 10 39 a2 c5 a9 b7
       3.897523e-05 -0.00011620312 0.00013774449 -2.02384e-05
000270 d0 50 9e 38 55 0f db 38 ea 22 50 b4 b9 30 07 b8
       7.5490796e-05 0.000104455896 -1.9384211e-07 -3.2231885e-05
000280 47 4f 0c b8 0e 63 8c b7 59 51 98 35 fe f0 82 b8
       -3.3452434e-05 -1.6735426e-05 1.1348558e-06 -6.243771e-05
000290 21 61 e3 b8 1e 8b 04 b8 56 bb bb 38 c3 83 e7 b7
       -0.00010842295 -3.1600815e-05 8.951749e-05 -2.7598702e-05
0002a0 86 24 9c b6 1d aa 82 b8 76 fb d8 b7 68 cd f0 b7
       -4.653414e-06 -6.230569e-05 -2.5866302e-05 -2.870588e-05
0002b0 3d f5 1c 37 69 75 b9 38 e0 8c ff b7 82 12 ad b8
       9.355424e-06 8.843357e-05 -3.0463969e-05 -8.25273e-05
0002c0 22 fb 23 b7 0e 21 1b 37 79 82 a3 36 a9 37 6d 36
       -9.7740285e-06 9.246416e-06 4.8729676e-06 3.534815e-06
0002d0 f4 d6 b2 37 f4 94 23 b8 43 7e 11 38 f0 7e 13 38
       2.1319349e-05 -3.900095e-05 3.4688284e-05 3.516575e-05
0002e0 ae 03 57 b8 f3 cc 6f b8 d5 c4 0c b8 a8 13 85 38
       -5.126342e-05 -5.7172914e-05 -3.3561915e-05 6.3455955e-05
0002f0 eb 84 b4 36 80 c9 91 38 12 0a 0f 38 1e 40 1d 38
       5.3798917e-06 6.951671e-05 3.4103236e-05 3.749143e-05
000300 34 b9 16 b9 da 2c 77 38 a2 29 b2 b8 b9 df 75 38
       -0.00014374108 5.893116e-05 -8.495456e-05 5.862091e-05
000310 ef 4e bd 37 dd 57 0e 39 06 5d e1 38 58 a6 a5 b8
       2.2567312e-05 0.00013574907 0.00010746163 -7.898797e-05
000320 95 47 77 35 f2 b0 83 38 9e 22 90 36 7d 22 64 b8
       9.2118836e-07 6.2795254e-05 4.2955644e-06 -5.4391556e-05
000330 3c 60 20 38 22 16 8f b8 52 1e f8 b8 0e 2f 8e 38
       3.8236598e-05 -6.822894e-05 -0.00011831209 6.779852e-05
000340 98 14 0f 38 8d 09 57 38 27 54 38 38 d0 65 9e b7
       3.4113036e-05 5.126889e-05 4.394739e-05 -1.8882478e-05
000350 ca 13 be 38 68 66 c8 b6 53 95 8a 38 9c 66 49 37
       9.063592e-05 -5.972386e-06 6.6081666e-05 1.2004424e-05
000360 97 1e bd 32 b5 15 59 38 cc 78 14 b8 38 7d bb b7
       2.2016406e-08 5.1757048e-05 -3.539845e-05 -2.2350447e-05
000370 d9 01 0c b8 6e a8 54 b8 41 b3 dc 38 09 ba 97 b8
       -3.3380322e-05 -5.07016e-05 0.00010523806 -7.234893e-05
000380 6b ef 01 38 f0 d5 29 38 cd 4d 9e b7 1b 7a 38 b8
       3.0978972e-05 4.0491985e-05 -1.8871297e-05 -4.3982738e-05
000390 7c b5 f3 38 fa 69 18 b8 f6 ff dc 38 93 87 84 38
       0.00011620947 -3.6338322e-05 0.00010538094 6.319503e-05
0003a0 25 0e 41 35 68 5f ed b6 b0 d0 e2 b8 7b 23 70 b7
       7.1918686e-07 -7.074257e-06 -0.00010815391 -1.4313376e-05
0003b0 50 bd 2a b7 b3 5c a0 38 1c 05 27 b8 a6 5e 63 b8
       -1.0176867e-05 7.646661e-05 -3.982066e-05 -5.4209166e-05
0003c0 8f 2c e3 38 10 ab 4b b8 ee 0e a1 38 f3 ae 50 38
       0.00010832503 -4.8558286e-05 7.679859e-05 4.9754e-05
0003d0 c9 28 95 b8 eb 54 45 37 9b dc a2 b8 82 96 8c b8
       -7.1124705e-05 1.17618865e-05 -7.765853e-05 -6.7037545e-05
0003e0 e7 01 0e b8 66 5e 8b b4 ed ff 45 39 2a a5 e4 36
       -3.385721e-05 -2.5959451e-07 0.00018882724 6.814157e-06
0003f0 67 97 ab 38 ee 50 58 b8 fe 5e 85 b8 cf c5 c8 b7
       8.182116e-05 -5.1573785e-05 -6.359628e-05 -2.393397e-05

normalize_lstm.bias_hh_l0 f4 [256]
000000 8d 7b 05 b6 bb f3 68 38 ff f6 de b8 56 d8 dc 38
       -1.989046e-06 5.5540102e-05 -0.000106317915 0.00010530713
000010 bb 29 8b 38 57 3b 7c 37 19 41 e4 b8 af 62 7f b8
       6.6358094e-05 1.5034187e-05 -0.000108840126 -6.0888644e-05
000020 db 3a e9 b6 62 c6 cf b7 d6 13 4f 38 7c 2d 84 38
       -6.950793e-06 -2.4768702e-05 4.937112e-05 6.3027226e-05
000030 1f 02 cf b7 9e fd 57 38 8e 28 69 36 1b 77 df 38
       -2.467731e-05 5.1496194e-05 3.4743312e-06 0.00010655654
000040 db 8a 88 b7 b0 c4 cc 37 97 34 db b8 21 0d 05 38
       -1.6277123e-05 2.4410285e-05 -0.000104525294 3.17219e-05
000050 4b 99 44 b9 5d 93 43 b9 bd 20 0e b9 60 a7 e5 38
       -0.00018749123 -0.00018651546 -0.00013554371 0.00010950747
000060 05 94 bc b8 5b 4a 7f b8 b9 5c af 37 5a df 30 38
       -8.992109e-05 -6.0865987e-05 2.0904803e-05 4.2169682e-05
000070 b7 c6 80 b8 76 a7 f5 37 0f df 2e b7 4e 1a b9 b8
       -6.140529e-05 2.9284256e-05 -1.0423143e-05 -8.826387e-05
000080 7f 84 b1 b7 90 8a a4 b8 0b 7f 2c b7 66 f7 a1 b7
       -2.1161743e-05 -7.845939e-05 -1.0281578e-05 -1.93079e-05
000090 cf 9f c4 36 37 fe 0d 38 98 86 34 38 5f 0a 13 b8
       5.8598594e-06 3.3853776e-05 4.3040694e-05 -3.505719e-05
0000a0 0c f4 da 37 f0 f0 0d 38 48 62 e7 b8 b8 43 ab 37
       2.6101268e-05 3.384141e-05 -0.00011033245 2.0416323e-05
0000b0 bc e6 a2 b8 84 32 1e b8 8d 6f ad 37 1d 64 0e b8
       -7.7677396e-05 -3.7717182e-05 2.0675152e-05 -3.3948676e-05
0000c0 f5 93 d8 38 39 ec 14 b8 78 ce 09 b8 4a 03 d3 b7
       0.00010327242 -3.550595e-05 -3.2855634e-05 -2.5154692e-05
0000d0 46 ab 07 b7 9e 1f c6 38 e1 59 8f b8 f5 3f 10 b9
       -8.086505e-06 9.447265e-05 -6.8355126e-05 -0.00013756736
0000e0 cd 6a da b8 03 05 f4 38 fa 84 0b b8 87 80 d7 36
       -0.00010414943 0.0001163576 -3.3264027e-05 6.422462e-06
0000f0 f6 27 81 37 26 6c 05 b8 23 b9 06 b8 71 5c 73 38
       1.5396607e-05 -3.1810392e-05 -3.212051e-05 5.8021807e-05
000100 ee 80 b5 38 45 4e b3 38 d4 b9 3c b8 57 b3 12 b8
       8.6547676e-05 8.549964e-05 -4.499576e-05 -3.4976136e-05
000110 04 01 98 b7 ff ca 38 b8 fd c3 e2 b8 ae f5 13 b8
       -1.8120285e-05 -4.4058073e-05 -0.000108130254 -3.5276338e-05
000120 42 ee c5 b7 63 74 81 37 dc 22 6a b8 37 45 33 b8
       -2.3595177e-05 1.5432195e-05 -5.5822413e-05 -4.2741387e-05
000130 5a b2 db b8 3c f4 a6 b7 7d d7 96 37 f8 22 ab b8
       -0.00010475954 -1.9902473e-05 1.7981738e-05 -8.160429e-05
000140 db 29 3d 39 21 02 45 b7 ac fc c4 37 8e 53 db 38
       0.00018040037 -1.1742611e-05 2.348268e-05 0.00010458297
000150 a6 74 41 b9 b8 16 83 38 e8 2c 9f 38 9b 8e 22 b8
       -0.00018449369 6.2507985e-05 7.590075e-05 -3.875662e-05
000160 73 a9 e7 b7 27 77 11 39 af b2 07 38 70 b2 d2 37
       -2.7616252e-05 0.00013872665 3.235292e-05 2.5117042e-05
000170 72 2c 12 b7 ee 36 c1 38 29 e5 ce 37 68 cb 83 37
       -8.712626e-06 9.2131886e-05 2.4663825e-05 1.5711135e-05
000180 6a 3d ed 36 11 07 06 36 87 50 25 38 fa 3b 14 b8
       7.0703e-06 1.997167e-06 3.9414062e-05 -3.5341807e-05
000190 ca 96 01 b8 4a 44 95 38 3c 15 4e b8 18 57 85 b7
       -3.089643e-05 7.1175935e-05 -4.9134003e-05 -1.5895392e-05
0001a0 57 2a 56 38 4a 1c 98 b8 90 c5 dd 37 a0 18 66 b8
       5.1061008e-05 -7.253194e-05 2.643725e-05 -5.4859207e-05
0001b0 ed ce 80 b8 36 1d a4 b7 01 e8 c4 37 1f af fd 37
       -6.1420586e-05 -1.9563926e-05 2.3473056e-05 3.0241497e-05
0001c0 51 df 2b 38 31 8e 9a b7 15 85 27 38 d2 42 22 36
       4.0977557e-05 -1.8424444e-05 3.9939845e-05 2.4178776e-06
0001d0 3d 12 de b7 b8 63 9f b8 7d 60 9a 38 ec ce 54 38
       -2.6472955e-05 -7.600285e-05 7.3612646e-05 5.073745e-05
0001e0 1b dd 0a 37 5b 65 2f 37 a8 98 35 b8 fa 4b 73 b8
       8.276921e-06 1.04544115e-05 -4.3295935e-05 -5.8006473e-05
0001f0 39 6d 16 b9 0e 6b 38 38 9b 77 6e b6 d7 a5 f1 b7
       -0.00014345803 4.396872e-05 -3.5534383e-06 -2.8806664e-05
000200 9a 22 ac 38 9a 8a fd b7 f9 4b dc 36 f9 51 00 b7
       8.208044e-05 -3.0224492e-05 6.5653553e-06 -7.64848e-06
000210 43 42 47 37 5b 4c 81 b8 46 ea 06 38 a0 3b 9a b8
       1.1876752e-05 -6.165422e-05 3.2166274e-05 -7.354398e-05
000220 b1 4f 01 b7 07 51 67 b8 04 99 0d b8 27 a5 d9 b7
       -7.707554e-06 -5.5150154e-05 -3.3759527e-05 -2.594532e-05
000230 67 6c dc b8 02 62 78 38 c2 04 e4 b7 8a a0 0b 38
       -0.00010510609 5.9219085e-05 -2.7181934e-05 3.3289696e-05
000240 4f 6b 4b b6 9e c2 1a 38 99 73 9c b8 ad a4 21 b8
       -3.031182e-06 3.6897713e-05 -7.4601914e-05 -3.8538758e-05
000250 25 b7 68 b8 66 d6 58 38 93 2b 80 38 fc 78 0e 38
       -5.5483677e-05 5.1698087e-05 6.111632e-05 3.3968114e-05
000260 4d 3a 4d 38 cf 62 3e b9 d4 2b 82 b8 81 bd dd 35
       4.8930106e-05 -0.00018156621 -6.207047e-05 1.6520936e-06
000270 fd 1c 66 b8 d5 43 e0 b8 44 78 09 38 28 12 dd 38
       -5.486327e-05 -0.00010693787 3.277535e-05 0.00010541483
000280 79 c9 42 b8 ec 9e 0a 38 08 ea 9e b8 1f f0 88 b8
       -4.644084e-05 3.304977e-05 -7.577619e-05 -6.5297114e-05
000290 35 96 09 b8 48 a3 d0 b7 0d db f5 37 43 d2 d1 b7
       -3.2803237e-05 -2.4871566e-05 2.930828e-05 -2.5012652e-05
0002a0 58 29 b6 37 1a 10 54 b8 f2 b5 f6 b7 0c ea b7 38
       2.1715343e-05 -5.0559735e-05 -2.941021e-05 8.7697146e-05
0002b0 b4 99 8c 38 9b 64 42 38 ed 18 64 b8 f8 dd 1d b6
       6.70435e-05 4.63469e-05 -5.438265e-05 -2.3524026e-06
0002c0 d1 9a b8 b7 01 e3 fa 37 60 ae a0 37 97 ed e6 38
       -2.2006601e-05 2.990803e-05 1.9154686e-05 0.00011011509
0002d0 c8 ac db b8 6a fc 6a b8 94 7b 0f b8 80 9f 74 38
       -0.00010474917 -5.6025026e-05 -3.4208948e-05 5.832268e-05
0002e0 31 bb 08 b6 34 70 ca b7 0e 59 7c 38 4d 07 89 38
       -2.037454e-06 -2.4132525e-05 6.016442e-05 6.534029e-05
0002f0 ad b1 57 b8 23 f6 ea b7 bb cd 83 b8 29 0f b8 38
       -5.1425468e-05 -2.800959e-05 -6.284887e-05 8.7766275e-05
000300 2a 8f 46 b9 4a cb 47 b7 8c b4 dc b7 39 ce 45 39
       -0.00018936084 -1.1908656e-05 -2.6310117e-05 0.00018864208
000310 ab 38 4e 38 ad 00 e7 37 72 06 e6 38 ee 6d 1c 39
       4.9167003e-05 2.753766e-05 0.00010968455 0.00014918271
000320 ef 55 38 37 a1 3e 8a b8 09 ec b1 b8 c2 1b 19 39
       1.0987263e-05 -6.592018e-05 -8.483983e-05 0.00014601558
000330 ea 45 aa b8 4c b6 8c 38 29 27 ab b8 ae 66 4f 38
       -8.119254e-05 6.709676e-05 -8.1612096e-05 4.9448274e-05
000340 61 a9 64 38 49 7f 0c b8 3e ef 46 39 c7 3c 45 b8
       5.4517182e-05 -3.3497145e-05 0.00018971876 -4.7025063e-05
000350 1c 1f 88 36 66 d8 3d 38 6b 3a 7a b5 73 18 f3 b6
       4.0567375e-06 4.526265e-05 -9.3217267e-07 -7.2448106e-06
000360 1d d5 95 b7 28 cb 07 38 08 0a 87 38 0c e8 8e 38
       -1.7861423e-05 3.2375712e-05 6.43917e-05 6.81431e-05
000370 61 34 27 b8 89 0e 41 37 f8 77 1d b8 06 73 c4 38
       -3.9864684e-05 1.1507081e-05 -3.7543447e-05 9.367433e-05
000380 14 df 1b 38 1b ec 84 38 7a 73 66 38 14 0f 99 b7
       3.7162637e-05 6.3382286e-05 5.494382e-05 -1.8246043e-05
000390 05 bd 68 38 62 8a 7f b8 06 12 83 b7 6d 6c 3e 38
       5.548915e-05 -6.0925617e-05 -1.562481e-05 4.540051e-05
0003a0 c9 49 1f b8 7c f8 1c b8 68 e8 bf 38 98 af 41 b7
       -3.7977272e-05 -3.7424717e-05 9.150879e-05 -1.154458e-05
0003b0 bc b9 14 38 66 ac e8 37 c3 5c 7f 38 5b f4 10 35
       3.545893e-05 2.7736834e-05 6.088313e-05 5.3999764e-07
0003c0 c9 41 12 b9 6d 93 92 b7 6f 47 83 b8 4b 3f 66 38
       -0.00013948152 -1.7473207e-05 -6.259872e-05 5.489522e-05
0003d0 dd d5 99 b8 e2 56 b2 37 0d d2 73 b8 4c 9e b4 37
       -7.335444e-05 2.1259712e-05 -5.813134e-05 2.1531385e-05
0003e0 c2 39 d3 b7 de 68 26 b8 6f 96 aa 37 57 8c 47 b8
       -2.5180056e-05 -3.967515e-05 2.033563e-05 -4.7576e-05
0003f0 96 9c 68 38 fa 6c 03 b5 fc 0e ab b8 e1 62 e7 b8
       5.5458942e-05 -4.8959885e-07 -8.1567065e-05 -0.00011033356

normalize_lstm.weight_ih_l1 f4 [256, 64]
000000 3b 4f 98 b8 13 f9 7f 38 20 d3 b6 b8 66 dc 07 b6
       -7.2626826e-05 6.1028706e-05 -8.7177614e-05 -2.0244856e-06
000010 ec d2 47 39 76 d8 37 37 6b 54 53 b7 39 fc 5b b8
       0.00019056693 1.0958049e-05 -1.2596235e-05 -5.244857e-05
000020 5c 0a 9b b7 a9 43 f9 b7 c6 4b 7a b8 ee 84 30 38
       -1.8482264e-05 -2.971462e-05 -5.9675214e-05 4.208547e-05
000030 87 18 2c 38 4a 8d 38 b8 c0 c9 d6 37 50 37 19 b9
       4.103084e-05 -4.4000604e-05 2.5604735e-05 -0.00014611823
000040 ef cf 00 35 02 17 3b 38 f0 52 56 38 57 66 8b b8
       4.79863e-07 4.4605702e-05 5.1098817e-05 -6.647099e-05
000050 39 ac 45 39 9a 8c 66 b7 7b 76 55 36 25 97 ad b7
       0.00018851542 -1.3741805e-05 3.1808438e-06 -2.069359e-05
000060 73 3d cd b8 41 9e 84 b6 3d 41 81 b8 f3 52 00 b8
       -9.7866076e-05 -3.9523297e-06 -6.163351e-05 -3.059483e-05
000070 50 b4 1a b8 b9 92 de b8 db 5c 81 b8 8b c4 81 37
       -3.688439e-05 -0.00010613114 -6.168495e-05 1.546952e-05
000080 38 bc 09 38 46 06 43 b7 a9 08 bc 36 d6 bc 16 b8
       3.2838638e-05 -1.1624366e-05 5.603845e-06 -3.5938654e-05
000090 00 db 0f 38 35 17 85 36 06 fc b2 b8 c6 fc 8f b7
       3.4297816e-05 3.9664105e-06 -8.5346444e-05 -1.7164635e-05
0000a0 5f c6 05 b8 52 c6 e4 37 a8 24 aa b8 9c 5a 40 37
       -3.189442e-05 2.7272068e-05 -8.1130594e-05 1.1465188e-05
0000b0 81 b8 2f b7 b0 35 92 38 01 6a 15 38 2c 66 6b b6
       -1.0473771e-05 6.9718226e-05 3.5623092e-05 -3.50772e-06
0000c0 60 ca c4 35 3d b6 bb b6 8d fd ae 38 df ea 75 38
       1.4662037e-06 -5.5942496e-06 8.344194e-05 5.8631293e-05
0000d0 3c eb 11 b8 67 9a b8 b8 cb fe d1 38 a3 56 16 39
       -3.4789773e-05 -8.8025634e-05 0.000100133555 0.0001433739
0000e0 76 60 08 39 45 7e fe b7 c0 a7 71 b8 e1 cc 32 38
       0.00013005905 -3.0337958e-05 -5.7615107e-05 4.2629315e-05
0000f0 d0 9d f6 b7 cc c9 2c 38 25 e9 b5 37 8b 32 dd 37
       -2.9398972e-05 4.1195934e-05 2.1685448e-05 2.6368789e-05
000100 a9 86 8a 38 d3 2c ca 37 a9 e0 72 36 44 34 c0 b8
       6.605435e-05 2.410115e-05 3.619158e-06 -9.165009e-05
000110 ff 92 5a b7 0e 57 05 38 9f ce 54 b7 8f b1 1b b8
       -1.3028038e-05 3.1790747e-05 -1.2684292e-05 -3.7120244e-05
000120 2a 1e 68 b7 74 3e dc 37 0c cf 0a 38 2c 25 3c b8
       -1.3835301e-05 2.6255126e-05 3.309459e-05 -4.4857312e-05
000130 6a e2 43 38 be 3a d5 37 69 2d 8c 37 1f 1e 4b b6
       4.6702487e-05 2.5418933e-05 1.6710446e-05 -3.026689e-06
000140 78 d8 84 b8 7a 49 a7 38 ed 91 44 b8 76 29 45 38
       -6.334571e-05 7.9768666e-05 -4.6865945e-05 4.7007074e-05
000150 0a 72 8c b7 f6 49 0b b8 ac 1c 15 b8 85 d3 62 b8
       -1.6742404e-05 -3.3209064e-05 -3.555107e-05 -5.407959e-05
000160 0b 58 27 38 b9 1a dd 37 25 81 a6 b8 25 73 bf b8
       3.98979e-05 2.6357697e-05 -7.939552e-05 -9.129037e-05
000170 70 c7 c5 b7 4b 20 0e b8 f4 90 11 b8 fe 71 57 b7
       -2.35771e-05 -3.3885513e-05 -3.4705692e-05 -1.28415395e-05
000180 80 cc e2 b8 50 bc 88 b8 75 b7 ea 38 03 7e 59 39
       -0.00010814611 -6.520061e-05 0.00011192161 0.00020741676
000190 5d 0e 45 39 6e 32 11 38 37 1a c0 b8 07 40 06 b9
       0.00018792735 3.461766e-05 -9.160156e-05 -0.00012803088
0001a0 2a 63 45 b9 c9 b5 d7 37 b3 05 49 39 61 56 85 b6
       -0.00018824326 2.5714648e-05 0.00019170977 -3.9737647e-06
0001b0 e9 64 b8 38 ba fb 17 39 aa e5 07 b8 d3 2e 41 b9
       8.7926e-05 0.00014494258 -3.24004e-05 -0.00018423358
0001c0 25 d9 19 38 ae 95 ba 38 bf 5f 10 38 46 07 1a 39
       3.6680274e-05 8.897051e-05 3.4421446e-05 0.00014689294
0001d0 69 21 2b b8 8e 78 85 b8 64 c4 34 37 4b e0 5b 38
       -4.0800693e-05 -6.364389e-05 1.0774562e-05 5.2422558e-05
0001e0 05 80 5a 39 e0 a0 95 b6 82 ce 0e b8 dc c2 7b b8
       0.00020837791 -4.4592744e-06 -3.4047764e-05 -6.002454e-05
0001f0 21 ff 36 b7 21 c5 20 b8 e0 47 fd b7 63 07 71 37
       -1.0907447e-05 -3.8330563e-05 -3.019342e-05 1.4366439e-05
000200 2e 5d 5b 39 f9 d2 8b 37 58 0a 3a 38 2b 11 96 b8
       0.0002092018 1.6668333e-05 4.435549e-05 -7.155755e-05
000210 1f fe 3a 36 9a 89 5b b8 bb 8d 63 b8 16 17 fd b8
       2.7864078e-06 -5.234182e-05 -5.4253014e-05 -0.0001206828
000220 10 08 46 b8 0c 44 33 b8 5a 82 9b b7 43 74 cd b7
       -4.7214387e-05 -4.27403e-05 -1.853814e-05 -2.4492043e-05
000230 b1 b1 9c b7 c1 81 6a 38 5a b6 be 37 8f fc b7 b8
       -1.8679393e-05 5.591079e-05 2.2734679e-05 -8.773163e-05
000240 04 d8 66 38 4f 12 e9 38 ae 82 a7 b8 f1 95 e2 38
       5.5037453e-05 0.00011113716 -7.9875215e-05 0.000108044485
000250 62 a1 a8 36 81 5c b2 37 99 7f 7d 38 62 be ae 37
       5.0255776e-06 2.1262329e-05 6.0438735e-05 2.083107e-05
000260 02 f7 43 b9 02 0f 40 38 ea 91 dc 38 0b 13 10 36
       -0.00018688667 4.5790344e-05 0.00010517596 2.1468757e-06
000270 d1 0f 8d 38 c4 8b 66 b7 a1 a3 de b7 07 26 bc 38
       6.72635e-05 -1.374161e-05 -2.6540658e-05 8.971622e-05
000280 32 29 1b 38 c2 d8 15 38 59 27 63 b6 0a f2 38 b8
       3.6993246e-05 3.572624e-05 -3.384854e-06 -4.4094435e-05
000290 99 f6 66 37 d6 f3 b7 34 e9 19 6a b7 c2 02 10 b8
       1.3766484e-05 3.426382e-07 -1.395352e-05 -3.4334844e-05
0002a0 dd 6c 79 b8 db 69 6b 38 8c b5 e6 36 30 ba 84 b8
       -5.9467613e-05 5.612695e-05 6.875669e-06 -6.3289306e-05
0002b0 7b d0 06 39 4e f9 7d 38 03 39 de 37 8b 3c a2 37
       0.00012856901 6.0552084e-05 2.649101e-05 1.9340097e-05
0002c0 13 93 b4 37 36 92 5d 39 f6 92 d1 b8 42 c4 da b7
       2.1526159e-05 0.0002113067 -9.99327e-05 -2.6079015e-05
0002d0 a0 f2 18 b9 74 c1 b4 37 1b d5 9f 36 b5 cd 0e b9
       -0.00014586234 2.1547756e-05 4.763378e-06 -0.00013618807
0002e0 c0 87 e5 b8 84 cf 93 38 47 2a cb 37 ff 11 3b b8
       -0.00010944856 7.048159e-05 2.4219173e-05 -4.4601034e-05
0002f0 b2 db e4 38 83 ec ab 37 3f 3c d4 b6 0d b6 a1 37
       0.00010912809 2.0494923e-05 -6.325106e-06 1.927747e-05
000300 79 a8 ad b8 52 3b 2d b8 76 57 5f 38 37 d5 60 b8
       -8.280663e-05 -4.130166e-05 5.3248797e-05 -5.3604334e-05
000310 b5 c0 c3 38 5f 96 58 b7 44 92 b8 b8 9a 2e 58 38
       9.334219e-05 -1.2909614e-05 -8.801048e-05 5.1541814e-05
000320 17 7d 95 b6 fb 77 24 38 89 42 a6 b8 9c b5 8c 38
       -4.4551084e-06 3.9212387e-05 -7.92789e-05 6.7095476e-05
000330 d2 f8 37 37 01 b6 68 38 a1 18 5f b8 29 b2 15 b8
       1.0965583e-05 5.5482615e-05 -5.319028e-05 -3.5690293e-05
000340 2e 77 d5 36 d5 92 a6 b8 b3 6c dd 34 79 10 06 37
       6.361769e-06 -7.9428464e-05 4.1243547e-07 7.990858e-06
000350 e5 e8 e1 b4 6f c1 44 b8 62 ea 84 b7 44 dd e1 b7
       -4.207897e-07 -4.691019e-05 -1.584477e-05 -2.6925125e-05
000360 1f f0 e6 b8 42 8c 96 b8 85 76 5d b7 9b a5 1d b8
       -0.00011011981 -7.1786824e-05 -1.32002215e-05 -3.758595e-05
000370 2e 9a 68 b8 a5 21 3e b8 d1 a9 68 38 5a 6e 1d b7
       -5.54567e-05 -4.5330864e-05 5.5471264e-05 -9.3836225e-06
000380 d0 18 11 39 47 e0 f8 36 23 22 b8 37 14 3b fe 38
       0.00013837521 7.4170853e-06 2.1950405e-05 0.00012122668
000390 97 ab 46 37 f4 4b 30 b8 6b e6 4a 38 8c 23 2e b8
       1.1841671e-05 -4.2032407e-05 4.8375146e-05 -4.151794e-05
0003a0 ec d5 bb b8 24 82 83 38 af dd 77 38 75 a8 9d b8
       -8.956701e-05 6.270807e-05 5.9095848e-05 -7.517721e-05
0003b0 fc d7 c1 b7 3d ff d3 37 e6 db a3 38 02 eb 82 b8
       -2.3107968e-05 2.5272015e-05 7.813405e-05 -6.242657e-05
0003c0 7b aa 5d 39 ed e8 a4 b8 16 dd c6 b7 c7 c8 7d b8
       0.00021139711 -7.863515e-05 -2.370639e-05 -6.050689e-05
0003d0 60 23 39 b8 97 41 04 38 19 40 13 b8 df 14 b5 b7
       -4.4140383e-05 3.1532338e-05 -3.5107227e-05 -2.15866e-05
0003e0 e0 e0 69 b8 58 69 b2 b5 85 e4 ca b8 60 01 16 39
       -5.576096e-05 -1.3292693e-06 -9.674676e-05 0.00014305627
0003f0 ac 11 80 38 62 31 4a b8 4f 77 ae b7 01 5d a0 b7
       6.106807e-05 -4.8206544e-05 -2.0797974e-05 -1.9116795e-05

normalize_lstm.weight_hh_l1 f4 [256, 64]
000000 d6 4c 93 36 0e bd 1f 38 41 39 e3 37 fd 7f 2e 38
       4.3898863e-06 3.8084625e-05 2.708717e-05 4.160403e-05
000010 14 af 37 b7 54 4f 07 38 9c b0 d7 37 5d 0c b9 38
       -1.0948414e-05 3.226039e-05 2.5712237e-05 8.82379e-05
000020 48 8b d1 37 d2 ff 42 37 46 7b 64 b8 7a 9d a6 b8
       2.49796e-05 1.1622864e-05 -5.4474243e-05 -7.944829e-05
000030 59 a6 25 b8 c4 37 c0 38 cb 81 d4 b8 0f 83 86 35
       -3.949399e-05 9.1656606e-05 -0.000101331236 1.0021921e-06
000040 9b c9 05 b8 70 4f 0e b9 33 55 f1 36 32 84 03 b8
       -3.189743e-05 -0.00013571768 7.192278e-06 -3.135595e-05
000050 c2 f4 b7 38 90 df 9b b8 a4 9c 92 37 02 8b 2c b8
       8.77171e-05 -7.432618e-05 1.7477498e-05 -4.1137457e-05
000060 0d 42 e5 b8 d0 21 ad 38 c7 12 4c b7 8e 9f 74 b7
       -0.00010931874 8.255581e-05 -1.21637195e-05 -1.4580683e-05
000070 59 da 60 b8 d2 73 43 39 d6 14 8c 38 4a 24 40 b9
       -5.3609114e-05 0.00018639796 6.679601e-05 -0.00018324066
000080 2c b6 fa b7 5e 06 f8 b8 b3 17 41 36 84 00 9e 38
       -2.9887153e-05 -0.000118267475 2.8773036e-06 7.534123e-05
000090 82 a7 9f 38 65 0b d4 b7 cb 19 0c 38 fd b8 a8 37
       7.6129116e-05 -2.5277675e-05 3.3402623e-05 2.0113303e-05
0000a0 11 e5 c7 37 22 38 c6 b7 f1 7d 03 b9 45 d9 a4 b8
       2.3829316e-05 -2.3629578e-05 -0.0001254005 -7.860599e-05
0000b0 01 30 50 b8 6b 40 c2 b7 db 99 e0 b7 42 70 bf 38
       -4.963577e-05 -2.31566e-05 -2.6774525e-05 9.1284994e-05
0000c0 a5 a2 16 38 e2 e9 88 37 8c d7 2e 37 12 43 05 39
       3.591426e-05 1.6321374e-05 1.0421394e-05 0.00012708854
0000d0 18 a0 61 38 88 65 06 39 4d b5 64 b8 3c 5f ea 37
       5.379328e-05 0.00012817059 -5.4528286e-05 2.793932e-05
0000e0 44 8c 10 b8 6b 9f e2 b4 70 23 c0 38 7b 69 44 b7
       -3.4462908e-05 -4.2211772e-07 9.161874e-05 -1.17070695e-05
0000f0 98 2c 91 b7 cc 20 ef b7 0f 9c 1d 37 bf 76 0f b8
       -1.7306113e-05 -2.8506292e-05 9.394264e-06 -3.4204448e-05
000100 e2 8a 0f 39 06 1f 2f b7 d3 e6 84 37 d5 e1 3c b7
       0.0001368928 -1.0438036e-05 1.5843112e-05 -1.1258254e-05
000110 0f 9e 1f b7 e6 84 f3 37 7a b4 a8 b7 0f ea 54 b8
       -9.513939e-06 2.9029743e-05 -2.0111202e-05 -5.0762723e-05
000120 fc 2f 8c 38 f7 f3 13 38 be 70 33 b8 d0 1e ef 38
       6.684658e-05 3.527474e-05 -4.2781925e-05 0.00011402147
000130 06 83 d4 b8 fb a0 89 b7 1b 88 03 b9 58 c9 9f 38
       -0.00010133353 -1.6406635e-05 -0.00012543837 7.619214e-05
000140 bd c9 08 39 86 8d e2 b8 e8 61 7c b5 43 77 62 38
       0.00013045124 -0.000108028806 -9.401979e-07 5.399367e-05
000150 32 7f d3 b7 49 18 0e 38 43 b4 dd 37 fc c2 5a 38
       -2.521239e-05 3.3878056e-05 2.6429194e-05 5.2156844e-05
000160 09 19 6a 38 2f 50 e3 35 7c 72 1c b8 58 d7 1c b8
       5.5813263e-05 1.6936154e-06 -3.729992e-05 -3.7393853e-05
000170 ac fd 12 b8 bc 60 cc 37 62 94 a2 37 d3 88 5e 39
       -3.5045363e-05 2.436374e-05 1.9381001e-05 0.00021222541
000180 41 64 ae b8 b7 91 a9 38 68 e1 36 b8 c6 22 ef b7
       -8.31564e-05 8.0856895e-05 -4.3602107e-05 -2.8507213e-05
000190 31 54 5c 38 6f af 07 b8 3b 7d d7 b7 8c a2 98 b7
       5.2530497e-05 -3.2349893e-05 -2.5688312e-05 -1.8195504e-05
0001a0 b4 92 35 b8 71 1b 43 b8 fa 73 06 39 82 22 86 b8
       -4.329039e-05 -4.651718e-05 0.0001282244 -6.3960455e-05
0001b0 2a 23 1d b8 5d da 44 b9 db 4a 1f b8 2b 5b 9d 38
       -3.7464466e-05 -0.00018773363 -3.797827e-05 7.503325e-05
0001c0 0c f4 9f b6 93 69 a6 38 a9 e5 b6 37 38 33 e7 38
       -4.76698e-06 7.9351616e-05 2.1803035e-05 0.000110244786
0001d0 ef 17 91 b7 a0 77 59 39 14 c6 3c 39 fd 37 37 b7
       -1.7296492e-05 0.00020739296 0.00018002867 -1.0920686e-05
0001e0 f9 05 a8 b8 4d 1e 4e 38 3c 49 80 38 3f 1a 54 b8
       -8.011977e-05 4.9142447e-05 6.1171566e-05 -5.0569182e-05
0001f0 92 ea 1e 38 61 77 08 38 5f 2a 69 35 de 89 07 b9
       3.7888596e-05 3.2536107e-05 8.686092e-07 -0.00012925963
000200 69 0b 69 38 05 d7 9b 38 56 e7 e3 b8 e0 34 a3 37
       5.5562155e-05 7.4310265e-05 -0.00010867293 1.9455736e-05
000210 73 57 82 37 4e fa 62 36 ef 0d b5 38 b5 6e 8d b7
       1.553793e-05 3.382232e-06 8.633348e-05 -1.6860062e-05
000220 9f 91 03 39 f3 eb 3f 37 1a 03 11 b8 9a ff f6 37
       0.00012547382 1.1439423e-05 -3.4573583e-05 2.9444509e-05
000230 78 a3 df b8 ba 56 0a b8 ac 92 de b8 cf c3 25 b8
       -0.00010663917 -3.2982534e-05 -0.00010613105 -3.9521427e-05
000240 3e 25 db b7 6e 7c 00 38 76 2e b8 38 e8 8a 54 b8
       -2.6124177e-05 3.0633462e-05 8.782458e-05 -5.0674105e-05
000250 32 39 db 38 09 dc 7e b8 df 53 82 38 f1 61 d2 b7
       0.00010453387 -6.0763243e-05 6.214505e-05 -2.5079558e-05
000260 d9 a3 03 38 e8 e9 82 38 17 56 a3 b8 0a e4 94 37
       3.138543e-05 6.2424515e-05 -7.788481e-05 1.7749164e-05
000270 49 a9 bd 37 d0 4c 05 b8 3e c1 32 37 22 f5 e0 38
       2.2609385e-05 -3.178121e-05 1.06546195e-05 0.00010726812
000280 14 e2 48 38 ca a0 84 37 75 24 4b b7 8d 5d 00 b8
       4.7894267e-05 1.58105e-05 -1.2108231e-05 -3.0604704e-05
000290 73 bc b0 b6 06 ed cb b7 d7 ef 7d b8 75 b3 e2 b8
       -5.267147e-06 -2.4309858e-05 -6.054327e-05 -0.00010809946
0002a0 af 78 a8 34 fe 15 5f b9 62 c2 67 b7 8b b8 3f 38
       3.1380247e-07 -0.0002127513 -1.3813931e-05 4.5709818e-05
0002b0 4c be 80 b8 1c d4 10 b8 c6 a8 a0 38 71 07 e5 b6
       -6.138961e-05 -3.4529818e-05 7.660831e-05 -6.825598e-06
0002c0 41 9a d7 b8 df 14 43 37 57 55 89 38 63 c4 78 b8
       -0.00010280731 1.1627765e-05 6.548565e-05 -5.9310707e-05
0002d0 b4 02 d5 b7 b6 ed a7 38 82 e6 bb b7 f5 44 03 b8
       -2.5392837e-05 8.007458e-05 -2.2399476e-05 -3.1297055e-05
0002e0 1b df 10 37 57 26 9a 37 50 21 7c 38 d8 06 41 b8
       8.635015e-06 1.8376084e-05 6.0112507e-05 -4.602116e-05
0002f0 f0 82 aa 38 8a 2b 07 b8 e1 d3 9b 36 9c 9b c9 35
       8.130621e-05 -3.2227057e-05 4.644026e-06 1.5020955e-06
000300 3f 78 99 b7 43 4f 7f b7 6e 98 03 39 bd 03 c5 37
       -1.8295015e-05 -1.5217639e-05 0.00012549918 2.348597e-05
000310 1d 08 55 37 be 6b 0e b8 c5 6d f4 37 fc b0 eb b7
       1.2697678e-05 -3.395578e-05 2.9138182e-05 -2.8096598e-05
000320 b2 ee 83 b7 56 71 22 b8 43 1a 37 37 37 58 4f 38
       -1.5727568e-05 -3.8729362e-05 1.09137645e-05 4.9434802e-05
000330 12 40 ac 38 3c 5a d1 b7 f3 5f c7 37 e8 af 15 39
       8.213533e-05 -2.495676e-05 2.3767328e-05 0.00014275277
000340 4a cc 2a 37 87 9a 27 38 75 4d e1 38 a3 04 48 38
       1.0180354e-05 3.9959818e-05 0.000107432636 4.7688034e-05
000350 26 89 11 39 5c 89 18 b8 16 3d 64 37 bd b5 7d b8
       0.0001387937 -3.636755e-05 1.3604082e-05 -6.0489157e-05
000360 d9 79 7b 38 55 c6 92 35 ef 7c 88 36 a5 5b 00 b8
       5.9956543e-05 1.093557e-06 4.06766e-06 -3.060293e-05
000370 cb 4d 68 b8 7a e6 00 b8 b2 56 d2 b7 b6 49 6a b8
       -5.538556e-05 -3.0732226e-05 -2.5074321e-05 -5.5858596e-05
000380 67 5a 17 39 73 05 d8 b7 ca fe 98 38 cf 13 c2 38
       0.0001443416 -2.5751744e-05 7.295383e-05 9.2543305e-05
000390 6b 65 89 38 57 3c d9 b8 93 84 0a b8 40 da ff b8
       6.5515596e-05 -0.000103586055 -3.3025233e-05 -0.000122
0003a0 28 0b f4 b7 2b 0e 68 b7 9e cc 17 37 99 34 ff 36
       -2.9092262e-05 -1.3831576e-05 9.0479425e-06 7.6057154e-06
0003b0 24 18 07 38 f3 8a 19 38 24 a2 a8 38 92 95 30 b8
       3.220899e-05 3.660745e-05 8.041065e-05 -4.2100968e-05
0003c0 cb 44 3e b8 f4 af 5c 38 fc 9d 77 b8 3a 33 ab 37
       -4.53636e-05 5.2615957e-05 -5.9036523e-05 2.0408643e-05
0003d0 e3 a5 a0 38 73 f7 bb b7 c2 cc f0 37 e9 77 00 37
       7.660293e-05 -2.2407365e-05 2.8705577e-05 7.657313e-06
0003e0 69 4d ab b6 7a 18 34 37 97 e7 a2 b8 df 92 a2 38
       -5.105209e-06 1.0734535e-05 -7.767899e-05 7.752119e-05
0003f0 29 b6 28 33 24 2a e2 37 28 3b ce b8 fd 79 86 b8
       3.9281222e-08 2.6960923e-05 -9.833864e-05 -6.41234e-05
